notebooks/experiments/pendulum_scinet.pth (torch, 353020 bytes, 13 tensors)

encoder.layers.0.weight f4 [500, 50]
0	0xbd9b7e82	-0.07592489
1	0x3d34ece0	0.044171214
2	0xbdb27582	-0.08713819
3	0x3d61bbc3	0.055110704
4	0x3dac9f9a	0.08428879
5	0xbc28a7a4	-0.010293875
6	0x3e0568aa	0.13028207
7	0xbd3011ba	-0.042985655
8	0xbcd036a5	-0.025416682
9	0x3bd9e59e	0.006649687
10	0x3dfb7d37	0.12279742
11	0x3d3670f6	0.04454132
12	0x3dd1ff1e	0.10253738
13	0x3d5b57b3	0.053550433
14	0xbddd8972	-0.10817231
15	0x3d180dd9	0.03712258
16	0xbd79017d	-0.060792435
17	0xbcf1a36b	-0.02949687
18	0xbd0cb72d	-0.034354378
19	0xbe00af48	-0.12566864
20	0x3dc8cbf5	0.09804527
21	0xbda971ac	-0.08273634
22	0x3e0da43f	0.13832186
23	0x3e0fce85	0.14043625
24	0xbd9e3636	-0.07725184
25	0xbc1d9265	-0.009617423
26	0xbd85c371	-0.06531418
27	0xbd692945	-0.056924123
28	0x3d9bb8c9	0.07603604
29	0x3e08c7e7	0.13357507
30	0x3e0a7137	0.1351975
31	0x3c0209f8	0.007936947
32	0x3ddd983c	0.10820052
33	0xbdc6bcbb	-0.09703966
34	0xbde8d1b8	-0.11368126
35	0xbd1df842	-0.038566835
36	0x3d5c1bfe	0.053737633
37	0x3ce7856a	0.028261859
38	0xba5c02af	-0.0008392734
39	0x3cad35e5	0.021143863
40	0x3dd7aee5	0.10531405
41	0x3e0309be	0.12796685
42	0xbd805d49	-0.06267793
43	0x3dbd9344	0.09256604
44	0xbbb2b1e5	-0.0054533356
45	0xbdc8eee6	-0.09811191
46	0x3d40fd94	0.04711683
47	0xbdcb1d09	-0.099176474
48	0xbd6de504	-0.058079734
49	0xbd0877c7	-0.033317354
50	0x3dae3857	0.0850684
51	0x3d141cda	0.036160327
52	0xbd6a305a	-0.057175018
53	0x3d4b80e2	0.04968346
54	0xbe01024d	-0.12598534
55	0xbd962ebe	-0.07333134
56	0xbdc62c3c	-0.09676406
57	0x3d79d9f8	0.060998887
58	0x3d426564	0.047459975
59	0xbcbccb0f	-0.023046045
60	0xbda72339	-0.08161015
61	0x3e08a846	0.13345441
62	0x3e0940b1	0.13403584
63	0xbde72442	-0.112862125
64	0x3d00a75d	0.03140961
65	0x3d118208	0.035524398
66	0x3c438cf4	0.011935461
67	0xbd8de10d	-0.06927691
68	0x3de58400	0.112068176
69	0xbbc294cd	-0.0059381486
70	0x3c03d3df	0.0080461195
71	0x3c08a555	0.0083401995
72	0xbdadb617	-0.084819965
73	0x3c6b07e5	0.014345144
74	0x3dcc45ff	0.09974288
75	0xbdfd1a91	-0.12358583
76	0x3d890566	0.06690483
77	0xbdcf50ae	-0.1012281
78	0x3e015bcb	0.12632672
79	0xbd4f16c4	-0.05055882
80	0x3d260461	0.04053152
81	0xbabcb095	-0.0014395887
82	0x3cd07805	0.025447855
83	0x3df6a1b9	0.12042565
84	0x3dcc5dc8	0.09978825
85	0x3c80bbc3	0.015714532
86	0x3d78b454	0.06071885
87	0x3d5287ab	0.051398914
88	0x3de44221	0.111454256
89	0x3d1f3a09	0.038873706
90	0x3d81eaa8	0.06343585
91	0xbd292b83	-0.04130126
92	0xbce42133	-0.027847862
93	0x3db52c39	0.088463254
94	0xbd9f46c0	-0.07777166
95	0x3d7e5db5	0.062101085
96	0xbd121705	-0.035666484
97	0xbde44b8b	-0.11147221
98	0x3e0cde92	0.13756779
99	0xbdc42e98	-0.095791996
100	0xbd98ae6f	-0.074551456
101	0x3c64d165	0.013965939
102	0xbd796f50	-0.06089717
103	0xbdf6dee5	-0.120542325
104	0xbd350b60	-0.0442003
105	0xbdc5a6ca	-0.09650953
106	0x3df739eb	0.12071594
107	0x3dd17e42	0.1022916
108	0xbe03c7c5	-0.12869175
109	0x3e035051	0.12823607
110	0x3dbb2b62	0.09139134
111	0x3d1053de	0.035236232
112	0xbddc75e7	-0.107646756
113	0xbd594ea1	-0.053053502
114	0xbdfb7203	-0.122776054
115	0xbd5044bf	-0.05084681
116	0x3d4b7537	0.04967233
117	0xbd78daec	-0.060755655
118	0x3d814df7	0.06313699
119	0xbc901c32	-0.01759157
120	0xbd933038	-0.07186931
121	0x3dff73c0	0.124732494
122	0xbdce601b	-0.100769244
123	0xbd451a0b	-0.04812054
124	0xbd62d185	-0.055375595
125	0xbe0d24c7	-0.1378356
126	0xbe09dbb0	-0.1346271
127	0x3cb52a6c	0.022114955
128	0xbda6eb8c	-0.08150396
129	0xbb1f783f	-0.0024333147
130	0xbb8ee6a5	-0.004360991
131	0xbdd8a051	-0.10577453
132	0xbd55c8f0	-0.052193582
133	0xbdd9bda8	-0.10631877
134	0x3d6655a6	0.056234024
135	0x3da2f750	0.07957327
136	0xbb530168	-0.0032196883
137	0xbde411c2	-0.111361995
138	0xbdf122a9	-0.11774189
139	0x3dd37173	0.10324373
140	0x3c6a7a9e	0.014311461
141	0xbdcf6418	-0.10126513
142	0xbd01498b	-0.031564277
143	0xbc24ddd3	-0.010062653
144	0x3cc0af15	0.023520986
145	0xbdd4700a	-0.10372932
146	0xbd590b6e	-0.052989416
147	0x3dd01143	0.101595424
148	0xbd9de463	-0.07709577
149	0x3db38565	0.08765677
150	0x3e067717	0.13131367
151	0xbdc2bf3a	-0.0950913
152	0x3d3d6494	0.046238497
153	0xbd835100	-0.06411934
154	0xbc24290c	-0.010019552
155	0xbe008ae2	-0.1255298
156	0x3d231a6f	0.03982013
157	0x3dc1a77b	0.094557725
158	0x3d8b881e	0.06813072
159	0x3d3c8198	0.046022028
160	0xbdfadf2b	-0.12249597
161	0x3d1c8fa0	0.03822291
162	0x3d232511	0.03983027
163	0xbe0398c3	-0.12851243
164	0x3d8efc41	0.06981707
165	0xbda43f99	-0.08019943
166	0x3ddd055f	0.1079204
167	0xbdbcb2f8	-0.09213823
168	0x3dcbee4e	0.099575624
169	0xbd015841	-0.031578306
170	0xbe0a7bde	-0.13523814
171	0x3e0bc235	0.13648303
172	0xbd8929c6	-0.06697421
173	0x3dadd916	0.084886715
174	0xbe05aea5	-0.13054903
175	0x3da56e87	0.08077722
176	0x3d5ce7e0	0.05393207
177	0x3c3dee11	0.011592404
178	0xbd6a063e	-0.05713486
179	0xbdd8dc5c	-0.10588905
180	0xbd3d49ae	-0.046212845
181	0x3da3a3b2	0.07990207
182	0x3cf0be65	0.029387662
183	0x3ccbb8a0	0.02486831
184	0x3ce5c88b	0.028049728
185	0xbc7894b1	-0.01517217
186	0xbd96c7b0	-0.07362306
187	0xbdd9a3a8	-0.10626918
188	0x3db620c5	0.08892969
189	0x3d4ac68a	0.049505748
190	0xbd8a8ac2	-0.06764747
191	0x3de35876	0.11100857
192	0xbc37fe74	-0.0112301
193	0xbdf43d57	-0.11925762
194	0xbdcf88b9	-0.101335
195	0x3dca5e3c	0.09881255
196	0x3dc6515c	0.09683487
197	0x3da39bcf	0.079887025
198	0x3ce86705	0.028369436
199	0x3dadd2fb	0.08487507
200	0x3d7cf3bd	0.061755884
201	0x3dd156ca	0.10221632
202	0x3d1aa30a	0.037753142
203	0x3c96e926	0.01842172
204	0xbdb8f108	-0.09030348
205	0xbe06e0b8	-0.13171661
206	0x3d3aca97	0.04560336
207	0x3d8a34b7	0.06748336
208	0x3d8f4d9f	0.06997227
209	0x3cb98a86	0.022649061
210	0xbda1df6c	-0.079039425
211	0x3d81a3b3	0.06330051
212	0xbdc693a1	-0.09696127
213	0xbe0c31f5	-0.13690932
214	0x3d6fcd29	0.058545265
215	0xbe072517	-0.13197742
216	0x3c3d1e33	0.011542845
217	0x3d3b3158	0.045701355
218	0xbc401ffa	-0.011726374
219	0x3dc64422	0.09680964
220	0xbbcd2e1b	-0.0062615997
221	0xbdb2f83f	-0.087387554
222	0xbdd7b280	-0.10532093
223	0xbcc694ee	-0.024240937
224	0xbccc1384	-0.02491165
225	0x3de1bf5d	0.11022828
226	0xbe0a1662	-0.13485101
227	0xbc6384bd	-0.013886628
228	0xbdcdb80b	-0.10044869
229	0x3db554ac	0.088540405
230	0xbd93aadf	-0.072103254
231	0xbd0bf53d	-0.034169424
232	0xbde5fb30	-0.11229551
233	0x3d45a1a2	0.04824985
234	0x3d8dc7a8	0.06922847
235	0xbdeef6de	-0.1166818
236	0xbdae9fd5	-0.08526579
237	0x3ca353e8	0.01993747
238	0xbd536d47	-0.051617887
239	0xbda836ea	-0.08213599
240	0x3c0b0552	0.008485155
241	0x3dff6a0a	0.12471397
242	0x3de60768	0.112318814
243	0xbda480f4	-0.08032408
244	0x3de1219a	0.10992737
245	0xbe031b39	-0.12803353
246	0xbd1bbb93	-0.03802068
247	0xbdec0f90	-0.11526406
248	0x3c546719	0.0129640335
249	0x3e019429	0.12654175
250	0x3d8bf360	0.068335295
251	0xbdcbea8d	-0.099568464
252	0xbd1a9fa7	-0.037749913
253	0x3d3e550c	0.046467826
254	0x3ddd95a9	0.10819561
255	0xbdaac497	-0.08338278

encoder.layers.0.bias f4 [500]
0	0xbdeecaf5	-0.11659805
1	0x3de93cf1	0.11388577
2	0xbdf2287a	-0.118241265
3	0xbc485a8d	-0.01222862
4	0x3de723c3	0.11286118
5	0xbe0cf455	-0.1376508
6	0xbe04295b	-0.12906401
7	0x3db811fa	0.08987804
8	0x3db0b943	0.08629086
9	0x3d27fd59	0.041013096
10	0x3e07e8fb	0.13272469
11	0x3d78b7fc	0.060722336
12	0xbe090da8	-0.13384116
13	0xbdf62601	-0.120189674
14	0x3d87add0	0.06624949
15	0xbc63242a	-0.013863603
16	0xbd7886d1	-0.060675446
17	0x3dd5c7f0	0.10438526
18	0x3c1a509d	0.009418634
19	0xbc2781f2	-0.0102238525
20	0xbd2b2baf	-0.041789707
21	0xbd20659d	-0.039159406
22	0xbc8ab411	-0.016931565
23	0xbd79da03	-0.060998928
24	0x3cd29124	0.025703974
25	0xbd30e310	-0.043185294
26	0xbdff78b7	-0.124741964
27	0x3dbf070e	0.093275174
28	0xbd649f7d	-0.055816162
29	0x3e08f7fc	0.13375849
30	0x3c805b8d	0.015668655
31	0xbe08e0e7	-0.13367043
32	0xbde938ef	-0.11387812
33	0xbd43420b	-0.047670405
34	0x3dc88db0	0.0979265
35	0xbdb6db07	-0.08928495
36	0xbdb34257	-0.08752888
37	0xbd281ce5	-0.04104318
38	0xbdc1e427	-0.09467345
39	0xbd14f9c9	-0.036371026
40	0x3ccaea7c	0.024770014
41	0xbd7fb098	-0.062424272
42	0xbdc9d3c8	-0.09854847
43	0xbdc4cdbd	-0.09609554
44	0xbc9dd3a9	-0.019265966
45	0xbd47d3ea	-0.04878608
46	0xbd495d9f	-0.04916155
47	0xbd7a3049	-0.061081205
48	0xbd807fc0	-0.062743664
49	0xbd6c45ec	-0.05768387
50	0x3d6a0b11	0.05713946
51	0x3db9ea17	0.09077852
52	0xbd7dcb8b	-0.06196169
53	0x3dbdcb0c	0.09267244
54	0xbe00a0e2	-0.12561372
55	0x3db84ec8	0.08999401
56	0xbcdb0665	-0.026736448
57	0x3bdfb9c9	0.0068275672
58	0x3dfb3801	0.12266541
59	0x3cd2fe23	0.025755947
60	0xbdd77bde	-0.10521673
61	0xbc4202fb	-0.011841531
62	0x3e0b2688	0.13588917
63	0xbd15c4a2	-0.036564477
64	0xbd59dfb1	-0.053191844
65	0xbd017a34	-0.031610683
66	0xbd6e0b7b	-0.058116417
67	0xbdd1e352	-0.10248436
68	0xbdeaa4a8	-0.11457187
69	0x3dc095c4	0.094035655
70	0xbe0fcd13	-0.14043073
71	0xbe014966	-0.12625656
72	0x3c9fdccb	0.019514462
73	0xbd4b657a	-0.049657322
74	0xbdaa7edf	-0.0832498
75	0xbd91af60	-0.07113528
76	0x3d0db0ef	0.034592565
77	0x3d8740ff	0.06604194
78	0xbdc46956	-0.09590404
79	0x3babb64f	0.0052402387
80	0xbde69565	-0.112589635
81	0xbde59552	-0.11210121
82	0x3c8fc51b	0.017550042
83	0xbcfb9fbb	-0.030715814
84	0xbdbe56b3	-0.0929388
85	0xbdc15f89	-0.0944205
86	0x3d88af66	0.066740796
87	0xbde2839a	-0.11060257
88	0x3d5b2456	0.05350145
89	0x3ce8d629	0.028422432
90	0xbb9b5155	-0.00473992
91	0xbc82c21f	-0.015961705
92	0xbbeb42c7	-0.0071795913
93	0xbd5d3a79	-0.054010842
94	0x3dd1030b	0.102056585
95	0x3c812bc9	0.015767949
96	0x3df8ac01	0.12142182
97	0xbd9e60ad	-0.07733283
98	0x3b4ce38a	0.0031263554
99	0xbdabb1e9	-0.08383543
100	0x3ce44ddb	0.027869156
101	0xbde41584	-0.11136916
102	0x3d31fb57	0.043452587
103	0xbdc08723	-0.09400775
104	0xbd2c0729	-0.041999016
105	0x3de993d4	0.11405149
106	0x3caf28c9	0.021381753
107	0x3d2e4478	0.042545766
108	0xbcb936c7	-0.022609128
109	0xbdfb988b	-0.12284955
110	0x3dc1ab9e	0.094565615
111	0x3dd79721	0.105268724
112	0x3d42e25b	0.04757915
113	0xbccc44fb	-0.024935236
114	0xbd5dbffe	-0.054138176
115	0xbd2f41a6	-0.042787217
116	0x3dd6f61f	0.104961626
117	0xbcae2af9	-0.021260725
118	0xbde721b1	-0.11285723
119	0x3d2e207b	0.042511445
120	0xbdb87c45	-0.090080775
121	0xbd30286f	-0.04300731
122	0x3e05d0ad	0.13067885
123	0x3de7f935	0.11326829
124	0x3e0e77f9	0.13912953
125	0x3e0cf7b3	0.13766365
126	0x3d88350f	0.06650745
127	0xbdd96894	-0.1061565
128	0x3dcb7e5f	0.09936213
129	0x3dfb0a96	0.122578785
130	0x3d833f70	0.06408584
131	0x3dda5336	0.106604025
132	0x3dffdf6d	0.12493787
133	0xbde29ddb	-0.11065265
134	0xbe0c9aa3	-0.13730864
135	0xbde049e8	-0.109515965
136	0x3dc3762f	0.09544026
137	0x3b800d21	0.003907815
138	0xbd510f55	-0.051040012
139	0x3d717087	0.058945205
140	0xbbc6c7ad	-0.0060662837
141	0x3d942b18	0.07234782
142	0xbdad5750	-0.08463919
143	0xbdc5f564	-0.09665945
144	0x3de602e5	0.11231021
145	0xbdf44fe4	-0.119293004
146	0x3c65c8e7	0.01402495
147	0xbe085517	-0.13313709
148	0xbdff92b6	-0.12479155
149	0x3cb306f7	0.021853907
150	0x3d8d291b	0.06892606
151	0xbdd3f053	-0.103485726
152	0x3da71aac	0.08159384
153	0x3e03c290	0.12867188
154	0x3dc7a482	0.09748174
155	0x3bb9c033	0.005668664
156	0x3de815c5	0.11332277
157	0xbd18f03f	-0.03733849
158	0xbd9c9f07	-0.076475196
159	0xbdb70425	-0.089363374
160	0xbdd9aff9	-0.10629267
161	0xbdba7a2e	-0.09105335
162	0x3df49621	0.11942697
163	0xbb09fc34	-0.0021054866
164	0xbe076e2d	-0.13225622
165	0xbc40d7c8	-0.011770196
166	0xbafa4a97	-0.0019095716
167	0x3e03bdbd	0.12865348
168	0xbdf5567d	-0.11979387
169	0xbdfa00eb	-0.12207206
170	0x3d7909d7	0.0608004
171	0xbd9f9aed	-0.077932216
172	0xbdf3ab9b	-0.118979655
173	0xbdd4c1eb	-0.103885494
174	0xbd970561	-0.07374073
175	0xbdf1b2ec	-0.11801705
176	0xbdac1b71	-0.084036715
177	0x3db6e14e	0.08929692
178	0xbcf9ef01	-0.030509474
179	0xbe0c8eab	-0.13726299
180	0x3bbdc99f	0.0057918574
181	0xbb56f925	-0.003280231
182	0xbdd61b77	-0.10454457
183	0xbe0344e3	-0.12819247
184	0xbb865439	-0.0040993956
185	0xbc44a609	-0.0120024765
186	0x3d87f28e	0.066380605
187	0x3de2c0d4	0.11071935
188	0x3d9d3a2c	0.07677111
189	0xbde4834a	-0.11157854
190	0x3e008d14	0.12553817
191	0x3e012580	0.12611961
192	0xbd8568f4	-0.06514159
193	0x3dfac658	0.12244862
194	0xbc5054e2	-0.01271555
195	0x3c8f10a2	0.017463986
196	0xbdf2670b	-0.1183606
197	0x3d81867f	0.06324481
198	0x3d89a6b2	0.06721248
199	0x3cac2cda	0.02101748
200	0x3dd26ccc	0.102746576
201	0xbd631b80	-0.055446148
202	0x3dc71eee	0.09722696
203	0xbc57538e	-0.01314248
204	0x3db40e31	0.08791769
205	0x3dd15b64	0.102225095
206	0xbd426b67	-0.047465708
207	0x3dd22604	0.10261157
208	0x3cecaa86	0.028889906
209	0x3d9bcc01	0.0760727
210	0x3df30cd5	0.11867682
211	0x3c7dc571	0.015488968
212	0x3ca63be5	0.020292232
213	0x3dcb6df3	0.099330805
214	0x3cfb85f3	0.03070352
215	0x3cd6afba	0.02620684
216	0xbce956e2	-0.028483812
217	0x3dc9d4df	0.09855055
218	0xbd8ac3fd	-0.06775663
219	0x3cfc65a2	0.030810181
220	0xbe044ae9	-0.12919201
221	0x3e09b894	0.13449317
222	0xbd0c4e23	-0.034254204
223	0xbca4588a	-0.02006175
224	0x3df1367e	0.11777972
225	0x3cccc525	0.02499635
226	0xbd0ce4db	-0.03439794
227	0xbc370073	-0.011169541
228	0x3da6341b	0.08115407
229	0x3c478ba0	0.012179285
230	0xbd2d5535	-0.042317588
231	0xbe00f98f	-0.12595199
232	0xbdfdbf43	-0.12389996
233	0xbd5d3dbb	-0.05401395
234	0x3d2e2492	0.042515345
235	0xbca8410d	-0.020538831
236	0xbe0eb31f	-0.13935517
237	0xbcdd511b	-0.027016213
238	0x3d80503d	0.06265304
239	0x3d54a89c	0.05191861
240	0x3c767cf9	0.015044444
241	0x3dea137f	0.114295
242	0x3de0a873	0.10969629
243	0x3dc9abaf	0.09847199
244	0x3cea13e7	0.028573943
245	0x3d85188f	0.06498825
246	0x3da334ce	0.07969056
247	0x3da29000	0.07937622
248	0x3cbd0ba6	0.023076843
249	0x3e026af7	0.12736116
250	0x3d41cfb6	0.04731723
251	0x3de4d1e0	0.11172843
252	0x3cacfba5	0.021116087
253	0xbd91767c	-0.07102677
254	0x3e005bf7	0.12535082
255	0x3d5bfcb8	0.05370781

encoder.layers.1.weight f4 [100, 500]
0	0xbc305c4f	-0.010764196
1	0xbc8d2158	-0.017227814
2	0x3a915516	0.001108798
3	0xbd2c8392	-0.042117663
4	0x3d293e49	0.041319165
5	0x3bb0baf4	0.0053933803
6	0x3d2334b9	0.039845202
7	0xbce071a6	-0.027397942
8	0x3cbc6e0d	0.023001695
9	0x3cbd5652	0.02311245
10	0x3cda25ac	0.026629291
11	0xbc006c7c	-0.007838365
12	0x3c9a7848	0.018856183
13	0xbc7f6bac	-0.015589636
14	0x3c1e0580	0.009644866
15	0x3d1a75c4	0.037709966
16	0xbba76e1c	-0.0051095616
17	0xbd2bce55	-0.04194482
18	0x3cc8a671	0.024493428
19	0xbc1f0b2b	-0.0097072525
20	0x3cde9060	0.027168453
21	0xbc103ba8	-0.008803286
22	0x3d288d69	0.041150484
23	0xbc2382e6	-0.009979939
24	0x3c7c9138	0.015415482
25	0xbcbbb49d	-0.022913272
26	0xbbf56c4c	-0.0074897166
27	0xbd0cc000	-0.034362793
28	0x3c382a5e	0.01124057
29	0xbc02653a	-0.007958705
30	0xbb4286f5	-0.0029682491
31	0xbc3083a9	-0.010773578
32	0xbc3b9787	-0.011449701
33	0x3cd6d729	0.026225643
34	0x3cb3009b	0.021850875
35	0x3d1bb27b	0.03801201
36	0x3cb5aabb	0.022176137
37	0xbb84d014	-0.004053125
38	0xbc8387df	-0.016056
39	0x3aac2998	0.0013134954
40	0x3d20bfbf	0.039245363
41	0x3d347df4	0.04406543
42	0x3c631c3f	0.013861715
43	0x3bf9e56b	0.0076262257
44	0xbbb708d4	-0.005585769
45	0x3d0c63e3	0.034274947
46	0xbc07d3fb	-0.008290286
47	0xbcdb50cc	-0.026771925
48	0xbd09d3bb	-0.033649188
49	0x3cb39fe0	0.02192682
50	0xbc6884d2	-0.014191823
51	0x3abed343	0.001455881
52	0x3cf17436	0.029474359
53	0x3cf7831b	0.030213883
54	0x3d0e4b14	0.03473957
55	0xbd17aee1	-0.037032012
56	0x3d3052a9	0.04304758
57	0x3c1dbc39	0.009627395
58	0xbc2ce463	-0.0105524985
59	0xbae7c229	-0.0017681766
60	0x39932ac4	0.00028069888
61	0xbc457d6f	-0.0120538315
62	0x3d1b47fd	0.03791045
63	0xbc816e4e	-0.015799668
64	0x3ccbc4f6	0.024874192
65	0x3d175cd4	0.036953762
66	0x3d1b1108	0.03785804
67	0x3cebf595	0.028803626
68	0xbc1814a1	-0.009282262
69	0x3c86c6f7	0.016452296
70	0x3d1e6e3a	0.03867934
71	0xbd30da84	-0.043177143
72	0xbc005990	-0.007833853
73	0xbc84c018	-0.016204879
74	0xbbd67ae6	-0.0065454124
75	0xbcb0189e	-0.021496113
76	0xbbee02a6	-0.0072634993
77	0x3cfaf0a0	0.030632317
78	0x3acfb796	0.001584756
79	0x3b230064	0.002487206
80	0xbcf984f8	-0.030458912
81	0xbcb9c9e1	-0.022679271
82	0xbad78397	-0.0016442415
83	0xbd1d2987	-0.03836968
84	0x3ccbb3ac	0.024865948
85	0xbd30bda3	-0.0431496
86	0x3bc39dee	0.0059697544
87	0x3c629063	0.01382837
88	0x3ccba381	0.024858238
89	0xbc2c3184	-0.010509852
90	0x3d23b59d	0.03996812
91	0x3cd38d07	0.025824083
92	0xbd2ddb24	-0.042445317
93	0x3b507313	0.003180687
94	0xbaeba37c	-0.0017977799
95	0x3d0163e5	0.031589407
96	0xbd107372	-0.035266347
97	0x3cd21e90	0.025649339
98	0xbb06ea95	-0.00205866
99	0x3cfc6eb0	0.030814499
100	0x3b664ac0	0.003513977
101	0x3cd3f86b	0.02587529
102	0x3c06ed99	0.008235359
103	0xbd3641f6	-0.0444965
104	0x3d3450e0	0.04402244
105	0xbd1d6f59	-0.038436268
106	0xbc3042f7	-0.010758153
107	0x3afe8209	0.0019417416
108	0x3ceee0ba	0.029159892
109	0x3abb5a1c	0.0014293822
110	0xbcbe3b6c	-0.023221694
111	0xbca98132	-0.020691488
112	0x3d00ebee	0.031475
113	0x3d1dc206	0.038515113
114	0xbcaf133d	-0.021371478
115	0xba97d7ef	-0.0011584739
116	0xbab5d42f	-0.001387244
117	0xbc57342d	-0.013134998
118	0x3b58bbb4	0.0033070864
119	0x3cb655c9	0.022257702
120	0xbcc864c6	-0.024462115
121	0x3cb48b54	0.022039093
122	0xbc209307	-0.009800679
123	0xbb5fac45	-0.003412978
124	0xbba680df	-0.0050812806
125	0x3ce32d6c	0.02773162
126	0x3c1330a3	0.008983764
127	0xbaab16f7	-0.0013053109
128	0xbd35672f	-0.044287857
129	0xbb49123a	-0.003068103
130	0xbcc64ef4	-0.02420757
131	0xbd1163f9	-0.035495732
132	0xbb99bd8c	-0.004691785
133	0x3bbd704f	0.0057812105
134	0x3c9e8b57	0.019353552
135	0xbc0d509d	-0.008625177
136	0xbb8af242	-0.004240305
137	0x3c6c8068	0.014434911
138	0x3cecda54	0.0289127
139	0x3d1358e8	0.03597346
140	0xbd1e9dff	-0.038724896
141	0x3d2612ce	0.040545277
142	0x3d25168b	0.0403047
143	0x3b7e99ae	0.0038848924
144	0xbcf7c0b2	-0.030243251
145	0x3cf6c76d	0.03012439
146	0x3d120303	0.035647403
147	0xbcab8411	-0.020936998
148	0x3cdeade8	0.027182534
149	0xbcca3a0a	-0.024685878
150	0xbd29e538	-0.041478366
151	0xbc50d366	-0.012745714
152	0xbc76506a	-0.015033821
153	0x3cb79561	0.022410097
154	0x3d15fcfb	0.036618214
155	0x3ccb6b2e	0.02483138
156	0x3cde04c6	0.027101886
157	0x395defe6	0.00021165572
158	0x3c14d766	0.009084558
159	0xba8fac3c	-0.0010961364
160	0xbc02cf23	-0.007983956
161	0x3d1ae011	0.037811343
162	0xbd20d4a1	-0.03926528
163	0x3d080037	0.03320333
164	0xbcd45f58	-0.02592437
165	0xbcae1a6d	-0.021252835
166	0xbc9f1d07	-0.019423021
167	0xbd28046b	-0.04101984
168	0x3cc10597	0.023562236
169	0xbcb5cc02	-0.022192005
170	0x3d0268fa	0.031838395
171	0x3cae0dce	0.021246817
172	0xbcd9286d	-0.026508534
173	0x3c177b85	0.009245758
174	0x3bf4d05b	0.007471127
175	0x3c367bed	0.011137945
176	0x3c071c05	0.0082464265
177	0xbbf3146d	-0.0074182064
178	0xbbc00389	-0.0058597964
179	0xbd0071fe	-0.03135871
180	0x3d2a6a74	0.041605428
181	0xbcbdbdf6	-0.02316187
182	0xbcfb0ab5	-0.030644754
183	0x3d0924cc	0.033482358
184	0x3cd2bb6d	0.025724137
185	0xbc42853b	-0.011872585
186	0xbccf54c7	-0.02530898
187	0x3c7aed12	0.015315311
188	0xbd285962	-0.041100867
189	0x3cc7d487	0.024393333
190	0x3c34b056	0.01102837
191	0x3d2dd16e	0.042436056
192	0x3a204dd3	0.00061151123
193	0xbc5c35e4	-0.013440583
194	0x3c6d514c	0.014484715
195	0x3ce91b5d	0.02845543
196	0xbd0d8c56	-0.034557663
197	0xbc94b7ea	-0.018154103
198	0xbd1fa6ad	-0.038977314
199	0xba3d3c10	-0.0007218728
200	0x3c10defc	0.008842226
201	0xbc5a9cb3	-0.013343024
202	0xbc238390	-0.009980097
203	0xbbbc99c8	-0.005755637
204	0x3cfb111e	0.03064781
205	0xbd24aad7	-0.040201988
206	0x3cf2cbee	0.029638257
207	0x3b6968b5	0.0035615389
208	0x3ceb4009	0.028717058
209	0x3c175877	0.0092374
210	0x3cea133c	0.028573625
211	0x3b940036	0.0045166267
212	0x3bd6466e	0.0065391576
213	0x3b9ab230	0.0047209486
214	0xbcb59cba	-0.02216946
215	0xbc194425	-0.009354626
216	0x3cfd9d2c	0.030958734
217	0xbc63cc5b	-0.013903703
218	0xbd02d8f8	-0.0319452
219	0xbc663d3b	-0.014052684
220	0x3bf583e4	0.007492529
221	0xbd02ed0b	-0.031964343
222	0xbd03fc3d	-0.032222975
223	0x3d1309ee	0.03589814
224	0xbd0ccdd7	-0.03437599
225	0xbc9360ad	-0.017990435
226	0xbcbe072c	-0.02319678
227	0x3d12d7d9	0.03585038
228	0x3c82791d	0.015926892
229	0xbd210cf4	-0.039318994
230	0x3cb4e86d	0.022083485
231	0xbbb66fae	-0.0055675125
232	0xbcbbef21	-0.022941174
233	0xbcdb221a	-0.02674966
234	0x3cbc8372	0.023011897
235	0xbb989a0b	-0.004657035
236	0xbc6bc756	-0.014390787
237	0x3c355ce1	0.011069507
238	0xbcafa0f8	-0.02143906
239	0xbc06a0ba	-0.008217031
240	0xbc5af070	-0.013362989
241	0x3bd7db29	0.006587405
242	0x3d054268	0.032534033
243	0x3d0d6bc3	0.034526598
244	0xbd1f65dc	-0.0389155
245	0xbd078c79	-0.03309295
246	0xbc5c0343	-0.013428512
247	0x3d133e95	0.035948355
248	0x3d24fd76	0.04028078
249	0x3c303c19	0.010756516
250	0x3d0bd6b1	0.034140293
251	0x3cf49084	0.029854067
252	0x3be6fa27	0.0070488635
253	0xbc9f2dd4	-0.019431032
254	0x3c23b5f6	0.009992113
255	0x3b7f3031	0.0038938636

encoder.layers.1.bias f4 [100]
0	0xbba296b1	-0.0049618115
1	0x3d0f68ac	0.035011932
2	0x3cc5220c	0.024064086
3	0xbbf6f2a6	-0.00753625
4	0x3c919699	0.017772006
5	0x3d058d50	0.03260547
6	0x3bbc5497	0.0057473886
7	0xbbbec51b	-0.0058218366
8	0x3cb4f079	0.022087323
9	0x3c126ed1	0.0089375535
10	0xbcea078c	-0.028568052
11	0xbc48f1cb	-0.012264679
12	0x3d2e2f44	0.042525545
13	0xbce3a38d	-0.027787948
14	0xbc3ee5e1	-0.011651487
15	0x3cbc82ce	0.023011591
16	0x3d0455f2	0.032308526
17	0xbd33c0a6	-0.043884896
18	0x3caf66b2	0.021411274
19	0x3d011226	0.03151145
20	0xbb37db8d	-0.0028054446
21	0x3c959a85	0.018262157
22	0xbd06ff11	-0.032958094
23	0x3cbd9026	0.023140024
24	0x3d29e306	0.041476272
25	0x3b9252d2	0.0044654394
26	0xbc98fcae	-0.018675175
27	0xbcfc6b2a	-0.030812819
28	0x3c2fa5dc	0.010720696
29	0x3d344f87	0.044021156
30	0x3d06a7c2	0.03287483
31	0x3cd7fe39	0.02636634
32	0xbc664f9a	-0.014057064
33	0xbcf94274	-0.030427195
34	0xbc153a43	-0.009108129
35	0x3adee593	0.0017005674
36	0xbc1c9652	-0.0095573235
37	0xbadf4689	-0.0017034571
38	0x3d05d980	0.032678127
39	0xbd223b72	-0.039607473
40	0xbc8c8b2d	-0.017156208
41	0xbc51531e	-0.012776164
42	0xbd29c071	-0.041443292
43	0xbb0aad09	-0.0021160266
44	0x3ca92f3b	0.020652404
45	0xbcb06ab7	-0.02153526
46	0x3ac40249	0.0014954294
47	0x3b54dd92	0.00324807
48	0x3caf2ac6	0.0213827
49	0x3cbc314f	0.02297273
50	0xbd020fb3	-0.031753253
51	0x3cb54b58	0.022130653
52	0xbc3d4e3a	-0.011554295
53	0x3d197a47	0.03747013
54	0xba5114fd	-0.0007975845
55	0xbba71c0d	-0.0050997795
56	0xbccfc496	-0.025362294
57	0x3d0a183c	0.033714518
58	0x3cef5f6e	0.02922031
59	0x3c327445	0.010891979
60	0xbce628c0	-0.028095603
61	0x3cf54900	0.029942036
62	0x3c8c9b0d	0.017163778
63	0x3c87a82d	0.016559685
64	0x3cd9ea84	0.026601084
65	0x3c895a31	0.01676664
66	0xbc257dad	-0.010100764
67	0xbcd55319	-0.0260406
68	0xbd25ae99	-0.040449712
69	0x3d271784	0.04079391
70	0xbc92b1b1	-0.017906995
71	0xbcb9bf40	-0.022674203
72	0xbcb236c8	-0.021754637
73	0x3d17f6c3	0.037100565
74	0x3cdb73f1	0.026788684
75	0xbd303ad3	-0.04302485
76	0x3cf04dc9	0.029333966
77	0xbc67fa58	-0.014158808
78	0xbca9499a	-0.020664979
79	0x3c9af1fc	0.018914215
80	0x3cece23d	0.028916473
81	0xbcefb364	-0.029260345
82	0xbd11055b	-0.035405498
83	0xbc8110a0	-0.015754998
84	0xbd300832	-0.042976566
85	0xbd07ebca	-0.03318385
86	0x3caca082	0.02107263
87	0xbd1e1f11	-0.038603846
88	0x3cd8861b	0.026431134
89	0xbc9af113	-0.018913781
90	0xbd1d6d96	-0.038434587
91	0x3b3bdf35	0.0028666977
92	0x3d24d6a6	0.040243767
93	0xbd1b74b0	-0.03795308
94	0x3c468a53	0.01211794
95	0x3d1a8bc0	0.037730932
96	0xbcb4961c	-0.022044234
97	0x3cb1167c	0.021617167
98	0xbc6a5cd8	-0.014304362
99	0xbd1e14ca	-0.038594045

encoder.mean_layer.weight f4 [3, 100]
0	0xbdb4c967	-0.08827477
1	0xbd884886	-0.06654458
2	0x3d35b318	0.04436025
3	0x3d98f5a9	0.07468731
4	0xbd3dd2b7	-0.04634353
5	0xbd602823	-0.054725777
6	0x3dc247e6	0.0948637
7	0x3c00a5f3	0.007852065
8	0x3dca85b0	0.0988878
9	0xbb837631	-0.0040118922
10	0x3d22e51d	0.03976928
11	0xbccc90c8	-0.02497138
12	0x3c786012	0.015159624
13	0x3dc6b320	0.09702134
14	0x3d9a2bef	0.07527911
15	0xbdab4c1a	-0.083641246
16	0xbc915756	-0.01774184
17	0xbdbd67e6	-0.09248333
18	0x3da281f1	0.079349406
19	0xbc8e81c5	-0.017395863
20	0x3db172b7	0.08664458
21	0x3ce0c77a	0.027438868
22	0x3d94c187	0.07263475
23	0xbd8556cf	-0.06510698
24	0x3b2139af	0.0024601032
25	0x3d1a457b	0.037663918
26	0x3d905825	0.07048062
27	0xbdad252b	-0.08454355
28	0xbc9736ed	-0.018458808
29	0xbdb39e10	-0.087703824
30	0x3d85187d	0.064988114
31	0xbd1009de	-0.03516566
32	0x3ca4fbc2	0.020139579
33	0xbd607e6a	-0.054808058
34	0xbcf2b5c0	-0.02962768
35	0xbbe2e47d	-0.0069242106
36	0x3d8d8e24	0.06911877
37	0x3c947271	0.018120976
38	0x3c41afee	0.01182173
39	0xbcbd23ca	-0.023088355
40	0x3d0c45f5	0.034246404
41	0xbc9bc82d	-0.01901635
42	0xbce3474c	-0.027743958
43	0xbd4397bb	-0.047752123
44	0x3da66721	0.08125139
45	0xbd8887c7	-0.066665225
46	0x3d84d3b8	0.06485695
47	0xbdafc807	-0.08583074
48	0xbda99c1e	-0.0828173
49	0x3b8a552b	0.0042215786
50	0xbd44562b	-0.04793374
51	0xbbbc43f2	-0.0057454044
52	0x3d968852	0.0735022
53	0xbc49c1c6	-0.012314266
54	0x3d851f55	0.06500117
55	0x3b900e3e	0.004396229
56	0xbca078bc	-0.01958882
57	0x3d9c251b	0.07624265
58	0x3d031dd6	0.032010876
59	0x3be349a7	0.0069362703
60	0xbcf6bd0a	-0.030119438
61	0x3d9c08c1	0.07618857
62	0xbcb9a59a	-0.022661973
63	0xbd08feaa	-0.03344599
64	0xbd87df49	-0.06634385
65	0x3dc91102	0.09817697
66	0x3d4e18f1	0.050316755
67	0xbd002290	-0.03128296
68	0x3d2a14ed	0.041523863
69	0x3d99b4df	0.075052015
70	0x3d9288b1	0.07154978
71	0xbc2b2af6	-0.010447254
72	0xbd212ac2	-0.039347418
73	0xbc9760ad	-0.018478716
74	0xbc4e8c42	-0.012606682
75	0xbd9a8cb7	-0.075463705
76	0xbd961643	-0.07328465
77	0xbbcb1ef1	-0.006198757
78	0xbd56d787	-0.052451637
79	0x3da40357	0.080084495
80	0xbc881e42	-0.01661599
81	0x3c952c7c	0.018209688
82	0x3c955617	0.018229527
83	0xbd6a6d0e	-0.05723291
84	0xbdc27a44	-0.094959766
85	0x3dcb9d7c	0.09942147
86	0x3db4e1a1	0.08832098
87	0x3d658230	0.05603236
88	0x3d17656b	0.036961954
89	0xbd523d0f	-0.05132776
90	0x3c95c34a	0.018281598
91	0xb94450e1	-0.00018722146
92	0xbc3b35f9	-0.011426442
93	0x3d19d254	0.0375541
94	0xbd975380	-0.07388973
95	0x3d4886da	0.04895673
96	0x3d696e68	0.056990057
97	0x3d06fa1d	0.03295337
98	0xbd19fe76	-0.03759619
99	0xbc677ccb	-0.014128874
100	0xbdc7750e	-0.09739123
101	0x3d7c080c	0.06153111
102	0xbd656bc7	-0.056010988
103	0x3c73d4c4	0.01488227
104	0xbc16f44d	-0.009213519
105	0xbd84fc15	-0.06493393
106	0x3d8c1475	0.06839839
107	0x3cb275f5	0.021784762
108	0x3d2be60f	0.041967448
109	0xbdbeae10	-0.093105435
110	0x3d167a31	0.036737625
111	0x3dc54ddc	0.09633991
112	0xbd5a6a58	-0.053324074
113	0x3d47517f	0.048661705
114	0x3b51b574	0.0031999024
115	0xbd78d6bc	-0.06075166
116	0x3da548f3	0.080705546
117	0x3ca9f92e	0.020748701
118	0xbd8b4535	-0.068003096
119	0x3d7088c2	0.058724172
120	0x3c27c0a4	0.0102388
121	0xbd789113	-0.06068523
122	0xbcdd7ab3	-0.027036047
123	0xbcde0d18	-0.027105853
124	0xbd26a272	-0.040682264
125	0x3da8adae	0.08236252
126	0xbd246298	-0.04013309
127	0x3d96d215	0.07364289
128	0x3c9833b9	0.01857935
129	0x3d6b19d1	0.057397667
130	0xbdaa2977	-0.0830869
131	0x3c98ec85	0.018667469
132	0xbdbc6509	-0.091989584
133	0x3db5dbde	0.08879827
134	0x3d97c33f	0.07410287
135	0xbdbcf535	-0.09226457
136	0xbdc5a182	-0.09649946
137	0x3c66909b	0.014072563
138	0x3c58fc0e	0.013243688
139	0xbdafbbc8	-0.08580738
140	0xbdb6f63a	-0.08933683
141	0x3d0aeac0	0.03391528
142	0xbcb97a3a	-0.02264129
143	0xbd68339f	-0.056689855
144	0xbd35783c	-0.044304118
145	0xbd4845e4	-0.048894778
146	0xbdaf2656	-0.08552234
147	0xbd0ab2f8	-0.033862084
148	0xbdaebd05	-0.08532146
149	0x3d9546f1	0.072889216
150	0x3d4af401	0.049549107
151	0xbd6fc3cd	-0.05853634
152	0xbd9b3a63	-0.07579496
153	0xbdc4947c	-0.09598634
154	0x3dba29ce	0.09090005
155	0x3daa2cd0	0.083093286
156	0x3d92bded	0.07165132
157	0xbbf72701	-0.0075424914
158	0x3d33d83e	0.043907396
159	0xbd8d0738	-0.068861425
160	0xbd70e829	-0.058815155
161	0x3d6e6649	0.058203015
162	0xbd013d73	-0.031552743
163	0xbc4e80ab	-0.012603919
164	0xbd41767f	-0.047232147
165	0x3d43f290	0.047838748
166	0xbd988ec4	-0.074491054
167	0xbd0a89b4	-0.03382273
168	0x3ca8b9a3	0.020596331
169	0xbc012b66	-0.007883882
170	0xbdb7bdfa	-0.08971782
171	0x3d207234	0.039171413
172	0x3d62f146	0.055405878
173	0xbd0bada0	-0.03410113
174	0xbd4a6496	-0.049412332
175	0x3d8995f3	0.06718054
176	0xbcac54e8	-0.02103658
177	0xbd5e178d	-0.05422168
178	0x3dc299c3	0.09501984
179	0xbc16a4ad	-0.009194535
180	0xb95f9fee	-0.00021326516
181	0x3bb96b5e	0.005658551
182	0x3d8c790f	0.068590276
183	0xbc70f44e	-0.014706684
184	0x3cc3b91b	0.023891976
185	0x3dc482b1	0.0959524
186	0xbd6abe68	-0.05731049
187	0x3c605b38	0.013693623
188	0xbcd2eb87	-0.025747074
189	0x3d554f0e	0.052077346
190	0xbcb2a9c2	-0.021809462
191	0xbccadd69	-0.02476378
192	0x3da8e533	0.08246841
193	0xbdbbd815	-0.09172074
194	0x3d33c1ae	0.04388588
195	0xbd1ba9c0	-0.038003683
196	0x3d815511	0.06315053
197	0xbdab422f	-0.08362233
198	0xbdc553e1	-0.09635139
199	0x3dc71e7c	0.09722611
200	0x3bcf9df4	0.006335968
201	0x3b06c220	0.0020562485
202	0xbcc98b60	-0.024602592
203	0x3ce2874f	0.02765241
204	0xbd780f24	-0.060561314
205	0xbcd0d00f	-0.025489835
206	0xbdb7f0eb	-0.08981498
207	0xbd0fac53	-0.03507645
208	0xbda81f03	-0.0820904
209	0x3c99a9fe	0.018757816
210	0xbd0cb151	-0.03434879
211	0x3d028324	0.031863347
212	0x3d3e6090	0.046478808
213	0xbd8812bf	-0.066442005
214	0xbd7fc3b3	-0.062442493
215	0x3cabfe8a	0.020995397
216	0xbd78ff0e	-0.060790114
217	0x3d9b0acc	0.07570419
218	0x3d6a5191	0.057206694
219	0x3cbfaa2b	0.023396572
220	0xbd54bd51	-0.05193836
221	0xbd218e48	-0.03944233
222	0xbd81a5e8	-0.06330472
223	0xbd4c244a	-0.049839295
224	0x3dc0396b	0.093859516
225	0xbd7161c7	-0.05893114
226	0x3da0e15d	0.07855485
227	0x3dad6ec4	0.084683925
228	0xbdbda922	-0.09260775
229	0x3d85fdaf	0.06542527
230	0xbc46006a	-0.01208506
231	0xbbe18dcf	-0.00688336
232	0x3d2426cc	0.040076062
233	0x3dbda49a	0.09259911
234	0x3da44e4f	0.08022749
235	0x3daacec7	0.08340221
236	0x3c03662e	0.008019967
237	0x3da6ab81	0.081381805
238	0x3da746e6	0.0816782
239	0xbc33d40a	-0.010975847
240	0xbd20f5dd	-0.039296973
241	0x3dc02169	0.093813725
242	0x3d6a1e53	0.057157826
243	0xbd5b9f65	-0.053618807
244	0xbdc8ec8b	-0.09810742
245	0xbda29098	-0.07937735
246	0xbd9e542d	-0.07730899
247	0x3d130bc6	0.0358999
248	0x3d8d2abf	0.06892919
249	0xbb5f3ecf	-0.0034064536
250	0xbdb90c25	-0.090355195
251	0x3d60d9b8	0.054895133
252	0x3dac3101	0.08407784
253	0x3d925c68	0.07146531
254	0xbd70f7d6	-0.058830105
255	0xbdbb3c49	-0.09142358

encoder.mean_layer.bias f4 [3]
0	0x3db34579	0.08753485
1	0x3d7f0d7b	0.062268715
2	0xbd8f05ab	-0.06983503

encoder.logvar_layer.weight f4 [3, 100]
0	0xbc82675e	-0.01591843
1	0x3c9b5e62	0.018965904
2	0x3bb16f61	0.0054148887
3	0xbda0cc1d	-0.078514315
4	0x3d4b8123	0.0496837
5	0xbda26ae7	-0.07930546
6	0x3d298929	0.04139057
7	0x3c2bdbb0	0.010489389
8	0x3dac1bf0	0.08403766
9	0xbc89b801	-0.016811373
10	0x3d74c412	0.0597573
11	0x3db16def	0.08663546
12	0x3c78c5aa	0.015183846
13	0x3d1b6443	0.037937414
14	0xbdaf0adf	-0.08546995
15	0x3d0cdcc5	0.03439023
16	0x3ba98ea1	0.0051744734
17	0x3c795a44	0.015219275
18	0x3c89ebff	0.016836165
19	0xbc637ffe	-0.013885496
20	0xbb909bd7	-0.004413109
21	0xbd81c84d	-0.063370325
22	0xbd69a53f	-0.057042357
23	0xbc88a184	-0.01667858
24	0xbd9fb2df	-0.07797789
25	0xbcd39c8c	-0.025831483
26	0xbd2eb0c0	-0.04264903
27	0x3cd5d872	0.026104186
28	0x3d13d36c	0.0360903
29	0xbbb0fa76	-0.005400951
30	0x39002c3f	0.00012223514
31	0x3d0c1965	0.034203906
32	0x3c9c0365	0.019044587
33	0x3daaf5ca	0.08347662
34	0xbd77dddd	-0.06051432
35	0x3d0f57aa	0.034995712
36	0xbd6372fb	-0.055529576
37	0xbd18abe0	-0.037273288
38	0x3cc82baf	0.024434892
39	0xbc131cb8	-0.008979015
40	0xbd145b2d	-0.036219765
41	0xbc76b46f	-0.015057667
42	0xbdb918ec	-0.090379566
43	0x3c76dc9e	0.015067248
44	0xbd5f77e3	-0.054557692
45	0x3da4b6f9	0.08042712
46	0xbd5a33c2	-0.053272016
47	0xbd84b2dd	-0.06479428
48	0x3d9f469d	0.0777714
49	0x3c9385de	0.018008169
50	0x3ca43833	0.02004633
51	0xbcd6b5f5	-0.02620981
52	0x3d341430	0.043964565
53	0x3d0df843	0.03466059
54	0xbc8e04d0	-0.01733628
55	0xbd588874	-0.052864507
56	0xbdc36fd4	-0.09542814
57	0x3cfe2b4e	0.031026509
58	0xbcb10e8f	-0.021613387
59	0x3dba9dcb	0.09112128
60	0x3d148b8c	0.036265895
61	0xb98b97ea	-0.0002662533
62	0xbd83cd27	-0.06435614
63	0x3d29a245	0.041414518
64	0xbdc48a29	-0.095966645
65	0x3dcacd29	0.099024124
66	0xbdc5ba73	-0.09654703
67	0x3cf6dd00	0.030134678
68	0x3c89dc90	0.016828805
69	0xbdcd1fbd	-0.10015819
70	0x3d90f45d	0.070778586
71	0xbc3d6d86	-0.011561757
72	0x3d7a4b9c	0.061107263
73	0xbb9ce082	-0.0047875056
74	0x3c0a508a	0.008442054
75	0xbd83efbf	-0.06442212
76	0xbd7ab55b	-0.06120811
77	0x3d819386	0.06326966
78	0x3db9b8c1	0.09068442
79	0x3da68f2d	0.08132777
80	0xbb7e8ac6	-0.003884004
81	0xbd8ddba4	-0.06926659
82	0xbd6b5e92	-0.057463236
83	0x3cc4cf34	0.024024583
84	0x3dba7756	0.09104793
85	0xbad3bfb4	-0.0016155154
86	0x3ce33019	0.027732896
87	0x3d9d6f01	0.07687188
88	0x3b6fbbdf	0.0036580486
89	0x3d60db8a	0.05489687
90	0xbd93df56	-0.07220332
91	0xbd9ebc0e	-0.07750712
92	0x3d45e533	0.048314285
93	0x3d328ed4	0.043593243
94	0x3d28cb60	0.04120958
95	0xbd939a54	-0.0720717
96	0xbc4483fb	-0.011994357
97	0xbd9e87cf	-0.07740747
98	0xbd299ac6	-0.04140737
99	0xbcaaa753	-0.02083174
100	0x3dc850f2	0.09781064
101	0xbd95e917	-0.07319849
102	0x3d0fc1d0	0.035096943
103	0x3d329f7c	0.043609127
104	0xbd97440e	-0.07386027
105	0xbc7dca5e	-0.015490143
106	0xbcbdc24e	-0.02316394
107	0x3d899c16	0.06719224
108	0xbb7f83b1	-0.0038988406
109	0xbd6898f0	-0.056786478
110	0x3d4bfef8	0.049803704
111	0xbd97a74b	-0.074049555
112	0xbdc6bc4c	-0.097038835
113	0x3cedd01d	0.0290299
114	0xbcb6b909	-0.022305029
115	0xbd33ad85	-0.043866653
116	0xbd15a646	-0.036535524
117	0x3dc773ec	0.09738907
118	0xbcd39d99	-0.025831984
119	0xbcbaff9e	-0.022826966
120	0xbda0a39e	-0.078437075
121	0x3cd63fcb	0.026153466
122	0x3cf0e608	0.029406562
123	0xbcbba8b5	-0.022907594
124	0xbd91bdb9	-0.07116265
125	0x3dad08c6	0.08448939
126	0xbcd37127	-0.025810791
127	0xbc8009bb	-0.01562964
128	0xbcba358a	-0.022730608
129	0x3da2906c	0.079377025
130	0x3d1f6d15	0.038922388
131	0x3d449d50	0.048001587
132	0xbdca2e9e	-0.09872173
133	0xbd84ba06	-0.06480794
134	0xbcaac9a2	-0.0208481
135	0x3d5486a1	0.051886205
136	0x3d4a52a6	0.049395226
137	0xbc813c51	-0.015775831
138	0x3d3bf5f3	0.045888852
139	0x3db2a8f5	0.08723632
140	0x3d1203ae	0.03564804
141	0x3d34f478	0.044178456
142	0xbd530919	-0.051522348
143	0x3dc93629	0.09824783
144	0x3daed5c9	0.0853687
145	0x3d9f1b89	0.07768924
146	0x3bd7a05a	0.0065803947
147	0x3d612085	0.054962654
148	0xb8374c85	-4.3701864e-05
149	0x3c646e71	0.013942347
150	0x3d824795	0.063613094
151	0xbd8c15cc	-0.06840095
152	0x3cca09d9	0.024662899
153	0xba6dd385	-0.00090723514
154	0xbd2c7b6a	-0.042109884
155	0xbd1a1637	-0.037618842
156	0x3d8f3c99	0.0699398
157	0x3c646d98	0.013942145
158	0x3dc268b1	0.094926246
159	0xbd995946	-0.07487731
160	0xbc1fc086	-0.009750491
161	0x3da89f99	0.08233566
162	0xbc9e8e46	-0.01935495
163	0x3d30c258	0.04315409
164	0x3dc7142e	0.09720646
165	0x3c3bfc85	0.01147378
166	0xbd0b90a9	-0.034073506
167	0x3b60a777	0.0034279504
168	0xbc1914cd	-0.009343338
169	0xbd9bb6b6	-0.07603209
170	0x3dc92773	0.098219775
171	0xbbe2b6c9	-0.0069187623
172	0x3daa04bb	0.083016835
173	0x3d4242dd	0.047427047
174	0x3d096165	0.03354015
175	0xbd05109a	-0.032486536
176	0x3db21ff7	0.08697503
177	0x3d291be5	0.041286368
178	0xbccbf2dd	-0.02489608
179	0x3d80f8a6	0.06297426
180	0x3ce3d411	0.027811082
181	0x3d1b51d2	0.037919827
182	0x3d38c36e	0.04510825
183	0x3d86b605	0.06577686
184	0x3d935731	0.07194365
185	0xbd89ceb8	-0.067288816
186	0xbd4f54f3	-0.050618123
187	0x3d026d89	0.031842742
188	0x3d89a11e	0.06720184
189	0xbdba628c	-0.091008276
190	0xbcd54238	-0.026032552
191	0xbdac7e86	-0.0842257
192	0x3da7644e	0.081734285
193	0x3d35e0d0	0.04440385
194	0xbd976390	-0.07392037
195	0xbd9da428	-0.07697326
196	0xbd916ded	-0.07101045
197	0x3d549eaf	0.051909145
198	0xbd0d47dc	-0.03449236
199	0x3db363f7	0.08759301
200	0xbd63286e	-0.05545848
201	0x3d861bf9	0.06548304
202	0x3d280085	0.04101612
203	0x3c9817fc	0.018566124
204	0xbd46bc80	-0.04851961
205	0xbd966e85	-0.07345299
206	0x3d6e71a1	0.058213834
207	0x3d409704	0.04701902
208	0xbdab2383	-0.08356383
209	0xbda7bfe7	-0.08190899
210	0x3d30f44b	0.043201726
211	0xbd881eb2	-0.0664648
212	0xb9a61c91	-0.0003168327
213	0xbcfc0ebf	-0.03076875
214	0xbd9c5b89	-0.076346464
215	0xbdc3348f	-0.09531509
216	0x3ba496ce	0.00502286
217	0x3d0efefe	0.03491115
218	0x3d56101a	0.05226145
219	0x3d9850ee	0.07437311
220	0x3dba1ebd	0.09087894
221	0x3d24df18	0.04025182
222	0x3dc81615	0.09769837
223	0x3d7d252b	0.061803024
224	0x3d97b06c	0.07406697
225	0x3d32d090	0.043655932
226	0xbd24c2d6	-0.040224873
227	0x3d50bde4	0.050962344
228	0xb88cc1b8	-6.711803e-05
229	0x3c2774d3	0.010220724
230	0x3d129855	0.035789806
231	0xbc78f385	-0.015194778
232	0xbda509ca	-0.08058508
233	0xbc4bbf33	-0.012435722
234	0xbd9e5866	-0.077317044
235	0xbd129c7d	-0.03579377
236	0xbd98d22c	-0.07461962
237	0x3d32251a	0.043492414
238	0xbd60eff0	-0.054916322
239	0xbd3dcdc5	-0.046338815
240	0xbd5ad295	-0.053423483
241	0xbdbe4126	-0.0928977
242	0x3db677b2	0.08909549
243	0x3d312a58	0.043253273
244	0xbc19d230	-0.0093884915
245	0x3da7888b	0.081803404
246	0xbdb841cd	-0.089969255
247	0xbd32b803	-0.04363252
248	0xbc32f167	-0.010921813
249	0xbd68cf68	-0.056838423
250	0xbd5f0207	-0.054445293
251	0x3d2ea75e	0.042640083
252	0xbdc78721	-0.09742571
253	0x3da2861e	0.07935737
254	0x3d81f69f	0.06345867
255	0x3b44139d	0.0029918917

encoder.logvar_layer.bias f4 [3]
0	0x3dc6505f	0.09683298
1	0xbd7f024b	-0.062258046
2	0x3c80d8af	0.015728323

decoder.layers.0.weight f4 [100, 4]
0	0x3e92439e	0.28567213
1	0x3ea65d57	0.32493088
2	0x3eef35da	0.46720773
3	0xbde1ecf5	-0.11031524
4	0xbec749ba	-0.38923436
5	0x3ea5b579	0.32365015
6	0xbe6a4722	-0.22878698
7	0xbea1512b	-0.3150724
8	0xbd5aa4a4	-0.05337967
9	0xbee4cd64	-0.4468795
10	0xbe167127	-0.14691602
11	0xbe97b7fe	-0.29632562
12	0x3ed4bd77	0.415508
13	0x3ebd7b6f	0.37008235
14	0xbde11971	-0.10991181
15	0x3cb51698	0.0221055
16	0xbea88fa7	-0.32922098
17	0xbe25ed03	-0.16203694
18	0x3c5051f6	0.0127148535
19	0xbe425e0b	-0.18981187
20	0xbd5c3e3c	-0.05377029
21	0xbef2ab5e	-0.47396368
22	0xbeb10e82	-0.3458138
23	0x3e0d0871	0.13772751
24	0xbe1cd3d2	-0.15315178
25	0x3e16db63	0.14732127
26	0x3e8e6c91	0.27817205
27	0xbcb82684	-0.022479303
28	0xbd9d4cae	-0.07680641
29	0xbd44ca6a	-0.0480446
30	0xbd3c1ed2	-0.04592783
31	0xbc24747b	-0.010037537
32	0xbcbaf53b	-0.022822013
33	0xbeab015f	-0.33399484
34	0xbebdb6b2	-0.37053448
35	0x3e9ae159	0.30250052
36	0xbdafa64f	-0.08576643
37	0x3ef18ef5	0.4717938
38	0x3d1df349	0.038562093
39	0x3d10a0ac	0.03530948
40	0xbe7ed13e	-0.24884507
41	0xbe71371a	-0.23556176
42	0x3ed1b9d8	0.409621
43	0x3d932a06	0.0718575
44	0xbde421a6	-0.111392304
45	0xbece314c	-0.40271986
46	0xbe43ddac	-0.1912753
47	0x3efaa147	0.4895117
48	0x3eedd596	0.46452016
49	0x3e945ccd	0.2897705
50	0x3e9a9fd7	0.30200073
51	0xbe0aae81	-0.1354313
52	0x3ee5e8a3	0.4490405
53	0x3de30914	0.11085716
54	0x3ee25b34	0.44210207
55	0xbe56273a	-0.20913401
56	0x3dbae1c8	0.091250956
57	0xbe8fe7ec	-0.2810663
58	0x3e04e9a4	0.12979752
59	0xbecccb64	-0.39998925
60	0x3e5011ac	0.20319241
61	0x3de45c8d	0.11150465
62	0x3df11bde	0.11772893
63	0x3ec4fcd9	0.38474157
64	0xbecb451e	-0.3970117
65	0x3ece0597	0.4023864
66	0x3eb1c82d	0.34723035
67	0xbdd9ce66	-0.106350705
68	0xbeca50ce	-0.39514774
69	0xbea06a9b	-0.31331334
70	0x3e6a8b66	0.22904739
71	0x3d5ebc57	0.054378834
72	0xbeb2d4a6	-0.34927863
73	0x3eea8f68	0.45812535
74	0xbd7c6560	-0.061620116
75	0xbe52b3ee	-0.2057645
76	0xbebabc71	-0.36471894
77	0x3e4113b0	0.18855166
78	0x3ee8ea7d	0.454914
79	0x3e0c79e8	0.13718379
80	0x3ea10a73	0.31453285
81	0x3ea76335	0.32692876
82	0xbe770f34	-0.24126893
83	0xbcef51b5	-0.029213766
84	0xbe9f3ee0	-0.31102657
85	0xbdf66a08	-0.120319426
86	0x3eab1e3c	0.33421504
87	0xbee48030	-0.4462905
88	0x3d934410	0.07190716
89	0xbea2b136	-0.31775826
90	0xbe0ea00c	-0.1392824
91	0xbec97d20	-0.39353275
92	0xbddaeac0	-0.10689306
93	0xbdc27658	-0.094952285
94	0x3eb2e41a	0.34939653
95	0xbece0942	-0.40241438
96	0x3cc93938	0.024563417
97	0x3db187bd	0.08668468
98	0xbec47d2d	-0.38376752
99	0x3e4abd53	0.19798784
100	0x3e26fdb4	0.16307718
101	0x3dc40f70	0.09573257
102	0x3ee43f38	0.44579482
103	0xbecc0aac	-0.39851892
104	0xbe33f1ed	-0.17572756
105	0x3e313664	0.17305905
106	0xbeaf8237	-0.34279034
107	0x3eefe544	0.46854603
108	0xbe91e500	-0.28495026
109	0x3e2b0b10	0.16703439
110	0xbe3fee48	-0.18743241
111	0xbef709ae	-0.48249573
112	0x3e723461	0.23652793
113	0x3e719a05	0.2359391
114	0x3ec20c94	0.3790022
115	0x3e3ddefc	0.18542093
116	0xbe099b4a	-0.13438144
117	0xbe03d158	-0.12872827
118	0x3e6b98be	0.23007485
119	0x3d391bbf	0.045192476
120	0x3e5861c8	0.2113105
121	0xbe5e66d5	-0.21718915
122	0xbe175527	-0.14778577
123	0xbd109852	-0.035301514
124	0xbecde034	-0.40210116
125	0xbedf614c	-0.4362892
126	0xbef00074	-0.46875346
127	0xbe52911c	-0.20563167
128	0x3ef01de5	0.46897808
129	0x3ec8e85b	0.39239773
130	0x3bad6acb	0.0052922717
131	0x3ee15800	0.4401245
132	0xbebf22f2	-0.3733135
133	0x3e07496c	0.13211602
134	0x3ea195f0	0.31559706
135	0xbec3018e	-0.38087124
136	0xbe2ce8b4	-0.16885644
137	0x3ecab76a	0.3959306
138	0x3ee71382	0.4513207
139	0xbeee4ca4	-0.46542847
140	0x3d80a61b	0.06281682
141	0xbec9dd64	-0.3942672
142	0xbe8b0d26	-0.2715847
143	0xbda122d8	-0.07867974
144	0xbd9e6772	-0.077345744
145	0xbe5445b5	-0.20729716
146	0xbb4c9b3f	-0.0031220464
147	0x3ef5442b	0.4790357
148	0x3ec1a663	0.37822255
149	0xbea3a4fb	-0.31961808
150	0xbb19dd1b	-0.0023477736
151	0xbe55db4d	-0.20884438
152	0xbcf4ab02	-0.0298667
153	0x3e833b4d	0.2563118
154	0x3ede18b2	0.43378216
155	0x3e82ab2f	0.25521228
156	0x3d900982	0.070330635
157	0x3ebaee24	0.36509812
158	0x3ee53e13	0.4477392
159	0x3d87a752	0.06623711
160	0xbcc99c72	-0.024610732
161	0x3e2a6414	0.1663974
162	0x3db166c1	0.08662177
163	0x3ef286c2	0.47368437
164	0xbd2682aa	-0.040651955
165	0x3ecbe2ee	0.3982157
166	0x3e899e1b	0.26878437
167	0x3ed27367	0.4110367
168	0x3ec3eafa	0.3826521
169	0x3ee94fde	0.45568746
170	0x3e7635fc	0.24044031
171	0xbeca619e	-0.395276
172	0xbed03d07	-0.4067156
173	0xbe052a06	-0.13004312
174	0xbe9d45af	-0.30717227
175	0x3eac24ef	0.33621928
176	0x3e9ef14e	0.31043476
177	0xbe64592d	-0.22299643
178	0x3e167f6c	0.14697045
179	0xbe5ebe82	-0.2175236
180	0x3ebf7730	0.3739562
181	0x3eefb1b1	0.46815255
182	0xbe24b284	-0.16083723
183	0x3db5083c	0.08839461
184	0xbc918a63	-0.017766183
185	0x3e9e44cb	0.3091186
186	0x3ebf1b09	0.37325314
187	0xbe811583	-0.25211725
188	0x3edb0407	0.4277651
189	0x3e99edf3	0.30064353
190	0xbd5a6c5f	-0.053326007
191	0xbe833ce5	-0.25632396
192	0xbdff3520	-0.12461305
193	0x3ea77294	0.32704604
194	0x3e065c16	0.13121065
195	0xbe93e075	-0.28882185
196	0xbeb80f3b	-0.3594912
197	0xbe8ceed8	-0.27525973
198	0x3e21080a	0.15725723
199	0xbe93897a	-0.28815824
200	0xbeaf8d30	-0.34287405
201	0x3e523c44	0.20530802
202	0xbd9f8a40	-0.07790041
203	0xbef85eec	-0.4850992
204	0xbe6853d0	-0.22688222
205	0x3e87e127	0.26538965
206	0x3eee1e2d	0.46507397
207	0x3d6bbf4a	0.057555474
208	0xbebf8972	-0.3740955
209	0xbd74f9d5	-0.05980857
210	0x3ef78b40	0.48348427
211	0xbb587a73	-0.003303197
212	0x3e84cc06	0.25936908
213	0xbe5f39d4	-0.21799403
214	0xbda7b1cd	-0.0818821
215	0x3e885941	0.26630595
216	0x3ed97c50	0.42477655
217	0x3ed6ab0c	0.41927373
218	0xbd93f3d8	-0.07224244
219	0xbefee704	-0.49785626
220	0x3c04807a	0.008087272
221	0xbeaf3b11	-0.34224752
222	0x3dffc451	0.12488616
223	0x3e4b18eb	0.19833724
224	0xbe48d847	-0.19613753
225	0x3ed4dfa0	0.41576862
226	0xbecb91b3	-0.39759597
227	0x3e30cbf8	0.17265308
228	0x3e18c5b4	0.14919168
229	0x39724efa	0.0002310834
230	0x3eeb6e7c	0.4598273
231	0xbc8faa65	-0.017537305
232	0x3ec63014	0.38708556
233	0x3ecc16a4	0.39861023
234	0x3e78820d	0.2426836
235	0x3e1b4089	0.15161337
236	0xbd807cae	-0.06273781
237	0xbd822b50	-0.063559175
238	0xbeb51c30	-0.35373068
239	0x3edaf087	0.42761633
240	0xbebb8f62	-0.3663283
241	0xbc7641f1	-0.01503037
242	0x3d7936df	0.060843345
243	0xbe8643e8	-0.26223683
244	0x3dacdf22	0.08440997
245	0x3e40d978	0.18832958
246	0xbe1bc111	-0.15210368
247	0x3ed04be0	0.40682888
248	0xbe75fb28	-0.2402159
249	0x3dce9dc8	0.10088688
250	0xbe8d805c	-0.27636993
251	0xbeb60c10	-0.35556078
252	0x3eb68a14	0.3565222
253	0xbe79c5bb	-0.24391834
254	0x3eef02d5	0.46681848
255	0x3ee931fa	0.45545942

decoder.layers.0.bias f4 [100]
0	0xbe2f2f90	-0.17107987
1	0x3ea99122	0.3311854
2	0x3e8fc7f3	0.28082237
3	0xbe1bd1c5	-0.1521674
4	0xbeda6eae	-0.42662567
5	0x3d4afe2a	0.049558796
6	0xbcfa0671	-0.03052065
7	0x3eaf51b2	0.34242016
8	0x3e13427e	0.14380834
9	0x3e7906d3	0.2431901
10	0xbe100a8c	-0.14066523
11	0xbdaaa1e6	-0.08331661
12	0x3ed1c7cf	0.40972754
13	0xbec93585	-0.39298645
14	0x3e123d24	0.14281136
15	0x3e3139f2	0.1730726
16	0x3e1b01b2	0.15137365
17	0xbe39bb92	-0.18137959
18	0x3e8b71bc	0.2723521
19	0x3ee8f48f	0.45499083
20	0x3edcdad3	0.431357
21	0xbef7c41c	-0.48391807
22	0xbe911a7a	-0.28340513
23	0xbcc940a0	-0.024566948
24	0x3ecb5e96	0.397206
25	0xbe9f129a	-0.3106888
26	0x3ee94d13	0.45566615
27	0xbe694fd8	-0.22784364
28	0xbe29725c	-0.16547531
29	0x3e8b620c	0.2722324
30	0x3eed11ed	0.4630274
31	0xbcda4739	-0.02664529
32	0x3e09f543	0.13472466
33	0x3e2a8828	0.16653502
34	0x3ea20982	0.3164788
35	0x3e356b14	0.17716628
36	0xbed13c20	-0.40866184
37	0x3efe87a4	0.4971286
38	0x3dd359de	0.10319875
39	0x3e761e18	0.24034917
40	0x3ec4da6c	0.38447893
41	0xbec3452c	-0.3813871
42	0x3d6c5170	0.057694852
43	0x3ea1b5ef	0.31584117
44	0x3d3a66e8	0.045508295
45	0x3ef993ec	0.48745668
46	0xbee3a6e3	-0.44463262
47	0xbe09ca08	-0.13455975
48	0xbe3f48b2	-0.18680075
49	0x3db0f131	0.086397536
50	0xbeb29bb6	-0.34884423
51	0x3dfd1445	0.12357382
52	0x3dcaa959	0.09895582
53	0xbd925e38	-0.07146877
54	0xbe06ee50	-0.13176847
55	0xbefefcf8	-0.49802375
56	0x3e056f82	0.13030818
57	0xbeb7d123	-0.35901746
58	0x3eae6ee4	0.34068978
59	0xbdbdc719	-0.092664905
60	0x3ed8108e	0.4220013
61	0x3ea651b8	0.3248422
62	0xbee190d6	-0.44055814
63	0x3c9b85ac	0.018984638
64	0x3ed3573b	0.4127749
65	0xbede1c39	-0.43380907
66	0xbb06703d	-0.0020513677
67	0x3c32d600	0.010915279
68	0xbe7d7be1	-0.24754287
69	0xbdd2fc00	-0.103019714
70	0x3ee5ae56	0.4485957
71	0xbeb2ebc3	-0.34945497
72	0xbde9c8ab	-0.114152275
73	0x3e1d4726	0.15359172
74	0xbedc8949	-0.4307349
75	0xbe7b750c	-0.24556369
76	0xbe4de88a	-0.20108238
77	0xbee95666	-0.4557373
78	0xbeffdd72	-0.49973637
79	0x3dc2ae0b	0.09505852
80	0x3ef04bde	0.46932882
81	0x3ef8e539	0.48612383
82	0xbec4d60a	-0.3844455
83	0xbe11617a	-0.1419734
84	0x3e307c8a	0.17235008
85	0x3ec00132	0.37500912
86	0x3ed9cb68	0.42538
87	0xbe929746	-0.28631037
88	0xbd8d3d14	-0.06896415
89	0x3efc6fc3	0.49304017
90	0x3e61135c	0.21980041
91	0x3e953241	0.29139903
92	0x3e0d58e8	0.13803446
93	0x3d39e261	0.045381907
94	0x3ef2ca91	0.4742017
95	0xbe3bac3f	-0.18327425
96	0x3dff1470	0.1245507
97	0x3cd32d80	0.025778532
98	0x3ef81cdc	0.48459518
99	0x3edb25a1	0.42802146
