notebooks/experiments/pendulum_scinet.pth (torch, 111292 bytes, 13 tensors)

encoder.layers.0.weight f4 [100, 50]
0.10110937 0.069320895 -0.08677016 -0.034801245 -0.10080244 -0.0026084685 0.12521386 -0.02287635
-0.043814383 0.018787734 0.10524121 0.1215425 0.1014981 0.022185175 0.06600767 -0.03817648
-0.0685957 -0.11591595 0.10636415 -0.030069401 0.03563383 -0.12427078 -0.078263685 -0.06202489
-0.01795063 0.010107877 -0.034143586 0.10384923 -0.11114141 0.10819993 -0.06915521 0.1202363
-0.017462974 -0.121723175 0.12314455 0.06813452 0.11347542 -0.10678476 -0.11712433 0.109407105
0.13972571 -0.07319045 -0.009269762 0.067525305 0.07761019 0.13652162 -0.03148761 -0.036917068
0.08890402 -0.030736636 0.029161 0.009099421 -0.034733456 0.021174628 -0.055251993 0.03243347
-0.07324667 -0.11912517 -0.05486522 -0.03664463 0.13239639 0.0031063745 0.109768316 -0.070638664
0.016687151 0.059005287 -0.07604307 0.077757165 -0.11237413 -0.010820428 0.12876008 0.11314983
0.07212066 0.05982939 -0.051171012 0.10979061 -0.019977573 -0.032737195 0.06301135 0.012652822
-0.140936 0.08475153 0.07460547 0.046984617 0.04709452 0.027373873 -0.08807483 -0.049425967
0.09405457 -0.012360474 0.021683408 -0.13434665 0.0044234805 -0.14041102 0.021344582 0.01796587
0.062827066 0.111277394 -0.10237062 -0.101424254 -0.011810306 -0.014086843 0.110191576 -0.13437626
-0.036777038 0.12519081 -0.06400564 -0.112931274 0.13924345 -0.038967192 0.055082344 0.05512904
0.030128557 0.099622816 0.026064051 0.0037086532 -0.0036487202 0.04349961 0.04005483 -0.076213226
0.060479365 0.11555605 0.104068145 -0.10627688 0.13041289 0.116705455 0.120893806 0.06820613
0.08755214 -0.119963326 0.08943588 -0.02780035 0.01252129 -0.028761465 -0.0036933622 -0.09312583
0.036607694 0.06233868 -0.015628962 0.05326863 -0.11745299 0.1286454 -0.066314615 -0.09646764
-0.0020719224 0.1294164 -0.02124208 0.01888479 0.08287961 -0.13265942 -0.08529189 0.10826101
-0.08069646 -0.04705404 0.044642907 0.09725485 -0.13148661 -0.080053896 -0.012930873 0.105475575
-0.07752618 -0.12503332 0.018752819 0.00214251 0.06618055 -0.11068221 0.13396679 -0.11266646
-0.013456781 -0.09718831 0.105178006 0.101582 -0.03898931 0.08497333 -0.091703705 0.018167064
-0.12798227 -0.10128064 0.12740836 0.10873063 -0.13907847 0.007078142 -0.11948288 -0.07824585
-0.015694931 -0.12600589 -0.120484374 -0.12646408 -0.07129988 -0.009840986 0.046791162 -0.10453122
-0.07527921 0.052028906 -0.02944175 0.07748975 0.14080991 0.007049836 0.12701902 0.084096335
-0.12681724 0.09563621 0.069583066 -0.07235215 0.114697576 0.06544725 0.08418951 0.097565696
-0.022177167 -0.1134692 0.008808793 -0.059764285 0.06944208 0.030633207 -0.12141125 -0.09745028
0.07157739 0.104025744 0.083525546 0.098952055 -0.009762694 -0.060675383 -0.11089055 -0.1165985
-0.1338421 0.05247689 0.1112373 -0.09556048 0.11855768 0.09282923 -0.033852063 0.11910867
0.13797161 -0.13040109 0.12908486 -0.070735686 -0.038822662 -0.13852857 -0.09377885 -0.0250839
-0.043440945 -0.112558626 -0.038545065 0.054507207 0.019722989 0.059164383 -0.013853248 0.09647095
-0.005183422 -0.112937376 0.08578963 0.101291776 0.07531912 0.0797182 -0.10585527 -0.0985228
00000000: 6e12 cf3d 1df8 8d3d 8eb4 b1bd c08b 0ebd
00000010: 8271 cebd d7f2 2abb 1038 003e 2f67 bbbc
00000020: b676 33bd bce8 993c b488 d73d 46eb f83d
00000030: 3cde cf3d afbd b53c 072f 873d f15e 1cbd
00000040: e77b 8cbd 5765 edbd 73d5 d93d 1b54 f6bc
00000050: c7f4 113d ae81 febd b648 a0bd d00d 7ebd
00000060: 330d 93bc 829b 253c 25da 0bbd e8ae d43d
00000070: 1c9e e3bd ed97 dd3d 3fa1 8dbd 733e f63d
00000080: 830e 8fbc 004a f9bd 3633 fc3d 1c8a 8b3d
00000090: cd65 e83d f8b1 dabd e1de efbd d510 e03d
000000a0: 4214 0f3e e0e4 95bd 33e0 17bc b54a 8a3d
000000b0: 17f2 9e3d 53cc 0b3e 27f9 00bd 5a36 17bd
000000c0: 5013 b63d 66cb fbbc 0de3 ee3c bd15 153c
000000d0: ab44 0ebd 6a76 ad3c ea4f 62bd f5d8 043d
000000e0: 5a02 96bd e6f7 f3bd 5aba 60bd ae18 16bd
000000f0: eb92 073e 5194 4b3b 36ce e03d 01ab 90bd
00000100: 7eb3 883c 87af 713d 78bc 9bbd 263f 9f3d
00000110: 6824 e6bd 2a48 31bc afd9 033e 19bb e73d
00000120: ffb3 933d aa0f 753d b298 51bd e6d9 e03d
00000130: 02a8 a3bc 7017 06bd 180c 813d c84d 4f3c
00000140: 8751 10be 3692 ad3d c1ca 983d f172 403d
00000150: 2fe6 403d 2c3f e03c 9460 b4bd e272 4abd
00000160: af9f c03d 9683 4abc 67a1 b13c 2b92 09be
00000170: d8f2 903b e8c7 0fbe d5da ae3c 292d 933c
00000180: 7aab 803d 67e5 e33d b0a7 d1bd 85b7 cfbd
00000190: 0480 41bc 80cc 66bc 1fac e13d ee99 09be
000001a0: 85a3 16bd 0532 003e 6415 83bd 8348 e7bd
000001b0: d695 0e3e 109c 1fbd 069e 613d fdce 613d
000001c0: 2ad0 f63c 0c07 cc3d 4784 d53c e00c 733b
000001d0: 5e1f 6fbb a62c 323d 8910 243d ae15 9cbd
000001e0: 36b9 773d a6a8 ec3d ae21 d53d b1a7 d9bd
000001f0: f58a 053e 4503 ef3d 2c97 f73d a8af 8b3d
00000200: 894e b33d 55af f5bd 292a b73d 8fbd e3bc
00000210: 1926 4d3c 2a9d ebbc 560c 72bb c1b8 bebd
00000220: f3f1 153d d856 7f3d 4f08 80bc 3530 5a3d
00000230: 318b f0bd 9fbb 033e f5cf 87bd d390 c5bd
00000240: 17c9 07bb bc85 043e df03 aebc 46b4 9a3c
00000250: c9bc a93d dfd7 07be 84ad aebd f3b7 dd3d
00000260: 3044 a5bd bdbb 40bd 7bdb 363d 8d2d c73d
00000270: 6da4 06be 4cf3 a3bd 03dc 53bc 9403 d83d
00000280: 0cc6 9ebd bc08 00be 839f 993c 5a69 0c3b
00000290: ab89 873d 5bad e2bd 972e 093e acbd e6bd
000002a0: d579 5cbc aa0a c7bd 9167 d73d 390a d03d
000002b0: 41b3 1fbd 7f06 ae3d 27cf bbbd 18d3 943c
000002c0: c90d 03be 396c cfbd 5677 023e 2aae de3d
000002d0: 966a 0ebe c2ef e73b 71b3 f4bd 5c3f a0bd
000002e0: a892 80bc b007 01be 83c0 f6bd cd7f 01be
000002f0: ac05 92bd 163c 21bc 17a8 3f3d 7714 d6bd
00000300: fd2b 9abd 431c 553d d32f f1bc f2b2 9e3d
00000310: 7930 103e 5002 e73b 4611 023e b33a ac3d
00000320: 61dc 01be ebdc c33d 9181 8e3d 5d2d 94bd
00000330: 90e6 ea3d 3509 863d 8d6b ac3d 86d0 c73d
00000340: e4ac b5bc 8a62 e8bd c152 103c 65cb 74bd
00000350: a637 8e3d 7ef2 fa3c 76a6 f8bd 0394 c7bd
00000360: 2b97 923d 730b d53d 710f ab3d 60a7 ca3d
00000370: b5f3 1fbc c086 78bd 961a e3bd 32cb eebd
00000380: e70d 09be 02f2 563d 62d0 e33d 37b5 c3bd
00000390: 5ece f23d 401d be3d 76a8 0abd 3fef f33d
000003a0: 6e48 0d3e dd87 05be d22e 043e dfdd 90bd
000003b0: 8304 1fbd 6fda 0dbe 200f c0bd c07c cdbc
000003c0: 22ef 31bd 2385 e6bd 6ee1 1dbd f342 5f3d
000003d0: 1b92 a13c 5a56 723d bcf8 62bc 9092 c53d
000003e0: b2d9 a9bb b64b e7bd 79b2 af3d 1072 cf3d
000003f0: e940 9a3d 4c43 a33d a6ca d8bd 52c6 c9bd

encoder.layers.0.bias f4 [100]
0.057810206 -0.033527534 0.10123287 -0.0835535 0.0631111 -0.0013902897 0.0050672484 -0.029030008
-0.06062782 0.13621666 -0.037587605 -0.079705864 0.040291443 -0.1381998 -0.037877627 -0.12073565
-0.10163772 -0.0020005761 0.1022646 0.116844706 0.09219622 0.103046484 0.014875259 0.10419804
-0.0098653305 0.083055936 0.06929023 -0.044325877 0.14101498 -0.0014513689 -0.08463583 0.05320809
0.016475828 -0.024498666 -0.11236848 0.13214993 0.10547809 -0.123891175 -0.0029272842 -0.020748474
-0.12028647 0.13548036 -0.10407554 -0.05871557 -0.13427457 -0.09723569 0.04824629 -0.0027779327
0.119999565 0.04674106 -0.008774806 -0.013777637 0.069533944 0.10769635 0.050025363 0.074265786
0.082770005 0.07591177 0.10998102 0.11627155 0.015671294 -0.053369276 0.020201625 -0.091235474
0.028356334 -0.08217163 0.07664086 0.063330635 0.13804558 -0.13595115 0.03856329 -0.08821597
0.12304016 -0.0852121 0.04099872 -0.016348124 0.13820122 -0.0794356 0.052242994 0.053772148
-0.13225684 -0.13468327 -0.06757819 0.091553494 -0.115221985 -0.04727248 -0.13198753 0.0027692842
0.13712735 -0.034714285 -0.106189616 -0.097938456 -0.012183137 0.0734264 -0.10994787 0.09869926
-0.11286817 0.088926636 0.026325986 -0.03882578
00000000: 65ca 6c3d 2b54 09bd 2e53 cf3d 191e abbd
00000010: 6440 813d 623a b6ba 290b a63b 57d0 edbc
00000020: e154 78bd 617c 0b3e 76f5 19bd d43c a3bd
00000030: a408 253d 4084 0dbe 9225 1bbd 4144 f7bd
00000040: 7027 d0bd 191c 03bb 1a70 d13d 474c ef3d
00000050: 5fd1 bc3d 090a d33d 5cb7 733c c865 d53d
00000060: 32a2 21bc 3b19 aa3d 09e8 8d3d 0d8f 35bd
00000070: 3b66 103e dc3b beba 8d55 adbd baf0 593d
00000080: 51f8 863c 6db1 c8bc 7221 e6bd 5052 073e
00000090: e604 d83d a8ba fdbd aed7 3fbb b4f8 a9bc
000000a0: c158 f6bd 5dbb 0a3e 8f25 d5bd bd7f 70bd
000000b0: 467f 09be 8123 c7bd e79d 453d fa0d 36bb
000000c0: 55c2 f53d 8e73 3f3d 34c4 0fbc 99bb 61bc
000000d0: d067 8e3d e78f dc3d 65e7 4c3d a918 983d
000000e0: 5283 a93d a177 9b3d bb3d e13d c71f ee3d
000000f0: 1661 803c be99 5abd e17d a53c aad9 babd
00000100: 8b4b e83c 9949 a8bd e2f5 9c3d 7eb3 813d
00000110: d25b 0d3e c736 0bbe 8af4 1d3d 93aa b4bd
00000120: 7bfc fb3d ae83 aebd 46ee 273d 80ec 85bc
00000130: 9f84 0d3e 22af a2bd c0fc 553d 2f40 5c3d
00000140: 566e 07be 69ea 09be 6f66 8abd 6680 bb3d
00000150: 81f9 ebbd caa0 41bd bd27 07be e17c 353b
00000160: 1d6b 0c3e 9130 0ebd f179 d9bd f593 c8bd
00000170: c89b 47bc 9560 963d 592c e1bd d622 ca3d
00000180: 6d27 e7bd 2b1f b63d 98a9 d73c c807 1fbd

encoder.layers.1.weight f4 [100, 100]
0.07889501 -0.09503716 0.056711257 0.08746338 -0.037100483 -0.057612695 0.09834822 -0.04430863
-0.07079808 0.0030086518 0.008983279 -0.0072793006 -0.012527383 0.06740447 -0.07387271 0.05231167
0.07992449 -0.07961446 -0.06592001 0.016067995 -0.07412397 0.088424996 0.06660082 -0.025875723
-0.0044424296 -0.02050767 0.057357993 -0.017055035 -0.067913115 0.05425439 0.084820025 -0.09238479
-0.07728448 0.058385886 0.08589027 0.043750226 0.05969719 0.07441761 0.021915127 0.053432513
-0.0152233485 0.04704013 -0.038164284 0.041444242 -0.05887854 0.050651576 0.074339904 0.03419993
0.071981706 -0.05775584 -0.09477124 0.027072608 0.017581582 0.07803897 -0.08412601 0.055478644
-0.028516842 0.022292448 0.07375033 0.019006897 -0.08094294 0.06363671 0.03160098 0.053997364
0.024215305 -0.042228308 -0.014520598 0.09589966 -0.05687174 0.0019961714 -0.07821619 -0.062005855
0.015935158 0.08262061 -0.043303132 0.035198785 -0.007962704 -0.026440382 -0.0043835165 0.07124575
0.017667234 -0.030169297 -0.07236376 0.070900194 -0.038946163 -0.0126863 -0.04365125 -0.08793302
0.035825837 0.03130064 0.084679805 -0.056690004 0.04117619 0.026018977 0.021504855 0.09077602
-0.06923834 0.04224665 0.0008717537 0.090775326 -0.06181381 0.054247487 0.056459855 0.017437804
0.084537864 -0.010324991 -0.08997392 0.0035081028 0.042122066 0.02296542 -0.00014356375 -0.035549473
-0.065790094 0.09983678 0.022995163 -0.0017344237 -0.029955758 0.06245655 -0.010103392 -0.081422426
0.073395155 0.06263354 0.07754345 -0.02737248 0.04555079 0.004141128 -0.07107826 0.004667056
-0.046873283 -0.09205594 0.07613903 -0.071187556 -0.009951782 0.040324725 0.07390652 -0.024436904
0.095457874 -0.05419835 0.024689436 0.04149226 0.027967751 0.079904415 0.0221959 -0.073876895
0.01271776 -0.057140328 -0.02642045 0.07263036 -0.020137966 0.047986686 -0.05743989 0.01091491
-0.013536311 -0.01640805 0.028434217 0.025684034 0.084387474 0.08197775 -0.016185476 -0.015209532
-0.0765795 -0.08181285 0.06697986 0.06567853 -0.02029444 -0.07601096 0.010773587 0.07012918
0.048815608 0.019337261 0.08779774 -0.07044543 0.062409617 0.0060323714 0.095367394 0.055531897
-0.00048639774 -0.00024225713 0.047220267 -0.09094943 0.052780546 0.015169966 -0.021750284 0.012412453
-1.4054775e-05 -0.08573604 -0.09189119 0.033248235 0.039819565 -0.055550016 -0.030324638 -0.016276931
-0.064760864 -0.050671853 0.025362624 -0.08951862 -0.067779124 0.03597647 0.038231064 0.09865407
-0.017781913 -0.054332245 0.010444569 -0.09244919 -0.095334604 0.07214087 0.010490286 0.056025576
-0.03474704 0.037040055 -0.03419726 0.08508225 0.04239273 -0.08156838 0.04083084 -0.027155614
-0.014497113 -0.09065628 -0.04609218 -0.022763908 -0.030758454 -0.06651672 0.024755776 -0.069942415
0.05401504 -0.0048520206 0.034280755 -0.013304496 0.024865901 0.041739024 -0.09741583 -0.049058247
-0.00017757415 0.018593907 -0.0420457 -0.072406344 -0.02513404 -0.08852847 -0.04723878 -0.05530244
-0.073744334 0.00202806 0.055414032 -0.018090058 0.029516924 -0.020569218 -0.024143208 -0.07156565
-0.057744242 0.027927255 -0.0063007833 -0.057408858 0.048349466 -0.06248597 -0.052847337 0.028575683
00000000: b593 a13d d8a2 c2bd 104a 683d 0020 b33d
00000010: adf6 17bd 4afb 6bbd cb6a c93d f77c 35bd
00000020: 95fe 90bd cd2c 453b 9a2e 133c 3387 eebb
00000030: a73f 4dbc 5b0b 8a3d 934a 97bd c344 563d
00000040: 73af a33d e80c a3bd 1201 87bd 07a1 833c
00000050: 4fce 97bd 2a18 b53d 0366 883d 53f9 d3bc
00000060: cd91 91bb b3ff a7bc 37f0 6a3d 00b7 8bbc
00000070: 0816 8bbd da39 5e3d 1fb6 ad3d 3d34 bdbd
00000080: 5347 9ebd 0a26 6f3d 3de7 af3d 7033 333d
00000090: 0a85 743d 4368 983d 5a87 b33c 0ddc 5a3d
000000a0: 5a6b 79bc 27ad 403d 2752 1cbd 70c1 293d
000000b0: a02a 71bd 0778 4f3d 853f 983d 3a15 0c3d
000000c0: 256b 933d 6391 6cbd 6d17 c2bd 60c7 dd3c
000000d0: 4007 903c e5d2 9f3d 424a acbd 933d 633d
000000e0: 279c e9bc a79e b63c 6a0a 973d 5ab4 9b3c
000000f0: 6ac5 a5bd f753 823d 0770 013d 572c 5d3d
00000100: 2d5f c63c 97f7 2cbd cde7 6dbc 0a67 c43d
00000110: 57f2 68bd 33d2 023b cf2f a0bd daf9 7dbd
00000120: 738a 823c ff34 a93d a05e 31bd 9a2c 103d
00000130: 0076 02bc 8099 d8bc 9aa3 8fbb 4be9 913d
00000140: e0ba 903c 9a25 f7bc 7333 94bd 1f34 913d
00000150: 0386 1fbd 33da 4fbc a7cb 32bd 3a16 b4bd
00000160: 1dbe 123d 1a35 003d 9b6c ad3d c733 68bd
00000170: 5da8 283d c025 d53c f32a b03c c7e8 b93d
00000180: d5cc 8dbd d30a 2d3d 6786 643a 6ae8 b93d
00000190: 7a30 7dbd 9d32 5e3d 7342 673d bad9 8e3c
000001a0: 3022 ad3d 272a 29bc 3f44 b8bd 33e8 653b
000001b0: 3088 2c3d fa21 bc3c 9a89 16b9 539c 11bd
000001c0: f5bc 86bd 3a77 cc3d 5a60 bc3c 9a55 e3ba
000001d0: c765 f5bc 70d2 7f3d b388 25bc cdc0 a6bd
000001e0: 3350 963d 0346 803d 1acf 9e3d 403c e0bc
000001f0: 7793 3a3d 4db2 873b 7b91 91bd 1aee 983b
00000200: 33fe 3fbd d387 bcbd c8ee 9b3d c8ca 91bd
00000210: cd0c 23bc 8a2b 253d 4d5c 973d e72f c8bc
00000220: 6b7f c33d 17ff 5dbd 8041 ca3c caf3 293d
00000230: a01c e53c eda4 a33d 2dd4 b53c c54c 97bd
00000240: 275e 503c fa0b 6abd b36f d8bc 3abf 943d
00000250: 60f8 a4bc b08d 443d 1746 6bbd 73d4 323c
00000260: 67c7 5dbc 2d6a 86bc e0ee e83c 5367 d23c
00000270: 57d3 ac3d f3e3 a73d 6797 84bc 6731 79bc
00000280: b7d5 9cbd 7f8d a7bd bd2c 893d 7782 863d
00000290: 8740 a6bc a2ab 9bbd b383 303c e39f 8f3d
000002a0: e0f2 473d 2d69 9e3c 4dcf b33d b245 90bd
000002b0: 3aa1 7f3d 33ab c53b fb4f c33d 6a75 633d
000002c0: 3303 ffb9 6706 7eb9 0a6a 413d b243 babd
000002d0: 6a30 583d 738b 783c a72d b2bc 9a5d 4b3c
000002e0: cdcc 6bb7 6096 afbd 7331 bcbd 4d2f 083d
000002f0: d719 233d 6a88 63bd 606b f8bc 3357 85bc
00000300: 58a1 84bd 4a8d 4fbd 47c5 cf3c 8a55 b7bd
00000310: c8cf 8abd 105c 133d 2d98 1c3d 250b ca3d
00000320: 60ab 91bc 7d8b 5ebd b31f 2b3c 0056 bdbd
00000330: ca3e c3bd 98be 933d 73df 2b3c 137b 653d
00000340: ea52 0ebd 50b7 173d 6d12 0cbd 9a3f ae3d
00000350: 00a4 2d3d 530d a7bd 3d3e 273d 7375 debc
00000360: 4d85 6dbc 00aa b9bd 27cb 3cbd 607b babc
00000370: 27f9 fbbc eb39 88bd a0cc ca3c f83d 8fbd
00000380: e03e 5d3d b3fd 9ebb fa69 0c3d 1afb 59bc
00000390: 93b3 cb3c 8af6 2a3d f381 c7bd 4df1 48bd
000003a0: 3333 3ab9 4052 983c 1d38 2cbd c749 94bd
000003b0: e7e5 cdbc 6a4e b5bd 737d 41bd d084 62bd
000003c0: 4507 97bd 33e9 043b d3f9 623d 9a31 94bc
000003d0: 7acd f13c c780 a8bc fac7 c5bc 0391 92bd
000003e0: 3a85 6cbd b3c7 e43c cd76 cebb 8d25 6bbd
000003f0: 170a 463d 4af1 7fbd 7376 58bd 8d17 ea3c

encoder.layers.1.bias f4 [100]
-0.02080871 -0.06028662 -0.08455572 -0.021530343 -0.07332858 0.023993611 0.046692025 -0.080457486
-0.013321138 0.037008382 -0.00999223 -0.04566406 -0.0010360599 0.008839202 -0.0048704147 0.07778045
-0.025776256 0.029564513 0.015767409 0.046461858 0.010081589 -0.078320675 -0.053043235 -0.034682583
0.06557013 0.06215608 -0.019783545 -0.031586327 0.05799636 -0.03879098 -0.08416861 0.0065013887
0.0018045068 0.061163343 0.05336472 0.051519573 0.051206376 -0.004325438 0.024020255 0.05389148
-0.03932346 -0.07082093 0.009332013 0.05863128 0.0430046 -0.0760407 0.08292774 -0.063773885
-0.03566351 0.0781401 -0.033115484 -0.020337582 -0.041505396 0.07035562 -0.070017055 0.017344892
0.0755531 0.027490402 0.020804489 -0.030872857 -0.062219787 -0.06714832 0.053563263 -0.094903804
0.023101652 -0.05916977 0.09156316 0.04243323 -0.08610016 0.08866223 0.082870625 0.045276273
0.027355302 -0.048393406 0.09610119 -0.0076945904 0.02457999 -0.061721873 -0.091913715 0.06602015
-0.088117674 0.04396696 0.056824174 -0.052052774 -0.018161787 -0.046774782 0.09843911 0.00792886
-0.053689778 -0.070751704 -0.07189601 0.080272935 0.08872725 -0.019573605 0.09500065 0.0103921415
0.013572216 0.02396983 0.032672323 -0.082669914
00000000: 0777 aabc 1aef 76bd 8d2b adbd 6760 b0bc
00000010: 4b2d 96bd 408e c43c 2340 3f3d e5c6 a4bd
00000020: e740 5abc 1a96 173d 73b6 23bc 3d0a 3bbd
00000030: 67cc 87ba 4dd2 103c 0098 9fbb 5b4b 9f3d
00000040: ba28 d3bc 4731 f23c a72a 813c ca4e 3e3d
00000050: 402d 253c 9766 a0bd dd43 59bd 530f 0ebd
00000060: a249 863d 6097 7e3d 1a11 a2bc aa60 01bd
00000070: 978d 6d3d 4ae3 1ebd 9860 acbd 9a09 d53b
00000080: 3385 ec3a 6a86 7a3d f794 5a3d 3006 533d
00000090: c7bd 513d 67bc 8dbb 20c6 c43c 50bd 5c3d
000000a0: a311 21bd 900a 91bd 4de5 183c 5a27 703d
000000b0: 9725 303d 3abb 9bbd 05d6 a93d e29b 82bd
000000c0: e713 12bd eb07 a03d 1aa4 07bd 009b a6bc
000000d0: 9001 2abd 9b16 903d 1a65 8fbd e016 8e3c
000000e0: 95bb 9a3d 8d33 e13c 2d6e aa3c 13e9 fcbc
000000f0: 2dda 7ebd 0f85 89bd 2765 5b3d ed5c c2bd
00000100: ad3f bd3c 005c 72bd 7785 bb3d 77ce 2d3d
00000110: 4855 b0bd 8b94 b53d 13b8 a93d 9d73 393d
00000120: 3a18 e03c 2a38 46bd b3d0 c43d e722 fcbb
00000130: fa5b c93c 13d0 7cbd 423d bcbd 9335 873d
00000140: 0a77 b4bd b316 343d 77c0 683d 4a35 55bd
00000150: 07c8 94bc ea96 3fbd 729a c93d 0de8 013c
00000160: d0e9 5bbd 45e6 90bd 373e 93bd 2366 a43d
00000170: a2b6 b53d d358 a0bc b38f c23d cd43 2a3c
00000180: 005e 5e3c 605c c43c 6ad3 053d d84e a9bd

encoder.mean_layer.weight f4 [3, 100]
-0.081444636 -0.07251896 -0.08795565 0.0033625842 0.08244576 3.8540365e-05 -0.067243114 0.0042906166
0.07863313 0.07988129 0.020799553 0.09296336 0.01468972 0.04952059 0.052281823 0.024558604
0.021758163 -0.08050992 0.032525387 -0.01044693 0.017839527 -0.013408733 -0.091635585 0.06650182
-0.09219505 0.048646916 -0.084919445 0.025606597 0.085055806 0.0044302344 0.007808459 -0.051729716
-0.081743576 -0.039565075 0.09602038 -0.0693507 0.012168991 0.040400505 -0.003113687 0.064589195
-0.07416433 0.0074199676 0.078994475 -0.011795247 0.08135357 -0.013465643 -0.08191742 0.042874347
-0.052457023 -0.07425803 0.044404294 -0.032321908 0.09550754 0.012886668 -0.063249364 0.09103099
-0.030043876 0.016056526 0.011021483 0.0046909573 -0.06804408 0.04073484 -0.05922952 -0.03331889
-0.08695362 0.023365809 -0.08082463 0.089322224 -0.03066342 -0.013283622 -0.09329092 0.035693742
-0.07923609 0.022874046 -0.04554049 0.013838601 -0.086797394 -0.041902747 -0.074016646 -0.081765905
-0.020653535 0.045502093 -0.075604916 0.04149232 -0.045487083 0.09489808 -0.03486215 -0.03282404
-0.0017348885 0.040257692 -0.016460741 0.018983854 0.07248433 -0.01909764 0.010716617 -0.01464963
-0.033243228 0.039777853 -0.021950662 -0.009599591 0.025739575 0.027079238 -0.034494735 0.036230505
-0.07705801 0.046053004 0.051197436 0.057070732 0.04173086 0.05819682 0.06643746 0.020758724
0.08677566 -0.02215531 0.009822989 -0.0154595375 -0.0036078335 -0.010355175 -0.05952535 0.07217951
-0.03675591 0.014633405 0.07209331 0.078086235 -0.09961883 0.07599163 -0.060166847 0.03686111
-0.061535694 0.04920423 -0.025337053 0.01591519 -0.07736373 -0.060525265 0.016849315 -0.043871533
-0.024030065 -0.021685028 -0.09748509 -0.01521101 -0.070634596 -0.08693903 -0.082464136 -0.0086141825
-0.044843018 0.0111807585 -0.06459456 0.023250652 0.024921512 0.06212269 0.0007876754 0.053935517
-0.027231991 0.08481069 -0.06573421 0.07843387 0.03799362 0.01674645 0.0060075046 -0.088477984
0.09747894 -0.030978872 0.058021236 0.008392918 0.09924521 -0.017123794 -0.058254328 0.058309235
0.08082502 0.028775359 -0.051744726 -0.05260817 0.03815583 -0.07120084 0.03322958 -0.06215931
0.010609317 -0.047178306 -0.032618213 -0.090497665 0.08265165 -0.022549188 -0.052607667 0.098433904
-0.001724565 -0.063167326 0.09406334 0.08766822 -0.040205646 -0.0008179188 -0.02972405 -0.001220131
-0.09899404 -0.013272357 0.017154133 -0.0459597 0.005478394 -0.04112736 0.06404646 0.045823958
-0.08571257 -0.084579565 0.088549614 0.08180713 -0.054016735 0.08927025 -0.06716303 -0.038075626
-0.042386677 -0.039610922 0.09327801 -0.018646384 -0.076764345 0.09407747 -0.026649917 0.09799483
0.094531454 -0.05543659 -0.036979057 0.051016357 0.057919003 0.08829292 -0.04747945 0.016503442
-0.08665254 -0.014881993 -0.07711661 -0.034387447 0.04798888 0.040106952 -0.073455036 0.06750273
0.0049222945 0.041493084 0.01420585 -0.031712186 -0.059369124 -0.025796521 -0.06357326 -0.023337483
-0.096049145 0.007665217 0.04087013 -0.047270097 0.030443598 -0.0779552 0.010541094 0.05351826
-0.074157074 0.012388301 0.09016929 -0.080620304 0.05803548 -0.08601481 -0.08579787 -0.07551707
00000000: 72cc a6bd d284 94bd 1822 b4bd cd5e 5c3b
00000010: 53d9 a83d 67a6 2138 c2b6 89bd 4d98 8c3b
00000020: 680a a13d cd98 a33d d363 aa3c 9363 be3d
00000030: 27ad 703c 1ad6 4a3d 7725 563d 202f c93c
00000040: 2d3e b23c 63e2 a4bd 5739 053d 9a29 2bbc
00000050: 3324 923c 4db0 5bbc 70ab bbbd 1b32 883d
00000060: c2d0 bcbd fd41 473d 3fea adbd edc4 d13c
00000070: bd31 ae3d 802b 913b 1ade ff3b 8ae2 53bd
00000080: 2d69 a7bd fd0e 22bd 55a6 c43d bd07 8ebd
00000090: 7360 473c 007b 253d 000f 4cbb 5747 843d
000000a0: 78e3 97bd 3323 f33b dbc7 a13d da40 41bc
000000b0: b39c a63d 009f 5cbc 52c4 a7bd 039d 2f3d
000000c0: 2ddd 56bd 9814 98bd 47e1 353d fa63 04bd
000000d0: 7599 c33d 9a22 533c e288 81bd 756e ba3d
000000e0: 931e f6bc fa88 833c 7393 343c 9ab6 993b
000000f0: b25a 8bbd 93d9 263d a79a 72bd 6379 08bd
00000100: bd14 b2bd a769 bf3c 6287 a5bd 92ee b63d
00000110: da31 fbbc 8da3 59bc 4f0f bfbd 9a33 123d
00000120: 8846 a2bd 5a62 bb3c aa88 3abd 4dbb 623c
00000130: d5c2 b1bd 37a2 2bbd 0a96 97bd e274 a7bd
00000140: 9a31 a9bc 6760 3a3d c0d6 9abd daf3 293d
00000150: aa50 3abd ed59 c23d 9dcb 0ebd 8072 06bd
00000160: 3365 e3ba 40e5 243d add8 86bc 0784 9b3c
00000170: aa72 943d a772 9cbc c094 2f3c 0005 70bc
00000180: 0d2a 08bd 1aee 223d e0d1 b3bc 9a47 1dbc
00000190: cddb d23c 47d5 dd3c 5a4a 0dbd 7066 143d
000001a0: 97d0 9dbd 13a2 3c3d 67b4 513d 00c3 693d
000001b0: faed 2a3d ca5f 6e3d 5d10 883d 330e aa3c
000001c0: 70b7 b13d 0d7f b5bc 9af0 203c 004a 7dbc
000001d0: 6771 6cbb c0a8 29bc dad0 73bd dad2 933d
000001e0: 5d8d 16bd f3c0 6f3c a8a5 933d adeb 9f3d
000001f0: f504 ccbd 80a1 9b3d 8371 76bd adfb 163d
00000200: da0c 7cbd 608a 493d a78f cfbc 9360 823c
00000210: e070 9ebd 57e9 77bd 9307 8a3c a3b2 33bd
00000220: b3da c4bc cda4 b1bc 43a6 c7bd 9a37 79bc
00000230: dfa8 90bd 170d b2bd f5e2 a8bd 8022 0dbc
00000240: 50ad 37bd 802f 373c 274a 84bd 2778 be3c
00000250: 3328 cc3c 5d74 7e3d 007c 4e3a 7deb 5c3d
00000260: a015 dfbc 3ab1 ad3d a89f 86bd f0a1 a03d
00000270: 339f 1b3d da2f 893c 9ada c43b f233 b5bd
00000280: 0aa3 c73d 67c7 fdbc ada7 6d3d 7382 093c
00000290: 1341 cb3d 3347 8cbc 179c 6ebd aad5 6e3d
000002a0: 9787 a53d 4dba eb3c 47f2 53bd aa7b 57bd
000002b0: 4a49 1c3d bfd1 91bd bd1b 083d c39a 7ebd
000002c0: b3d2 2d3c 0a3e 41bd ad9a 05bd d756 b9bd
000002d0: 4545 a93d 13b9 b8bc 237b 57bd b797 c93d
000002e0: cd0a e2ba df5d 81bd 48a4 c03d 658b b33d
000002f0: adae 24bd 9a69 56ba da7f f3bc cdec 9fba
00000300: 63bd cabd 4d74 59bc d386 8c3c 3d40 3cbd
00000310: 1a84 b33b 2a75 28bd ca2a 833d e7b1 3b3d
00000320: 128a afbd 0d38 adbd 8059 b53d 7f8a a73d
00000330: a740 5dbd 52d3 b63d c58c 89bd 30f5 1bbd
00000340: a79d 2dbd 103f 22bd 8b08 bf3d 4dc0 98bc
00000350: a036 9dbd b0ab c03d ed50 dabc 83b1 c83d
00000360: b599 c13d 7a11 63bd 5a77 17bd 87f6 503d
00000370: 7a3c 6d3d ebd2 b43d d079 42bd 3a32 873c
00000380: e376 b1bd 9ad3 73bc 50ef 9dbd dad9 0cbd
00000390: fd8f 443d 3047 243d 986f 96bd df3e 8a3d
000003a0: 334b a13b a7f4 293d a7bf 683c a3e4 01bd
000003b0: 0a2d 73bd 3a53 d3bc b332 82bd 402e bfbc
000003c0: 6ab5 c4bd 802c fb3b 7067 273d 4a9e 41bd
000003d0: da64 f93c faa6 9fbd 8db4 2c3c f735 5b3d
000003e0: aadf 97bd 4df8 4a3c adaa b83d 421c a5bd
000003f0: 9db6 6d3d 8828 b0bd cbb6 afbd b2a8 9abd

encoder.mean_layer.bias f4 [3]
0.0728923 0.045191694 -0.08472989
00000000: 8f48 953d ed1a 393d dd86 adbd

encoder.logvar_layer.weight f4 [3, 100]
0.06608353 -0.039064277 0.052893937 0.08201959 0.043896914 -0.037768662 -0.085787036 -0.017635679
0.09725308 0.013411379 0.030468274 -0.0078599695 -0.09037075 0.093025185 0.017922927 0.028683294
-0.083459534 0.07519392 0.07164146 0.08057177 -0.009092403 -0.07610656 -0.018053234 0.057413638
0.0837175 0.02931875 0.05535376 -0.049994815 0.020011783 0.018021977 -0.048924353 0.055987526
0.011390221 0.093493365 0.028503824 0.07616339 0.06922883 0.022564877 -0.08309084 -0.02948755
-0.029434323 -0.049122036 0.063042104 -0.023867726 0.02759756 0.0028816701 -0.019526457 -0.08665506
0.012796891 -0.01864531 0.09813996 0.0037335276 0.094243884 -0.08754279 0.031206036 0.07827908
0.0722623 0.05817325 0.07531001 -0.02301321 -0.084487036 -0.045099545 -0.0018897534 0.047286283
0.021601712 0.08372972 -0.061265826 0.04334115 -0.08061933 0.04902009 -0.0032529712 0.08198408
0.0039706826 0.08803892 -0.01278733 -0.09964835 0.06816899 0.07698991 -0.09838494 0.017486442
0.072219394 -0.02278893 -0.066904865 0.06575035 0.022653937 0.048954308 0.0038119673 0.0880091
0.0042477134 -0.015688896 0.03927506 -0.09412151 0.06222805 0.08604844 -0.009167827 -0.08587163
-0.08186634 -0.096962176 0.02153541 -0.015148199 0.09333234 0.09150777 -0.020280028 -0.01135186
-0.0046702623 -0.031810522 -0.010973728 0.07883888 0.055554736 0.08074313 -0.07401568 0.013354266
0.056118645 0.074283734 0.024892306 0.05786252 -0.055872023 0.015685653 0.05713738 -0.07792198
-0.0032643916 0.0927959 -0.016311515 0.04495678 -0.079097055 -0.013850796 0.022896409 0.01904744
-0.08333742 0.087723725 -0.014844584 0.09526501 -0.032502186 -0.037218463 -0.046107948 0.061240174
0.013081336 0.018294204 -0.03251946 -0.097035386 -0.068799876 0.01014148 -0.017141724 -0.049854137
-0.03622935 -0.010658646 -0.010756612 -0.0896005 -0.019277586 -0.066126525 0.07050218 0.008837747
-0.053610872 -0.057971943 -0.088088654 0.032218814 -0.034734726 0.09961256 -0.07027718 -0.01488328
0.0052416683 0.028777158 -0.030040884 0.08299245 -0.04658108 -0.070611976 -0.079038255 -0.08941088
-0.043924272 -0.065130115 -0.0675134 0.01774676 -0.03287518 0.007698381 -0.03393197 -0.032618284
-0.08667213 -0.06312237 -0.011503994 -0.006665349 -0.015978431 0.08569527 0.046256114 -0.0373299
-0.004261804 0.08384814 -0.07645297 -0.04842658 -0.04294307 -0.038151264 -0.056655552 0.02181046
-0.09440505 0.0036348582 -0.061383795 -0.08153609 0.032637168 -0.08113328 0.092910506 -0.09528997
0.047401715 0.058178723 -0.020425225 0.08400953 -0.07681761 0.005408657 0.06636961 0.0961259
-0.065371454 0.010770822 -0.06811004 -0.054016996 0.092446975 -0.011205459 0.022434568 -0.013858259
0.030916309 0.077629186 -0.05283357 -0.08061739 0.08951496 0.0030001046 0.0038860322 0.088129126
0.075264476 -0.027891684 -0.025487244 -0.09418775 0.074643575 -0.011129225 -0.0695331 -0.085908785
0.008016586 0.09756111 -0.09896908 0.025056994 -0.061169934 0.006314445 0.067706265 0.079550005
0.051169276 0.0063977363 0.040438343 -0.0115494495 0.043787528 -0.09914645 -0.014546133 -0.09174106
0.060408738 0.045448985 -0.035687722 0.07702035 0.06709176 0.093444526 -0.058342934 0.0299052
00000000: cd56 873d dd01 20bd 50a7 583d e3f9 a73d
00000010: 40cd 333d 50b3 1abd 1db1 afbd b378 90bc
00000020: 9f2c c73d 67bb 5b3c 9a98 f93c 1ac7 00bc
00000030: 4d14 b9bd fd83 be3d 1ad3 923c 3af9 ea3c
00000040: d5ec aabd 45ff 993d c2b8 923d d002 a53d
00000050: 4df8 14bc c2dd 9bbd 60e4 93bc 902a 6b3d
00000060: 1574 ab3d e02d f03c a0ba 623d 5dc7 4cbd
00000070: c0ef a33c d3a2 933c e764 48bd 2d53 653d
00000080: 0d9e 3a3c 7379 bf3d da80 e93c 8dfb 9b3d
00000090: d8c7 8d3d fad9 b83c 882b aabd e08f f1bc
000000a0: 4020 f1bc 3034 49bd 381c 813d 4086 c3bc
000000b0: 4714 e23c 67da 3c3b f3f5 9fbc 3578 b1bd
000000c0: 0daa 513c 0dbe 98bc 9afd c83d 33ae 743b
000000d0: f002 c13d a249 b3bd cda3 ff3c c850 a03d
000000e0: 42fe 933d 1347 6e3d 223c 9a3d 3386 bcbc
000000f0: 8a07 adbd 4dba 38bd 9ab1 f7ba 43af 413d
00000100: 13f6 b03c 7d7a ab3d e0f1 7abd 7d86 313d
00000110: bf1b a5bd 4ac9 483d cd2f 55bb 45e7 a73d
00000120: 801c 823b c04d b43d f381 51bc 6f14 ccbd
00000130: 2f9c 8b3d e3ac 9d3d 0b7e c9bd ba3f 8f3c
00000140: c3e7 933d daaf babc 6b05 89bd 1fa8 863d
00000150: c094 b93c 5084 483d 33d2 793b 1d3e b43d
00000160: 6730 8b3b 0086 80bc e3de 203d c7c2 c0bd
00000170: d7e2 7e3d 2a3a b03d a734 16bc 77dd afbd
00000180: 8aa9 a7bd 1b94 c6bd 076b b03c 2730 78bc
00000190: 0725 bf3d 6d68 bb3d 4d22 a6bc 27fd 39bc
000001a0: 0009 99bb c04b 02bd 27cb 33bc 4776 a13d
000001b0: 5d8d 633d a75c a53d 8895 97bd dacb 5a3c
000001c0: aadc 653d 1222 983d f3ea cb3c 4001 6d3d
000001d0: 10da 64bd 337f 803c e308 6a3d 8f95 9fbd
000001e0: 67ef 55bb c70b be3d ba9f 85bc 9a24 383d
000001f0: a3fd a1bd 73ee 62bc 4091 bb3c 6009 9c3c
00000200: cfac aabd 7fa8 b33d b336 73bc 4d1a c33d
00000210: 0321 05bd 6372 18bd b0db 3cbd fad6 7a3d
00000220: 1a53 563c badd 953c 2033 05bd 7dba c6bd
00000230: f3e6 8cbd 7328 263c cd6c 8cbc da33 4cbd
00000240: 3a65 14bd 9aa1 2ebc 803c 30bc 7880 b7bd
00000250: 07ec 9dbc 586d 87bd 7263 903d 33cc 103c
00000260: 1397 5bbd fd73 6dbd d367 b4bd e0f7 033d
00000270: 0046 0ebd ab01 cc3d 7bed 8fbd 00d9 73bc
00000280: 4dc2 ab3b 13be eb3c 4d18 f6bc f2f7 a93d
00000290: cdcb 3ebd 039d 90bd cfde a1bd 0d1d b7bd
000002a0: f0e9 33bd f062 85bd 7744 8abd a761 913c
000002b0: 20a8 06bd b342 fc3b 40fc 0abd c09a 05bd
000002c0: 2881 b1bd 4d46 81bd 407b 3cbc 0069 dabb
000002d0: 33e5 82bc 0081 af3d 0d77 3d3d 3de7 18bd
000002e0: 9aa6 8bbb 93b8 ab3d 6093 9cbd f35a 46bd
000002f0: 13e5 2fbd 8044 1cbd a70f 68bd daab b23c
00000300: 6f57 c1bd cd36 6e3b 936d 7bbd 65fc a6bd
00000310: 8dae 053d 3529 a6bd dd47 be3d 6327 c3bd
00000320: 4d28 423d d04c 6e3d cd52 a7bc 300d ac3d
00000330: 8d52 9dbd 1a3b b13b caec 873d a8dd c43d
00000340: 78e1 85bd 1a78 303c 477d 8bbd ed40 5dbd
00000350: d754 bd3d 1a97 37bc b3c8 b73c c00d 63bc
00000360: 3344 fd3c 0dfc 9e3d 0368 58bd bb1a a5bd
00000370: 9f53 b73d 679d 443b cdac 7e3b 0b7d b43d
00000380: 4324 9a3d 1a7d e4bc a0ca d0bc 82e5 c0bd
00000390: bbde 983d 5a57 36bc 5f67 8ebd f2f0 afbd
000003a0: 0058 033c 1fce c73d 4db0 cabd 5344 cd3c
000003b0: 538d 7abd 67e9 ce3b 95a9 8a3d 1deb a23d
000003c0: e096 513d 1aa4 d13b ada2 253d e739 3dbc
000003d0: 8d5a 333d 4b0d cbbd e752 6ebc bde2 bbbd
000003e0: 276f 773d b728 3a3d 4a2d 12bd d8bc 9d3d
000003f0: 6867 893d d85f bf3d 00f9 6ebd c0fb f43c

encoder.logvar_layer.bias f4 [3]
0.07587719 0.07245195 0.042656183
00000000: 8065 9b3d b061 943d 40b8 2e3d

decoder.layers.0.weight f4 [100, 4]
0.0040251017 -0.0014708638 0.34793162 -0.21623665 0.29447925 0.37772363 -0.3768102 0.18966872
-0.27720207 0.25047362 0.41952956 -0.06546581 -0.31550312 0.04849571 -0.051287055 0.1045298
-0.1709336 -0.002036512 -0.2155844 -0.2127499 -0.29472983 0.18031806 0.2885502 -0.17388797
0.32758737 -0.33800036 0.0054855943 -0.20614576 -0.42432618 -0.225954 0.4259284 -0.35611928
-0.05019641 0.019265652 -0.26717913 -0.032767057 0.49271178 -0.43522125 -0.49626917 0.3881284
0.26611894 0.110210955 0.039221704 -0.37238467 0.0026852489 0.23622423 -0.11692947 -0.3815385
0.290538 0.250305 -0.11873555 -0.285088 0.3617952 -0.10194403 -0.44647568 0.2168001
0.2845106 -0.06206429 0.30421942 -0.46543747 -0.112332225 -0.26360494 -0.34379077 -0.46823192
-0.04832822 -0.41312122 -0.11662161 -0.3274811 0.12595177 0.3123749 -0.49337035 0.08886236
0.22673905 -0.1830172 -0.24073792 -0.33279955 0.09504527 -0.009033322 -0.3079151 0.076159
0.30278468 -0.32585 0.3908229 -0.01388818 -0.3305775 -0.31595182 0.1997751 0.33388603
0.4888984 -0.26562268 -0.09211928 0.36261797 0.3287412 -0.1314125 0.1103456 0.4066317
-0.27593672 0.058852553 -0.1364994 -0.27846193 -0.21815562 0.43059564 -0.030667245 0.11936146
0.32152796 -0.07655823 -0.10421097 -0.4154476 -0.092268944 -0.3431586 0.36147422 0.16278553
-0.3180895 0.4393326 0.37147546 0.2238257 0.048517823 0.45748323 0.04609251 -0.38363826
0.330687 -0.34454525 0.13276833 0.43429524 -0.39773273 0.42505175 0.06288779 -0.032148898
0.12590986 0.44442493 -0.49068713 0.48470682 -0.101745665 -0.14489621 0.059678197 -0.45839816
-0.052149713 0.17676061 -0.36452627 0.3406446 -0.22398359 -0.46955806 -0.027292073 0.42158425
-0.48402452 -0.32246208 0.35269868 0.3494988 -0.006066084 -0.4437508 -0.062169075 0.09283912
-0.105511904 0.43867558 0.19746089 -0.107076705 -0.21724457 0.39286816 0.4435662 -0.24584937
0.28241014 0.47729498 -0.41052586 0.043620586 -0.37529367 0.0879398 -0.47945714 0.4769752
-0.42993802 0.2198497 -0.06872982 -0.35198843 -0.18118924 0.47369188 0.2908836 -0.013044596
0.03405875 0.17780858 -0.06200373 -0.24287915 -0.28824198 0.0068967342 0.039711952 0.44882542
0.24847025 -0.14543533 0.45459425 -0.0096386075 0.14812344 0.29481584 -0.43209106 0.10057086
-0.454665 0.24495876 -0.000849247 -0.23504806 -0.4725175 -0.25898224 -0.3807913 0.3117643
-0.112669885 -0.49119616 0.14569521 -0.32490855 0.3866366 0.022356153 -0.039778292 -0.20034486
0.47052848 0.16325283 -0.09873998 -0.46533138 0.13896734 -0.47386104 0.0021972656 0.16914105
-0.3644262 -0.09364724 -0.4091593 -0.42653877 0.04495269 0.3295713 -0.17766142 -0.25545543
0.05081719 0.026853919 -0.39132917 0.24005467 0.0033256412 -0.3367464 -0.33305603 0.2934752
0.041113496 0.085085034 0.18958724 -0.38769954 0.41854405 0.036458492 -0.22385603 0.41384494
0.26531756 -0.44776356 0.3495025 -0.0034043193 -0.14491105 0.14681506 0.39182824 -0.33664536
-0.4282301 0.13729227 -0.40714782 -0.47684675 -0.46344364 0.025476038 0.39197296 -0.02241832
00000000: 00e5 833b 00ca c0ba 1824 b23e 246d 5dbe
00000010: fcc5 963e fe64 c13e 44ed c0be 8438 423e
00000020: 6eed 8dbe 143e 803e 94cc d63e f012 86bd
00000030: a089 a1be 70a3 463d 6012 52bd b813 d63d
00000040: 3809 2fbe 0077 05bb 28c2 5cbe 1cdb 59be
00000050: d4e6 96be 4ca5 383e dabc 933e b00f 32be
00000060: 88b9 a73e 620e adbe 80c0 b33b e017 53be
00000070: 4841 d9be 7c60 67be 4a13 da3e 4455 b6be
00000080: c09a 4dbd 00d3 9d3c b4cb 88be c036 06bd
00000090: b844 fc3e 52d5 debe fe16 febe c4b8 c63e
000000a0: be40 883e 48b6 e13d f0a6 203d 34a9 bebe
000000b0: 00fb 2f3b c4e4 713e b878 efbd 0459 c3be
000000c0: 66c1 943e fa27 803e a02b f3bd 0ef7 91be
000000d0: 383d b93e 08c8 d0bd 7698 e4be d800 5e3e
000000e0: 60ab 913e 2037 7ebd a6c2 9b3e d24d eebe
000000f0: 700e e6bd 3af7 86be 5805 b0be 18bc efbe
00000100: d0f3 45bd a084 d3be 50d7 eebd 9aab a7be
00000110: 80f9 003e 9aef 9f3e 0a9b fcbe 78fd b53d
00000120: 482e 683e dc68 3bbe 0084 76be b464 aabe
00000130: 18a7 c23d 8000 14bc 0ca7 9dbe 40f9 9b3d
00000140: 9806 9b3e d0d5 a6be f019 c83e 408b 63bc
00000150: 7441 a9be 70c4 a1be d891 4c3e 1cf3 aa3e
00000160: e450 fa3e b2ff 87be 08a9 bcbd 10a9 b93e
00000170: c450 a83e 0091 06be e0fc e13d 0832 d03e
00000180: 9447 8dbe 600f 713d 80c6 0bbe 9092 8ebe
00000190: 3064 5fbe 0877 dc3e e039 fbbc c873 f43d
000001a0: 509f a43e 90ca 9cbd 906c d5bd 8cb5 d4be
000001b0: 80f7 bcbd 7cb2 afbe 2613 b93e 40b1 263e
000001c0: a0dc a2be 34f0 e03e 0832 be3e 9032 653e
000001d0: a0ba 463d 3e3b ea3e 80cb 3c3d 3c6c c4be
000001e0: ce4f a93e 3c68 b0be 6cf4 073e f25b de3e
000001f0: a0a3 cbbe 62a0 d93e 50cb 803d 90ae 03bd
00000200: 84ee 003e aa8b e33e 583b fbbe 7e2b f83e
00000210: 0860 d0bd ac5f 14be 2071 743d 2ab3 eabe
00000220: f09a 55bd bc00 353e 30a3 babe f868 ae3e
00000230: f45b 65be ea69 f0be a093 dfbc e4d9 d73e
00000240: 10d2 f7be c019 a5be ec94 b43e 82f1 b23e
00000250: 00c6 c6bb 4e33 e3be 00a5 7ebd 7022 be3d
00000260: a016 d8bd 169a e03e 3033 4a3e 084b dbbd
00000270: 5c75 5ebe 0426 c93e 1c1b e33e f0bf 7bbe
00000280: 1098 903e 0260 f43e 7230 d2be 80ab 323d
00000290: 7e26 c0be c819 b43d 687b f5be 1836 f43e
000002a0: d620 dcbe 4820 613e 38c2 8cbd d437 b4be
000002b0: ac89 39be be87 f23e b2ee 943e 00b9 55bc
000002c0: 3081 0b3d 7413 363e a0f7 7dbd 50b5 78be
000002d0: 7494 93be 00fe e13b 00a9 223d 72cc e53e
000002e0: fc6e 7e3e 00ed 14be 94c0 e83e 40eb 1dbc
000002f0: acad 173e 1af2 963e 0a3b ddbe 18f8 cd3d
00000300: dac9 e8be 78d6 7a3e 00a0 5eba 70b0 70be
00000310: d0ed f1be 5299 84be 14f7 c2be 929f 9f3e
00000320: 78bf e6bd 107e fbbe 2031 153e 6a5a a6be
00000330: 3cf5 c53e 4024 b73c 90ee 22bd 3427 4dbe
00000340: 1ce9 f03e c02b 273e 3038 cabd ea3f eebe
00000350: 744d 0e3e ea9d f2be 0000 103b 5033 2d3e
00000360: 1296 babe 20ca bfbd 547d d1be 4a63 dabe
00000370: 5020 383d 92bd a83e e0ec 35be 0ecb 82be
00000380: b025 503d c0fc db3c 4c5c c8be e4d0 753e
00000390: 00f3 593b 066a acbe 5286 aabe 6242 963e
000003a0: a066 283d 1041 ae3d 2823 423e 8e80 c6be
000003b0: 684b d63e 8055 153d 843a 65be 7ce3 d33e
000003c0: b4d7 873e 4441 e5be fef1 b23e 001b 5fbb
000003d0: 9063 14be b056 163e b69d c83e c85c acbe
000003e0: fa40 dbbe 5896 0c3e ae75 d0be 4225 f4be
000003f0: 7c48 edbe 20b3 d03c aeb0 c83e a0a6 b7bc

decoder.layers.0.bias f4 [100]
0.17260337 0.016855538 -0.46434766 -0.42213786 -0.032012522 0.29068488 0.34423625 -0.45781952
-0.053741336 -0.18717897 -0.087271094 -0.34099478 -0.47404158 -0.3941688 -0.28437668 -0.22167283
0.23486125 -0.069860816 0.21350944 0.26249284 -0.098906696 -0.4809025 -0.24168855 0.018578172
-0.42453712 0.0728395 -0.21983361 -0.33713913 0.36319357 0.4895324 -0.0073834658 0.09334266
-0.06534994 -0.27015382 -0.35434717 -0.14727324 0.1845504 0.09430969 -0.057843268 0.15706575
0.12669015 -0.17244697 -0.40999448 -0.4741254 0.49855125 -0.26891524 -0.044111192 0.4825278
-0.32284147 -0.24543977 -0.44005895 0.04236585 0.25658476 0.09882122 0.12291843 0.27088004
-0.33512157 0.42406934 0.17221075 -0.22904015 0.1422137 0.106138945 -0.09418428 -0.07996827
0.26551718 -0.0415895 -0.30672002 -0.47756237 -0.061526597 0.058244407 0.054894507 0.25795466
0.16040689 -0.14748222 -0.16150254 0.33698016 0.04074949 0.35421997 -0.19080299 -0.18859953
0.10484916 0.43809313 -0.33917767 -0.2423439 0.15974587 0.4648556 0.2602073 0.49271286
0.013680339 0.15687054 -0.30227828 -0.2254821 0.039516687 0.43982035 -0.39736432 -0.31710076
0.4907552 -0.32256758 0.4683063 -0.3311423
00000000: f0be 303e a014 8a3c fabe edbe 7422 d8be
00000010: 901f 03bd a6d4 943e bc3f b03e 5267 eabe
00000020: e01f 5cbd d8ab 3fbe 30bb b2bd de96 aebe
00000030: 94b5 f2be 7ed0 c9be d299 91be 34fe 62be
00000040: 787f 703e 3013 8fbd 38a2 5a3e 7665 863e
00000050: 988f cabd da38 f6be 347d 77be 4031 983c
00000060: ee5c d9be e02c 953d 101c 61be 809d acbe
00000070: 82f4 b93e fea3 fa3e 00f1 f1bb 702a bf3d
00000080: 30d6 85bd 9a51 8abe fe6c b5be ccce 16be
00000090: c8fa 3c3e 7025 c13d 10ed 6cbd d8d5 203e
000000a0: 10bb 013e f095 30be ccea d1be 90c0 f2be
000000b0: 1c42 ff3e 42af 89be f0ad 34bd e20d f73e
000000c0: 7a4b a5be 9054 7bbe 684f e1be d087 2d3d
000000d0: 145f 833e c862 ca3d a8bc fb3d cab0 8a3e
000000e0: 0e95 abbe 9e1f d93e 0458 303e 8089 6abe
000000f0: 78a0 113e 605f d93d b0e3 c0bd 68c6 a3bd
00000100: def1 873e c059 2abd 680a 9dbe 0e83 f4be
00000110: 5003 7cbd b091 6e3d 10d9 603d a212 843e
00000120: b441 243e 9405 17be ec60 25be aa88 ac3e
00000130: f0e8 263d 525c b53e dc61 43be 3c20 41be
00000140: 28bb d63d be4d e03e b2a8 adbe 0029 78be
00000150: 6c94 233e 8e01 ee3e e439 853e dc44 fc3e
00000160: 8023 603c aca2 203e 38c4 9abe c8e4 66be
00000170: 40dc 213d 2230 e13e 5673 cbbe 085b a2be
00000180: 4444 fb3e 9427 a5be d8c5 ef3e 7c8b a9be

decoder.layers.1.weight f4 [100, 100]
-0.027353728 0.06316873 -0.072623625 0.07369938 -0.09742621 0.05442692 0.047202636 0.08874562
0.065398864 0.019917298 0.013375628 -0.014205182 -0.044457447 0.010893655 0.01514976 -0.07248747
0.011733199 0.005803812 -0.064921536 0.048402585 0.064058006 0.0048369407 -0.052912056 -0.093508594
0.018762697 0.09106417 0.09701251 0.0070027593 -0.00023431778 -0.029292716 0.05134834 0.094170645
-0.011182762 -0.07081325 -0.06414228 0.096342824 0.09271337 0.05182991 0.048353076 -0.024972452
0.077099994 -0.034987986 0.02611574 0.074615434 -0.020161306 -0.041419327 0.013699758 -0.03894291
-0.09900429 -0.08510096 0.06884291 -0.08382328 -0.030112136 -0.094844006 0.004229164 0.08407898
-0.0360428 0.012942458 0.066691436 -0.05731063 0.06770402 0.08989147 0.0015204787 -0.06379682
0.08833801 -0.08614577 -0.069265656 0.001246357 0.058164965 0.06648313 -0.09552058 -0.03602426
0.06791196 0.023855103 0.0025550486 -0.008672619 0.01488272 -0.014954674 0.034642946 -0.0982604
-0.08813421 0.0990714 0.06257166 -0.07804197 0.01751386 -0.010941518 -0.085770085 -0.09550381
0.013868463 0.080378555 -0.03663751 0.0688928 -0.026490618 0.007470596 -0.092640996 0.0015802145
0.027534485 -0.09124023 0.045966376 -0.018321132 0.053234506 -0.07820394 0.08990599 -0.037781395
-0.019796563 -0.09245112 -0.024262667 0.08124057 -0.09056126 -0.073282816 -0.051970948 0.061709773
-0.094530605 -0.02504679 -0.019108152 -0.054066002 -0.08561148 0.047257055 -0.067188255 -0.0063061
-0.06502552 0.064321734 0.030662728 0.086393535 -0.04121628 -0.0730798 0.010968602 0.06476561
0.003997111 0.04432224 -0.03198557 -0.08161825 0.052786697 -0.06396272 -0.094763175 -0.059728444
-0.09738059 -0.07200457 -0.0152805215 0.064120784 0.072075866 -0.08783262 0.01526016 -0.016960835
-0.09420972 0.010421551 -0.021003783 0.034886718 0.015070963 -0.077306025 -0.019518292 0.014909125
0.049653042 -0.02200066 0.09012704 -0.049378455 0.019626547 -0.0155623555 -0.09851449 -0.026795793
-0.016047968 -0.052119363 0.09809505 0.01131531 0.04415045 0.037008643 -0.0074035763 -0.06554973
-0.039585438 -0.08284632 -0.0685447 0.025460733 0.06869215 0.06954765 0.08791657 0.02257141
-0.060360875 0.07576127 0.04588915 -0.04829366 0.07291414 -0.0111557245 0.051176537 -0.036264587
0.096902706 0.03353975 0.013969123 -0.0019914866 -0.052134335 -0.06264497 -0.021516358 0.04722897
-0.012189257 0.05612388 0.016054822 -0.05818237 0.036556482 0.0023963214 0.0861341 -0.02804315
-0.0133281 0.0026105286 -0.06791147 -0.08608716 -0.063078836 0.038010776 0.07714496 0.0028535367
-0.051878966 -0.078553595 -0.012917066 -0.01805873 -0.0025361062 0.05443746 0.09171432 -0.052619435
-0.031366467 -0.050588764 0.075524725 0.029170156 0.025287045 -0.034655046 0.08772079 -0.085401796
-0.051964413 0.02094078 0.040083446 -0.056969 0.07809132 0.08662673 0.03401587 -0.041460812
-0.029994989 -0.04741725 -0.010059846 0.006833804 0.0066378475 -0.07274828 0.05512191 0.028651739
0.04791106 0.0042450787 0.041290965 0.044873334 -0.007032752 -0.07946445 -0.06901053 -0.065889336
0.037734795 -0.052112963 -0.042265534 -0.0017444969 0.034686398 0.07536471 0.07600204 0.042531885
00000000: ed14 e0bc 9b5e 813d b2bb 94bd b3ef 963d
00000010: 6587 c7bd c3ee 5e3d 8d57 413d 43c0 b53d
00000020: d7ef 853d 9a29 a33c 7325 5b3c dabc 68bc
00000030: 0319 36bd 4d7b 323c b336 783c 5074 94bd
00000040: 9a3c 403c e72d be3b 95f5 84bd ca41 463d
00000050: d830 833d 337f 9e3b 50ba 58bd 6f81 bfbd
00000060: 3ab4 993c da7f ba3d 7fae c63d 6777 e53b
00000070: 33b3 75b9 47f7 efbc a352 523d 8adc c03d
00000080: e737 37bc 8a06 91bd 075d 83bd 634f c53d
00000090: 82e0 bd3d 9a4b 543d e00d 463d 0793 ccbc
000000a0: 9ae6 9d3d 904f 0fbd adf0 d53c facf 983d
000000b0: 5329 a5bc 50a7 29bd f374 603c 9a82 1fbd
000000c0: c3c2 cabd 6a49 aebd 83fd 8c3d 8aab abbd
000000d0: baad f6bc 933d c2bd cd94 8a3b 9a31 ac3d
000000e0: 9da1 13bd 9a0c 543c 8595 883d 8dbe 6abd
000000f0: 68a8 8a3d 0519 b83d cd4a c73a e8a7 82bd
00000100: 8fea b43d 326d b0bd 27db 8dbd cd5c a33a
00000110: 633e 6e3d 4f28 883d 4ba0 c3bd 2d8e 13bd
00000120: 6d15 8b3d c76b c33c 9a72 273b 9a17 0ebc
00000130: a7d6 733c 7304 75bc c3e5 0d3d c03c c9bd
00000140: b57f b4bd f2e5 ca3d 9225 803d 78d4 9fbd
00000150: 3a79 8f3c 0d44 33bc 3aa8 afbd 8097 c3bd
00000160: 8d38 633c 839d a43d 3711 16bd ab17 8d3d
00000170: da02 d9bc e7cb f43b 90ba bdbd 331f cf3a
00000180: 0090 e13c 28dc babd 3d47 3c3d 3316 96bc
00000190: 6d0c 5a3d 6329 a0bd a220 b83d aac0 1abd
000001a0: 672c a2bc 0357 bdbd 80c2 c6bc 7561 a63d
000001b0: 2f78 b9bd 4d15 96bd 7ddf 54bd 63c3 7c3d
000001c0: 4399 c1bd ed2e cdbc b388 9cbc 5074 5dbd
000001d0: 1255 afbd 9d90 413d ff99 89bd 67a3 cebb
000001e0: 1a2c 85bd 1dbb 833d 6730 fb3c 18ef b03d
000001f0: 67d2 28bd ddaa 95bd a7b5 333c d5a3 843d
00000200: 33fa 823b 3d8b 353d 4d03 03bd 7827 a7bd
00000210: dd36 583d e3fe 82bd 3213 c2bd d0a5 74bd
00000220: 7a6f c7bd 2277 93bd 275b 7abc c251 833d
00000230: 839c 933d 97e1 b3bd c005 7a3c 73f1 8abc
00000240: 07f1 c0bd 27bf 2a3c 2010 acbc 60e5 0e3d
00000250: 33ec 763c 9f52 9ebd d3e4 9fbc 6745 743c
00000260: fd60 4b3d ba3a b4bc 8794 b83d 1041 4abd
00000270: dac7 a03c 40f9 7ebc f7c1 c9bd da82 dbbc
00000280: 0777 83bc 1d7b 55bd 0fe6 c83d da63 393c
00000290: 1ad7 343d 6096 173d b399 f2bb f03e 86bd
000002a0: 5724 22bd 55ab a9bd 2a61 8cbd 0793 d03c
000002b0: 78ae 8c3d 006f 8e3d 9a0d b43d ade7 b83c
000002c0: f73c 77bd ba28 9b3d 43f6 3b3d 93cf 45bd
000002d0: 0254 953d 80c6 36bc 7d9e 513d 2d8a 14bd
000002e0: ed74 c63d fa60 093d c0de 643c 9a83 02bb
000002f0: d08a 55bd 024c 80bd 1343 b0bc 2a73 413d
00000300: 73b5 47bc 27e2 653d 6785 833c a350 6ebd
00000310: 40bc 153d 9a0b 1d3b 1367 b03d c0ba e5bc
00000320: 1a5e 5abc 6715 2b3b 2b15 8bbd 774e b0bd
00000330: 7a2f 81bd 30b1 1b3d 2dfe 9d3d 6702 3b3b
00000340: 0a7f 54bd b5e0 a0bd 1aa2 53bc e7ef 93bc
00000350: cd34 26bb d0f9 5e3d b8d4 bb3d 7a87 57bd
00000360: 207a 00bd 2a36 4fbd b5ac 9a3d 40f6 ee3c
00000370: c726 cf3c 73f2 0dbd f5a6 b33d 23e7 aebd
00000380: a3d8 54bd 008c ab3c 8a2e 243d 5358 69bd
00000390: 58ee 9f3d 5b69 b13d 3a54 0b3d d0d2 29bd
000003a0: 0db8 f5bc 9738 42bd 0dd2 24bc 1aee df3b
000003b0: 4d82 d93b 0dfd 94bd 83c7 613d 0db7 ea3c
000003c0: 633e 443d 4d1a 8b3b b720 293d 1acd 373d
000003d0: 0073 e6bb 42be a2bd 6555 8dbd fdf0 86bd
000003e0: cd8f 1a3d 6774 55bd a01e 2dbd 9aa7 e4ba
000003f0: 5313 0e3d d058 9a3d f5a6 9b3d ea35 2e3d

decoder.layers.1.bias f4 [100]
0.026728773 0.08251792 -0.0959412 0.011317158 0.029226959 -0.08759359 -0.04199759 0.07229115
-0.056938697 -0.077878475 0.0959481 0.08094962 0.09646397 -0.09195598 0.06451565 -0.038208842
-0.09089909 -0.08278596 -0.045633923 0.017321039 -0.094025694 0.07464577 -0.078366876 -0.012352896
0.097131446 -0.033943046 -0.037726738 -0.08938505 -0.03512602 -0.019555891 0.033703137 -0.008612812
-0.024708642 0.0013257981 -0.059322096 -0.09111394 -0.082514696 0.0033132078 -0.0036104918 0.033180654
-0.027241325 -0.07697219 -0.03325931 0.086454 0.034795534 -0.06608244 -0.0015726447 -0.089362636
-0.043013312 -0.09835837 0.0065084817 -0.09618063 0.046448518 -0.0162385 0.06360183 -0.021392906
0.016787875 0.0030423643 -0.08428184 -0.0138044 0.05921444 -0.0496593 0.07528366 0.07859593
-0.050198402 0.056432474 -0.047383394 -0.03922659 -0.077565804 0.07604282 -0.07371193 0.08932879
-0.06687858 -0.09334456 0.08722271 -0.05812948 0.06492754 0.029719675 0.07626387 0.085841656
-0.017134786 0.016714156 -0.07277711 -0.021640992 0.0037848116 0.013638914 0.026313413 0.0019609332
0.029559588 0.0021876337 -0.043655444 0.07138276 -0.062710874 0.08161817 -0.053974308 0.075864576
-0.058913182 -0.03587469 -0.059516322 -0.0108251935
00000000: 4df6 da3c 28ff a83d d27c c4bd 9a6b 393c
00000010: 606d ef3c 4564 b3bd aa05 2cbd 620d 943d
00000020: 8d38 69bd c07e 9fbd 7080 c43d eac8 a53d
00000030: e78e c53d 6b53 bcbd c820 843d e080 1cbd
00000040: 4d29 babd af8b a9bd a3ea 3abd dae4 8d3c
00000050: 8b90 c0bd e2df 983d d07e a0bd cd63 4abc
00000060: daec c63d dd07 0bbd 5a87 1abd 820f b7bd
00000070: 4de0 0fbd ad33 a0bc 4d0c 0a3d c01c 0dbc
00000080: c769 cabc 67c6 ad3a bafb 72bd f299 babd
00000090: 77fd a8bd 6722 593b 009e 6cbb 70e8 073d
000000a0: 3329 dfbc 98a3 9dbd ea3a 08bd cb0e b13d
000000b0: c385 0e3d 3b56 87bd 3321 ceba c203 b7bd
000000c0: ba2e 30bd 1d70 c9bd 1a45 d53b 5afa c4bd
000000d0: cd40 3e3d 9a06 85bc ad41 823d 2d40 afbc
000000e0: ba86 893c 6762 473b f59b acbd da2b 62bc
000000f0: d78a 723d 8d67 4bbd 522e 9a3d e7f6 a03d
00000100: d79c 4dbd bd25 673d 1715 42bd 10ac 20bd
00000110: d2da 9ebd 57bc 9b3d 48f6 96bd 03f2 b63d
00000120: a3f7 88bd 6f2b bfbd d2a1 b23d 2d19 6ebd
00000130: bbf8 843d ad76 f33c 3b30 9c3d c0cd af3d
00000140: 405e 8cbc 20ec 883c 2a0c 95bd 7348 b1bc
00000150: 9a0a 783b c075 5f3c 3a8f d73c 0083 003b
00000160: f326 f23c 675e 0f3b 0dd0 32bd 2031 923d
00000170: 8f6e 80bd 6d27 a73d 2a14 5dbd e35e 9b3d
00000180: f34e 71bd 57f1 12bd 63c7 73bd 275c 31bc

decoder.layers.2.weight f4 [1, 100]
-0.03144573 -0.029663254 0.09226811 -0.0050464272 -0.08810308 0.08599287 -0.0015698314 -0.0011168718
-0.006741607 0.053555228 -0.011423445 -0.09166415 0.04211619 0.07269 0.077880256 0.06663243
0.010385252 -0.0172014 0.010463727 -0.0822155 0.07495029 0.09385877 -0.06266183 -0.06384094
-0.044084813 -0.072342455 0.02309922 -0.015870584 0.055108823 0.070352994 0.009225095 -0.0350261
-0.07137108 0.037216093 0.05734637 -0.013289285 0.004756427 0.0429999 -0.08502992 0.09770886
0.053255048 0.03155886 -0.075867616 0.012674999 -0.010059583 -0.08986395 -0.023938512 -0.004575062
0.075569585 0.00031701327 -0.012644219 -0.04924449 -0.090634726 -0.059958912 0.09387594 -0.064384416
-0.033040773 0.033127036 -0.020685567 -0.018859232 -0.09947019 -0.0490458 -0.0056387903 0.097339265
0.054876376 0.06368865 0.02262615 0.09447831 -0.035539426 0.013205982 -0.08923419 0.061416864
0.009558476 -0.0154803395 -0.09682795 -0.012168837 0.068320684 0.07846633 -0.08855609 -0.0056012394
-0.04445957 -0.009447634 0.07240633 -0.08415878 -0.0005408406 0.07050457 -0.070959166 0.07816793
0.015862107 -0.03129215 0.039397 0.05640154 -0.012721491 -0.00523932 0.009301782 0.065586105
0.07344095 -0.057563495 -0.08893255 -0.0005280614
00000000: 3dcd 00bd 5a00 f3bc 10f7 bc3d 805c a5bb
00000010: 636f b4bd 081d b03d cdc2 cdba 0064 92ba
00000020: b3e8 dcbb ba5c 5b3d 6729 3bbc 6aba bbbd
00000030: 0782 2c3d 7fde 943d af7f 9f3d 9576 883d
00000040: e726 2a3c f3e9 8cbc 0d70 2b3c 9a60 a8bd
00000050: 8a7f 993d 0739 c03d d854 80bd 0abf 82bd
00000060: 4792 34bd 4828 94bd 933a bd3c 0703 82bc
00000070: cab9 613d 3b15 903d da24 173c 8777 0fbd
00000080: 002b 92bd e76f 183d 07e4 6a3d 4dbb 59bc
00000090: cddb 9b3b aa20 303d 2b24 aebd 951b c83d
000000a0: f721 5a3d dd43 013d 7b60 9bbd cdaa 4f3c
000000b0: f3d0 24bc 970a b8bd b31a c4bc 67ea 95bb
000000c0: 3ac4 9a3d cd34 a639 b329 4fbc 97b4 49bd
000000d0: b39e b9bd 7a97 75bd 0742 c03d fadb 83bd
000000e0: c355 07bd 37b0 073d c774 a9bc ad7e 9abc
000000f0: 07b7 cbbd 40e4 48bd 9ac5 b8bb cf59 c73d
00000100: 0dc6 603d 326f 823d 7a5a b93c d87d c13d
00000110: ca91 11bd e75d 583c 6ac0 b6bd 4090 7b3d
00000120: 279b 1c3c 40a1 7dbc bb4d c6bd cd5f 47bc
00000130: b7eb 8b3d f5b2 a03d e55c b5bd 9a8a b7bb
00000140: 3d1b 36bd 40ca 1abc c549 943d 705b acbd
00000150: 33c7 0dba b364 903d 0a53 91bd 8216 a03d
00000160: 40f1 813c 332c 00bd c05e 213d 4d05 673d
00000170: cd6d 50bc 9aae abbb 8066 183c 0252 863d
00000180: 3568 963d b3c7 6bbd 4522 b6bd 9a6d 0aba
