notebooks/experiments/pendulum_scinet.pth (torch, 353020 bytes, 13 tensors)

encoder.layers.0.weight f4 [500, 50]
000000 ba fe ab bc f2 14 c6 bd 56 e3 cd bd ca 9a d2 3d
       -0.020995487 -0.09671964 -0.100531265 0.1028343
000010 78 4d f1 bd dc 8a 0a 3e 2a 68 c7 3d 82 8b 91 3c
       -0.11782354 0.13529533 0.097366646 0.017766718
000020 22 aa eb 3d b4 dd 1b bd 39 67 0d be 97 84 47 bc
       0.1150706 -0.03805323 -0.13808908 -0.012177608
000030 dc d4 c2 bd 41 19 59 3c 1a 40 1f bc f8 a1 b0 3d
       -0.09513256 0.01325065 -0.009719873 0.08624643
000040 0e 15 c0 bc c7 c7 aa 3d 67 b0 fd bc cd b6 0b 3e
       -0.02344754 0.08338886 -0.030967904 0.13643952
000050 1c df 97 3d 63 14 f3 3d d7 85 d6 3c 1f 1e 6e bd
       0.074156016 0.11869123 0.026186867 -0.058134194
000060 64 5a c9 bd db c7 8c bc e2 23 72 3c 29 c3 63 3d
       -0.09831694 -0.017185142 0.014779063 0.05560604
000070 fa a8 13 3d dc 0c ee bd 0c 75 0a be 87 ac 4c 3d
       0.03604982 -0.116235465 -0.13521212 0.049969222
000080 7c 49 06 be ec 2b 6b 3c d1 f6 83 3d 0b 90 dd 3c
       -0.1311397 0.0143537335 0.06443561 0.027046224
000090 a6 a2 dd 3d 68 89 51 bd 46 cb 08 be 3d 83 8d bc
       0.10822038 -0.05115643 -0.13358793 -0.017274493
0000a0 7c f0 a4 bd 4c 80 c0 bd 75 4b 17 bd 8e 81 32 3c
       -0.08053681 -0.09399471 -0.036937196 0.010895146
0000b0 88 f9 cc bd ac ca f3 3d 3a 42 85 3a e4 93 c4 3d
       -0.10008532 0.11903891 0.0010166832 0.095985204
0000c0 68 49 c5 3d 57 ef 54 3d b1 59 9f bd 57 5a 52 bd
       0.09633142 0.051986065 -0.07780779 -0.051355686
0000d0 9b 8c 3b 3d 76 2c 42 3d e7 71 c9 bd a7 1f da bd
       0.04578839 0.047405683 -0.09836178 -0.106505685
0000e0 b0 d9 d5 3d 39 86 3f bb 1b e5 77 bd d9 40 dc 3d
       0.10441911 -0.002922429 -0.060521226 0.10754556
0000f0 e6 94 01 be e3 f8 02 3e 7c 92 8d 3d 2f 62 f7 3a
       -0.12654456 0.12790255 0.06912705 0.0018873865
000100 f6 d7 3f bc ff f6 d3 bd 4a c9 e9 3d a3 48 8c 3d
       -0.011709204 -0.10349845 0.11415346 0.06849792
000110 30 a6 c4 bb 0b 1a b1 3d e9 be 83 bd 63 29 0d be
       -0.0060012564 0.086475454 -0.064328976 -0.13785319
000120 82 ae ed bc 3d 57 97 bd 4a 94 f9 3d e3 87 f0 3d
       -0.029013876 -0.07389686 0.12186487 0.11744668
000130 5c 83 05 be a8 30 ae bd 94 3e 39 bd 7c 9f 0c 3e
       -0.13038391 -0.08505374 -0.045225695 0.13732713
000140 42 94 72 bd e0 5a 36 3d 86 67 a0 3d c1 01 c9 3d
       -0.05922342 0.04452026 0.078322455 0.09814788
000150 e2 7d ed bd f4 a3 15 bd 57 ba 82 bd b6 91 3f 3d
       -0.11596276 -0.03653331 -0.06383198 0.04676982
000160 8f 95 d2 3d f6 b5 10 bd 65 0d 06 3d 23 ca b6 bc
       0.10282432 -0.03532978 0.032727618 -0.022313183
000170 fb 09 80 bd a0 ea 03 be 8b 5a 04 3e 6d 64 51 3d
       -0.062519036 -0.12882471 0.12925164 0.051121164
000180 3c f6 0e 3e 07 60 97 bd 99 92 a8 bd ef 6e 99 b9
       0.13961118 -0.07391363 -0.08231086 -0.00029265086
000190 cb 4e be 3d 3d ae 02 3e ae 75 6e bd c9 67 0f bc
       0.09292372 0.12761779 -0.058217697 -0.008752772
0001a0 00 fd bb 3d 95 ef bc bd c4 d4 e5 3d 4e e7 20 3d
       0.09179115 -0.09225384 0.112222224 0.03928309
0001b0 41 d8 56 bc 30 b1 92 bd 11 30 f9 bd 13 5f f2 bd
       -0.013113082 -0.07162702 -0.12167371 -0.1183454
0001c0 a4 d8 fa 3d 84 2f fd bd 69 dc c7 bd 7d 64 8e bd
       0.12248352 -0.123625785 -0.09758837 -0.0695276
0001d0 ec dc 1d 3c 17 cd bf bd 51 3f 55 bd b1 1c 6e 3d
       0.009635191 -0.0936529 -0.052062336 0.05813283
0001e0 50 7f 27 3c 28 5a 96 3c ef dc 02 bd 8b 5c 39 bd
       0.010223225 0.018353537 -0.03194898 -0.04525427
0001f0 69 68 e8 bd e4 e8 7e bd 8a ff 82 bd 58 69 d3 3d
       -0.1134804 -0.06223382 -0.063963965 0.10322827
000200 d4 67 0e 3e 57 ee 36 3c 89 58 0a 3e 5c 36 c4 3c
       0.13906795 0.011165223 0.13510336 0.023951702
000210 36 af 84 3d 09 4d bd 3d 3f 82 c5 bd 1c bb a1 3d
       0.06478731 0.09243209 -0.09643983 0.078970164
000220 7c 7d 01 3e b0 30 80 3d e4 c0 22 3d 7b 3a e2 bd
       0.12645525 0.062592864 0.039734736 -0.110463105
000230 cc 35 49 bd 6f 56 8c bd 36 45 9f bd 7f db 57 3d
       -0.04912357 -0.068524234 -0.07776873 0.052699562
000240 f3 42 5f bd 2b 2a 26 bd 84 1a 03 be 11 8d 82 bd
       -0.054507207 -0.04056756 -0.12803084 -0.063745625
000250 46 2b cf bb 86 9a f7 bd 83 a9 0b 3c c8 63 e6 3d
       -0.0063222973 -0.1209002 0.008524301 0.112495005
000260 6c 9c 82 3d 49 eb b4 bd 9e ea cf bb 57 8f 64 bd
       0.06377491 -0.088339396 -0.006345107 -0.055800762
000270 52 8c f2 3c 59 e7 a1 3d ad c1 30 3c 5a 03 4a 3d
       0.029607926 0.07905454 0.010788363 0.049319603
000280 9d eb 93 3d e9 8e 1f 3d cb b0 02 3d 34 ff 02 3e
       0.07222674 0.03895465 0.031906884 0.12792665
000290 89 c0 ba 3d ed 23 89 3c d6 53 cd 3d ff 07 fd bd
       0.091187544 0.016740764 0.10025756 -0.12355041
0002a0 9f 5c dc 3d 12 7b a6 3d d7 fd dd bd 89 fc f7 bd
       0.107598536 0.081289425 -0.10839432 -0.12108714
0002b0 77 b1 9b bd bb af a8 bd 1d 2a b4 bd 14 c0 95 3d
       -0.07602208 -0.08236643 -0.08797095 0.073120266
0002c0 20 d6 e7 bd a4 36 0f bc 55 ed a2 bc 80 bf 44 3c
       -0.11320138 -0.008741055 -0.01988856 0.012008548
0002d0 bb 19 ee 3d 1c 83 94 3d 64 6e 05 be db 6f 05 be
       0.116260014 0.0725157 -0.13030392 -0.1303095
0002e0 30 ec df bd c4 12 c3 bd 3a 82 f2 3d 76 e5 28 bc
       -0.10933721 -0.09525064 0.11841245 -0.010308614
0002f0 42 14 46 bd 76 72 00 be 77 62 b8 bd da 36 99 3d
       -0.048359163 -0.12543663 -0.09003156 0.07481165
000300 ca 90 8b bd 8f fa 88 3c 15 3a 93 bd a7 51 03 be
       -0.06814726 0.016721038 -0.07188813 -0.12824117
000310 35 db 09 3c e6 df 88 3c 57 45 e2 bd b4 21 ad 3c
       0.008414079 0.016708326 -0.11048382 0.021134235
000320 12 3d 13 3d 17 dc 88 bd f9 d1 53 3c 0d 2b 71 bd
       0.035946913 -0.06682604 0.012928479 -0.058878947
000330 10 fe 42 bc be 71 cb 3d 1d b4 46 3d 22 e7 3b 3c
       -0.0119013935 0.09933804 0.048511613 0.011468681
000340 1b a2 58 3d a2 48 06 bd e0 cd 37 3d 15 89 78 bd
       0.05288897 -0.03278411 0.044874072 -0.060677607
000350 7d ac 09 be c3 bd 22 3d 8a 4d 1b 3d 12 9c 00 3e
       -0.13444705 0.039731752 0.037915744 0.12559536
000360 f7 53 91 bd 95 82 c7 3d fd 05 f5 3d e9 8a 6e bd
       -0.07096093 0.097417034 0.11964033 -0.058237944
000370 d0 b6 d1 3d 8f 81 c6 bd 19 19 1e 3b db 17 22 3d
       0.10239947 -0.0969268 0.0024123846 0.03957353
000380 68 00 ce 3d d3 6e f7 bd a4 18 06 bd d1 3f ad 3d
       0.10058671 -0.12081685 -0.032738343 0.08459438
000390 32 d5 b3 bd d9 da 11 bd 1d 73 be 3d d3 b1 d2 3d
       -0.08780898 -0.0356091 0.092993 0.102878235
0003a0 c5 40 03 3e 82 f4 02 be 53 64 ab bd 3a d6 8c bd
       0.12817676 -0.12788585 -0.08368745 -0.06876798
0003b0 29 a9 61 bd 31 e9 c5 bb f9 23 4d 3a 9c 2a b1 3c
       -0.055092964 -0.0060397615 0.000782549 0.021626763
0003c0 5f e2 64 3d 3c 50 01 3e 1c 5a 68 bd be 56 dd bd
       0.055879947 0.12628263 -0.05672656 -0.108075604
0003d0 45 d5 b1 3c 84 1d 87 bd 73 64 d4 bd 61 6a ea 3d
       0.02170814 -0.065974265 -0.10370722 0.114460714
0003e0 c0 73 1a bd ea 37 b7 bd cd 68 d0 bc 44 bb 06 3e
       -0.037708044 -0.08946212 -0.025440598 0.13157374
0003f0 46 fc 08 3e 84 65 b6 3d d5 61 b1 bd 65 ba 0b 3e
       0.13377485 0.08906081 -0.08661238 0.13645323

encoder.layers.0.bias f4 [500]
000000 cf 9f d6 bd 8d 04 0c bd 41 7b 04 be bd 8d 58 3b
       -0.104797 -0.034184027 -0.12937643 0.0033043467
000010 ca 3a 03 3e fa 24 9e 39 15 94 51 bd 6c f1 06 3d
       0.12815395 0.00030163658 -0.051166613 0.03294508
000020 f0 08 e0 bc 4c b9 ce bd 11 8f 61 bd 74 28 3a bb
       -0.027348012 -0.10093936 -0.05506808 -0.002840546
000030 04 cc c4 bd a1 e3 f5 bd 44 e3 a1 3d 1d 54 08 3e
       -0.096092254 -0.120063074 0.079046756 0.13313337
000040 58 91 09 3e 3e 7c 0c be 32 dd 91 bd 88 84 e3 bd
       0.1343435 -0.1371927 -0.07122268 -0.11109263
000050 3e 8e 97 bc 6a db 67 3d 3b d9 1b 3d 71 e4 ca bd
       -0.018500444 0.056605734 0.038048964 -0.09906853
000060 e3 99 95 3d 91 ea 16 bd b9 d2 b4 3d 21 1b de 3d
       0.07304742 -0.036844794 0.08829255 0.10845018
000070 68 56 f3 bd ef 97 3d bd 30 be e0 bd 65 e1 b4 3d
       -0.11881715 -0.046287473 -0.109737754 0.08832053
000080 42 f8 00 3e 00 fc 07 bb 5e ed b8 3d 71 60 a2 bc
       0.12594703 -0.002074957 0.09029649 -0.019821377
000090 7d 19 65 3d e2 bb 6a bd d3 8f 6e 3d d9 ee 0a 3e
       0.05593251 -0.057308085 0.05824263 0.13567676
0000a0 0b 82 bd 3d f8 f0 07 bb 84 63 f1 3d b0 e6 00 be
       0.09253319 -0.0020742994 0.11786559 -0.12588
0000b0 f8 95 7a 3d f4 3d aa 3d 27 43 f4 bd 63 b2 aa bd
       0.061178178 0.08312598 -0.11926871 -0.08334806
0000c0 95 f0 e8 bb 88 de 28 bd 48 c2 ea 3d d3 f2 f5 bd
       -0.0071087577 -0.041227847 0.114628375 -0.12009206
0000d0 ae c2 d1 bc 1d f8 ee bd 3e 80 ae 3d aa 2f d4 bc
       -0.025605526 -0.116684176 0.08520554 -0.025901634
0000e0 88 e4 4a bd a3 92 01 3e fe 79 70 bc 3d a9 cb 3d
       -0.04953435 0.12653594 -0.014677523 0.09944389
0000f0 44 a3 04 be 4c 8b 91 bb 23 40 09 3c a8 fc 85 bd
       -0.12952906 -0.0044416543 0.008377108 -0.06542331
000100 9f a0 6a bd cf 7c 47 bc bb 07 3e 3d 42 ee b0 bc
       -0.057282086 -0.012175753 0.04639409 -0.021597985
000110 e7 aa 69 3c be fe dc 3d f2 7c 8e bd fb 90 31 3d
       0.014261938 0.10790776 -0.06957425 0.043351155
000120 f8 71 0c be 43 dc 01 be 85 ed b3 bd 75 2b 0a be
       -0.1371535 -0.1268168 -0.08785538 -0.1349314
000130 62 30 02 bd 8d 24 9f bd d8 c3 36 bb e4 25 4e 3d
       -0.031784423 -0.077706434 -0.0027887728 0.050329104
000140 4c 3e cf 3c 57 46 da 3d 5b 83 e1 3d 8b 4b 71 3d
       0.02529826 0.106579475 0.11011382 0.058909934
000150 0e 90 b8 bd d9 c1 9e 3d 66 66 ee 3d eb e7 c9 3c
       -0.09011851 0.07751817 0.11640625 0.02464672
000160 ee 4e 44 3c f7 07 ef bd 27 ec e8 3d dc 8b 0e be
       0.011981709 -0.11671441 0.113731675 -0.1392054
000170 50 73 0c 3e b3 13 da 3d 82 8a 07 be 5d 62 f2 3d
       0.13715863 0.106482886 -0.1323643 0.118351676
000180 c0 14 de bd 1d a1 b9 bc 58 79 d2 3d 89 c4 c9 bd
       -0.108438015 -0.022659833 0.10277051 -0.09851939
000190 17 e4 bf bc 22 aa 0b 3e 1c d4 fd bd 92 ec 6f bd
       -0.023424191 0.1363912 -0.12393972 -0.05857522
0001a0 77 a2 52 3d b6 26 a8 bd b5 50 db bb 4e 95 ba 3d
       0.05142447 -0.082105085 -0.0066929706 0.09110509
0001b0 d3 53 0b be 49 d8 fc bd e2 36 08 bd 97 89 a8 bd
       -0.13606195 -0.123459406 -0.033255465 -0.08229368
0001c0 39 ee 8d bd 4a 5a 19 3b da 80 c6 bd b8 8a 04 3e
       -0.06930203 0.0023399764 -0.09692545 0.12943542
0001d0 4a c4 fd 3d ae 93 5a bd 1b d8 e8 3d 73 24 e7 bd
       0.12390955 -0.053363495 0.11369344 -0.11286249
0001e0 c8 f7 89 bd f8 8a 49 3d 68 08 0a 3e 71 7b e3 bd
       -0.06736714 0.049204797 0.13479769 -0.11107529
0001f0 47 d1 24 3d 75 06 49 bc ab a8 a7 3d bf 31 16 3d
       0.040238645 -0.012269606 0.08186468 0.036668535
000200 fe 31 d8 bd a8 76 54 3b 1e 6f 11 3d 03 81 39 bb
       -0.1055641 0.0032419357 0.03550636 -0.0028305657
000210 96 f3 08 be 6d 81 05 3e 12 9d a7 bd 0f 7a 4a 3d
       -0.1337417 0.13037653 -0.08184256 0.04943281
000220 42 80 d3 bd dc 52 dd 3d 3d 94 10 be 30 42 b7 3d
       -0.103271976 0.1080682 -0.14119048 0.08948171
000230 83 d6 2d bd e2 26 0c be d3 61 a6 3d a7 96 0f be
       -0.042440902 -0.13686708 0.08124127 -0.14022313
000240 25 28 98 bc 12 5d f0 3c f4 9c d7 bd 98 68 76 3d
       -0.01857383 0.029341254 -0.10527983 0.060158342
000250 5c 7d fb 3d bf 2c a9 3d 6f ff fa 3c a7 9e b2 bd
       0.1227977 0.08260488 0.030639378 -0.08721667
000260 78 e8 1b bd 89 84 2f bc c4 af dc 3d 1c f8 8b bc
       -0.038063496 -0.010712751 0.10775712 -0.017086081
000270 e3 92 33 3d 1d 35 d6 bd 4c d2 0c be b8 f8 aa bd
       0.043841254 -0.10459349 -0.13752097 -0.083482206
000280 5a be b0 bb 93 14 cf bd 3a fd 7f 3d d7 ae 7c bc
       -0.0053937854 -0.10111346 0.062497355 -0.015422544
000290 1b f7 8e bc d4 0e 3b 3c 2b 7d 4c bd 20 78 92 bd
       -0.017451813 0.0114171095 -0.049924057 -0.07151818
0002a0 d4 be 01 3e 37 58 eb 3d 80 a2 0d be 4c e6 62 bd
       0.12670451 0.11491435 -0.1383152 -0.05539541
0002b0 f6 57 af bd 8f d0 05 be e7 8a a3 3d 01 ae c0 3d
       -0.08561699 -0.1306784 0.07985478 0.094081886
0002c0 13 3a 56 3d 77 97 aa 3d 04 d3 5c 3d d9 a3 0a bd
       0.052301478 0.08329671 0.053912178 -0.033847664
0002d0 dc bc d8 3d 71 8f bb bd 34 47 bd bd 50 18 e5 3d
       0.10582897 -0.09158219 -0.092420965 0.11186278
0002e0 6b aa 54 3d 65 ca 0b 3b 79 2a 8c 3d 92 2e 6f 3d
       0.051920336 0.0021330353 0.068440385 0.058394022
0002f0 be d8 88 bd e9 97 10 be 3b 03 b5 bd 53 b2 57 3c
       -0.06681965 -0.14120449 -0.08838507 0.013165074
000300 fa ef cb bd de 36 74 3d d5 d3 ae 3d 7e 0e 10 3e
       -0.09957881 0.059622638 0.085364975 0.14068028
000310 ae 72 f5 bd 9e fb ed bc e5 48 c3 bd 53 39 92 3d
       -0.11984764 -0.029050644 -0.09535388 0.0713984
000320 59 50 00 bd 6b ae a0 bc a5 a6 a4 3d f9 08 55 bd
       -0.031326625 -0.019614419 0.080395974 -0.05201051
000330 71 e3 5a 3d 91 2a db bd c6 b6 e8 3c 2e b8 51 3d
       0.05343956 -0.10701478 0.028407466 0.051201038
000340 21 9e 88 3d 27 1b a5 3d 22 63 06 bd 0c ff 93 3d
       0.06670786 0.080618195 -0.032809384 0.07226381
000350 6f 91 0f bc 10 91 79 bd d6 0b 0c bd 0a e6 0f bd
       -0.008762701 -0.060929358 -0.034190975 -0.03513149
000360 25 d1 af 3d 52 f7 d6 3d c2 f8 5c 3d 56 7c 22 3c
       0.08584813 0.10496391 0.05394817 0.009917339
000370 11 9b 84 bb c2 ea ee bd 9d c5 5e bd 84 1f f4 bd
       -0.0040468057 -0.1166587 -0.054387677 -0.11920074
000380 09 21 91 bd 0a 41 b2 3d 88 4d 51 3d 6b 61 a6 3d
       -0.07086379 0.087038115 0.05109933 0.0812405
000390 7f c6 f8 bc d3 db ca 3d 1c f5 01 be d9 67 0c be
       -0.030368088 0.099052094 -0.12691158 -0.1371149
0003a0 75 93 b0 3d 50 e2 bf bd 11 9a f1 3b 9d 16 eb bd
       0.08621875 -0.093693376 0.0073731025 -0.114789225
0003b0 33 6d 10 3b 94 cb 9f 3d 11 23 0a bd e2 2c 37 3d
       0.0022037744 0.07802501 -0.03372485 0.044720538
0003c0 ab 16 01 be 05 96 0e bd 91 f8 07 3e e2 9e 89 bd
       -0.12606303 -0.03481104 0.13278414 -0.067197576
0003d0 c4 53 19 3d d8 8a 9e 3d 8c 82 fd bd 22 70 c9 3d
       0.0374334 0.07741326 -0.123784155 0.09835841
0003e0 0a 75 86 3d 29 a6 08 3e 24 e1 d1 3d 46 75 70 bd
       0.06565292 0.13344635 0.1024802 -0.05870559
0003f0 a9 3a be 3d 52 f3 47 bd e3 a9 33 bd 67 50 e0 3d
       0.09288532 -0.048816033 -0.04386319 0.109528355

encoder.layers.1.weight f4 [100, 500]
000000 cb 92 2e 3c 0a e9 87 bb 1b ed 24 bd 64 50 a3 39
       0.010655115 -0.0041476535 -0.040265184 0.00031149678
000010 c9 be 29 3c d9 37 d9 3c ac 72 c0 bc 76 8a 56 3c
       0.010360428 0.026515888 -0.02349218 0.013094535
000020 d7 e2 89 3b 46 e6 1d 3d 6b fc fb bb e3 88 24 3d
       0.0042079496 0.038549684 -0.0076900027 0.040169608
000030 53 24 4b 3b ab 20 dd 3c 05 77 a9 bc 21 d6 b5 bc
       0.0030996993 0.026993116 -0.020686636 -0.022196831
000040 68 0e 17 3c 61 33 03 bd 73 1b 22 bd f6 21 36 bd
       0.009219743 -0.03203142 -0.03957696 -0.04446598
000050 c8 dd 18 3d 0b b2 30 bd 8a 6a 33 3c e0 31 b0 3c
       0.037320882 -0.043138545 0.010950694 0.021508157
000060 6d 10 18 3b c3 dc ff bc ac 00 34 3d 24 72 16 bd
       0.002320315 -0.031233197 0.043945953 -0.036729947
000070 b4 5c 4f 3c 89 f3 d8 3c f9 2b 36 bb ac 9e 71 3c
       0.0126563795 0.026483314 -0.0027797206 0.014747303
000080 a8 08 80 3c 12 74 5e 3c 21 16 ee 3c a6 3a b4 3c
       0.015629128 0.013577478 0.029063286 0.022000622
000090 bc bd 38 3b d6 c3 bc 3c bd 08 49 bc f0 fa 97 3c
       0.0028189262 0.0230426 -0.01227015 0.018552274
0000a0 95 28 8d 3c cd e3 42 3c c8 17 24 bd cb ed 4b 3c
       0.017231265 0.011895132 -0.040061742 0.012446831
0000b0 2f f2 25 3d 49 73 88 bc 3b f9 96 bb 53 bb a2 bc
       0.040514167 -0.016656535 -0.0046073473 -0.019864714
0000c0 ca c8 83 bc 71 bf f7 bc a0 c3 06 bc 1b 46 1a bc
       -0.016086955 -0.030242654 -0.008225352 -0.0094161285
0000d0 0d 6e 09 bd 23 a4 6f bc 0f 0a db bc f7 5c 92 bc
       -0.03355222 -0.014626536 -0.026738195 -0.017866595
0000e0 98 3a d7 3b 83 cc 24 3d a2 01 b0 3c 85 09 cc bb
       0.006568264 0.0402341 0.021485154 -0.0062267208
0000f0 0f c4 9b bc 8f a8 33 3d b6 12 6a bc ba 80 b1 3c
       -0.019014386 0.043861922 -0.014286688 0.021667827
000100 f3 60 e8 3c fd 92 31 bd d7 30 35 3c 0e 34 18 bd
       0.028366541 -0.04335307 0.011059008 -0.03715902
000110 e3 07 f3 3c 65 e2 ca bc a7 40 ea bc 52 b4 d3 bc
       0.029666847 -0.024766156 -0.028595282 -0.02584282
000120 45 0e 77 3c b0 ac 9f bc 8a 04 e6 3c 7e bf 0d bc
       0.015079086 -0.019491524 0.028078336 -0.008651612
000130 c6 59 ff bc dc d1 24 3d 89 fe 17 bb 64 6c 66 bc
       -0.031170737 0.0402392 -0.0023192486 -0.014063928
000140 70 f9 2f bc 71 59 87 bc 9f 67 f7 bc b1 a6 e2 bc
       -0.010740623 -0.016522141 -0.030200778 -0.027667375
000150 01 2c 1a 3d 17 0b bf 3c 09 96 18 3d 00 70 27 bd
       0.03763962 0.023320718 0.03725246 -0.040878296
000160 09 c8 db bc d9 81 80 bc 08 64 e9 3c 61 d1 29 3d
       -0.026828783 -0.015686916 0.028490081 0.041459445
000170 7b db ef bc 90 15 db bc 36 11 f9 bb 5e 97 f9 3c
       -0.029279461 -0.02674368 -0.0076009287 0.030467685
000180 1a 5d 2f bd f5 d8 12 3b 1c 3b 14 bd 6c e3 80 3a
       -0.042813398 0.0022407148 -0.036189184 0.0009833402
000190 15 0c 21 3d 10 da a1 bc 87 38 24 bd 8d d0 dc bc
       0.039318163 -0.0197573 -0.04009297 -0.026954914
0001a0 25 f0 ac bc 61 2d ba bc d2 88 1b 3d cf f4 32 3c
       -0.021110604 -0.022726716 0.03797228 0.010922625
0001b0 2a da 8f 3c df 42 df 3c 0d 64 c5 3b e4 d7 f5 3c
       0.017560083 0.027253566 0.00602389 0.030010171
0001c0 4e 74 00 3d 4b 62 2b bd 20 2b 15 bc 25 94 2a bd
       0.031360917 -0.041841786 -0.00910452 -0.041645188
0001d0 7a e5 89 3c 9a 71 63 bc ba 8a 19 3d 30 34 07 3d
       0.016833056 -0.013882065 0.037485816 0.033008754
0001e0 60 dd 0e 3c 36 81 12 bc 31 4b 04 3d 41 1a 6e 3c
       0.008719772 -0.008941939 0.03229827 0.014532627
0001f0 0e 61 16 3d 74 ac bd 3c 8d 14 68 3c aa ef 22 bd
       0.036713652 0.023153521 0.014165056 -0.039779343
000200 0c d4 2d bd 5e e7 53 3c 41 3a 88 bc 33 a2 a8 bb
       -0.04243855 0.01293358 -0.01662934 -0.005146289
000210 b4 fa 5b 3c 8d fe 64 3b d3 0f dc 3c b9 04 d9 bb
       0.0134264715 0.0034941763 0.026863014 -0.0066228774
000220 7a 30 24 3d f8 21 dc 3c 15 cc 27 3d 57 65 5f bc
       0.040085293 0.026871666 0.040966112 -0.013635001
000230 dd 79 25 bd f1 25 ea bc 6a 02 01 bc aa dc 60 3c
       -0.04039942 -0.028582545 -0.007874111 0.013724485
000240 33 65 18 bd d0 23 32 bd c6 30 88 3c 25 00 17 bd
       -0.037205886 -0.043491185 0.01662482 -0.036865372
000250 35 e1 eb 3c 71 0e c0 bb f4 4f 2c bd b6 4d 06 bd
       0.02879391 -0.0058610965 -0.042068437 -0.032788955
000260 8a 11 13 bd a2 4a 17 3d d4 58 dd bc 2f 90 aa 3c
       -0.0359054 0.03693641 -0.027019896 0.020820705
000270 ef 27 0a bd 5b 72 26 3d 95 3a 9f 3b b4 7b c1 3c
       -0.03372949 0.0406364 0.0048592784 0.023618557
000280 a5 74 2a 3d 73 7b 1b 3d 3e af eb bb 96 c9 e8 bb
       0.041615147 0.037959527 -0.0071925214 -0.007104109
000290 3e 1f 20 bd 5c 1a 67 bc 4e 10 b2 3c 4e 4b 73 3c
       -0.039092295 -0.014105406 0.02173629 0.014849497
0002a0 3a bd 1a bd 53 38 31 bd c8 1a ff bc 72 7e 67 bc
       -0.037778117 -0.043266606 -0.0311407 -0.014129268
0002b0 7d 86 6c 3c 3c bd 9f bc 3c 19 bf 3c ce de 91 bc
       0.014436361 -0.019499414 0.023327462 -0.017806437
0002c0 38 fd e1 bc 84 1c 9a 3c 87 f3 9f 3c 0c ca 49 3c
       -0.027586564 0.018812425 0.019525303 0.012316238
0002d0 e5 7c 81 bc 51 06 d4 3b bb 78 c4 3c 61 5e 2b bd
       -0.015806625 0.0064704795 0.02398335 -0.041838054
0002e0 88 00 6a bb 12 11 22 3d 27 fe 30 3d 74 bd 10 3d
       -0.0035705883 0.03956706 0.04321113 0.035336927
0002f0 99 a5 db 3a e9 1b 74 3c 2e fd b3 bc d9 55 0e bd
       0.0016757726 0.014899232 -0.021971311 -0.03474984
000300 a2 2d 2e bc df 87 ed 3c d8 86 bd 3c c8 5e 05 bd
       -0.010630997 0.028995452 0.023135588 -0.032561094
000310 de 9d 95 3c 95 6b 0f bd 5e 30 24 3d f3 19 0b bd
       0.018263754 -0.035014708 0.04008519 -0.033960294
000320 2e 37 a9 3c a9 65 e0 ba 87 76 02 3d 8c 70 db 3c
       0.020656195 -0.0017120141 0.031851318 0.026787065
000330 f9 1d 11 bd 95 1c 1d 3c 9e 46 ca bc 68 65 71 3b
       -0.035428975 0.009589334 -0.024691876 0.0036834124
000340 02 74 86 3c 93 2a aa 3c 55 bb 0e 3d 42 47 4f bc
       0.016412739 0.020772254 0.034846622 -0.0126512665
000350 2f 55 60 bc 15 0f 08 3d c4 30 17 3d e9 72 9c 3c
       -0.013692184 0.03321751 0.03691174 0.019097762
000360 f0 ec a6 bc f0 64 25 bd 08 10 0a 3c ca b7 90 bc
       -0.020376652 -0.040379465 0.008426674 -0.017665762
000370 3f 7a 33 3d fc c5 17 3d 47 66 32 3d 80 89 d6 bb
       0.043817755 0.037054047 0.04355457 -0.006547153
000380 aa 58 a3 3b 9f cd 35 3d bf 10 99 bc 83 43 32 3d
       0.004984935 0.04438555 -0.018684743 0.043521415
000390 f4 ad 3c bc 0d ea 41 bb 35 4e 98 3c ef 49 0e bd
       -0.011516083 -0.0029588968 0.01859198 -0.034738477
0003a0 04 44 ba 3b d1 ea 07 bd d0 32 e9 3c 30 4d e9 bc
       0.0056843776 -0.033182923 0.028466612 -0.028479189
0003b0 1b 45 89 bb cd ba 20 3d 54 69 42 3c 02 7c 04 bd
       -0.004189146 0.039240647 0.0118659325 -0.032344826
0003c0 85 61 44 3c bb 54 f3 3c dd 02 d9 3c 0b 61 28 bc
       0.011986141 0.029703489 0.026490623 -0.010277043
0003d0 09 1c 76 3c cd 6d b6 3b 26 45 5d bc ba d4 1f bd
       0.015021333 0.0055672885 -0.013505256 -0.03902123
0003e0 0c 5d 62 bc 49 50 e6 ba 32 ec ef bc 28 c5 b5 3b
       -0.013816129 -0.0017571534 -0.029287431 0.0055471845
0003f0 4b e3 96 bc a8 4d 04 bc 23 c2 d9 3c 7e fe 18 3d
       -0.018418929 -0.008075155 0.02658183 0.037352078

encoder.layers.1.bias f4 [100]
000000 74 71 c3 3b f0 c3 d0 bc 12 e8 f5 bc 2c f6 26 39
       0.0059644524 -0.025484055 -0.030017886 0.000159227
000010 45 67 a2 bc 35 24 35 bb 04 8b 2c 3d 3d c7 1a bd
       -0.019824633 -0.002763999 0.042124763 -0.037787665
000020 d5 4c 98 bc 26 dc e1 bc bd 6e 0a bd a5 50 bc bc
       -0.018591324 -0.027570795 -0.033797015 -0.022987673
000030 7c 66 88 bc e7 a0 1f 3c 07 b1 11 3d bc 53 2a 3d
       -0.01665043 0.009742952 0.035569217 0.04158376
000040 aa ee a5 3c 82 9e be 3c b3 5a a9 3c ff 62 b2 3b
       0.020255405 0.023268942 0.020673132 0.00544393
000050 4b 1b 03 3c 7f 50 04 bb 09 bd c8 3c f4 9d 28 3c
       0.008002113 -0.002018958 0.024504201 0.010291565
000060 6b a6 5a bc 27 4a 08 3c b9 48 ba 3c f2 c7 de 3c
       -0.013345341 0.008318461 0.022739755 0.02719495
000070 46 7f 96 3b 1f 8e 4c bb c8 b3 4d bc 6e 0b 16 3d
       0.004592809 -0.003121264 -0.01255507 0.036631994
000080 92 f8 28 3d 08 4e d3 bc bd 96 cc 3c 3c 9a a1 3c
       0.04125268 -0.025794044 0.024974221 0.019726865
000090 24 7a 33 bd 5d 85 11 bd 7c cb 0f bd 0d 2b f3 3c
       -0.043817654 -0.035527576 -0.035106167 0.029683614
0000a0 49 af bf bc 65 23 b7 bc 72 6e 30 3d 0c e1 75 bb
       -0.023399012 -0.022355745 0.04307408 -0.0037518172
0000b0 ce 1c f6 3c cf 2d 8b 3c dc bf 26 bc 72 e4 e9 3c
       0.030043032 0.016989617 -0.010177579 0.028551314
0000c0 8a 74 19 bd 10 79 d9 bc b1 0b a2 bc 12 21 b6 3c
       -0.037464656 -0.026546985 -0.019780966 0.022232566
0000d0 fa 5b 1f bd 79 f3 26 bd 90 b2 0f bd f3 57 14 ba
       -0.038906075 -0.040759537 -0.0350824 -0.00056588574
0000e0 d3 e3 0c 3d f7 88 34 3d 2e a5 a1 3c b4 9d 24 bd
       0.034396958 0.044075932 0.019732084 -0.04018946
0000f0 84 21 90 bc 33 1a 05 bd 5c bf 55 bc ed 95 ba bc
       -0.017594106 -0.03249569 -0.013046112 -0.022776568
000100 b9 1b 10 bc 2e 1c 05 bc 38 6e 91 3b aa 34 2a 3d
       -0.008795672 -0.008124394 0.004438188 0.04155413
000110 e5 03 53 bc bd fb 01 bd 3f 32 a4 3c 3d a8 43 bc
       -0.0128793465 -0.031734217 0.02004349 -0.011941967
000120 0f f2 b2 3a 4c 0a 36 bd 22 58 04 bd b5 4a 2c 3d
       0.0013652461 -0.044443414 -0.032310612 0.042063434
000130 6a bc 07 bd a2 49 84 bc 97 8d b2 bc 62 27 14 bc
       -0.03313867 -0.016148392 -0.02179603 -0.009042593
000140 93 6c 83 bc b8 70 11 bd ec 54 31 3b e8 6f 1c 3d
       -0.016042983 -0.035507888 0.0027058674 0.03819266
000150 af 2c 30 3d 14 59 12 3d 56 62 f6 bc fd 12 a0 bb
       0.043011364 0.035729483 -0.030076187 -0.004885076
000160 6a 8d a9 3c 57 c3 84 3b c4 59 e9 3b b4 e2 e3 bc
       0.020697314 0.0040516066 0.0071212966 -0.027818061
000170 85 8c ed 3c a8 ee 0c bd bc 13 e8 3c 8e 0e 0d 3c
       0.028997669 -0.034407288 0.028329723 0.008609427
000180 50 e4 60 bb c7 50 7b bc 13 e6 0f 3d 3f e9 2f bd
       -0.0034315772 -0.015339083 0.035131525 -0.04294705

encoder.mean_layer.weight f4 [3, 100]
000000 2d 8c 7d bd 67 cc f3 ba da de 8b 3d 22 fc c1 3d
       -0.06190126 -0.0018600345 0.06829615 0.09471919
000010 9a ff 24 bb 55 57 af bd 33 94 8e 3b 1a 77 cb bb
       -0.0025176764 -0.08561579 0.004351163 -0.0062092664
000020 ca e9 99 bd 6a 93 7d 3d 00 10 b9 bb 73 a4 05 3c
       -0.07515295 0.061908163 -0.0056476593 0.0081568835
000030 7a ef 3f 3d 0d f1 21 bd d3 00 e1 bc 53 24 93 3d
       0.046859242 -0.039536525 -0.027466213 0.07184663
000040 07 35 9c 3d b2 05 cc bd a0 b5 ac 3c 9a 88 a0 bb
       0.07627302 -0.09962024 0.0210827 -0.0048990967
000050 8d 6a 5b bd 1a ce 9d 3b ed 80 d9 bc 48 50 88 3d
       -0.05356841 0.004815829 -0.026550734 0.066559374
000060 ad aa 2c 3d ab b5 b4 bd fa d8 c0 3c 4f 28 a7 bd
       0.042154957 -0.08823713 0.023540962 -0.08161985
000070 53 8c 8e 3c 40 ef 63 bc 8a 42 62 bd 43 3a 56 3d
       0.017400896 -0.013912022 -0.055239238 0.052301656
000080 aa fd 3a 3d 2a 2e c3 bd 0d 4c 4e 3c 97 c8 75 bd
       0.04565207 -0.095302895 0.012591374 -0.06000575
000090 37 cc 92 bd e7 b6 28 bc 67 f6 9a 3a e5 f3 9e 3d
       -0.07167857 -0.010297514 0.0011822701 0.07761363
0000a0 6d 41 0c bd 3b 4b 9e 3d c8 bc 91 bd ad 56 e7 bc
       -0.034242082 0.07729193 -0.07116085 -0.028239572
0000b0 40 af 91 3d 93 f7 64 3d ef cc a6 bd b3 8f 6f bd
       0.071135044 0.055900168 -0.08144557 -0.05848665
0000c0 23 d5 1c 3d 67 64 16 3c b3 60 1a bc cd 96 b0 3b
       0.0382892 0.009179211 -0.009422469 0.0053890706
0000d0 da 32 7a 3c ca b8 02 3d e0 46 34 3d 2b 8f c2 bd
       0.015270913 0.03191451 0.044012904 -0.094999634
0000e0 da 88 58 bc ea 51 ba 3d 20 2e 10 bd 6d 8f fb 3c
       -0.013216222 0.09097655 -0.03520024 0.03070804
0000f0 3a 4e bd 3d 43 35 53 bd a3 98 12 bd 9a f4 39 bb
       0.09243436 -0.051564466 -0.035790097 -0.0028374554
000100 fa e8 72 3d 05 f5 c8 bd 73 b5 a2 bc 75 93 c0 bd
       0.059304215 -0.09812359 -0.019861912 -0.09403125
000110 db 3d b6 bd 00 f0 c3 39 ed 2c 6e bd 53 b6 90 3d
       -0.08898517 0.00037372112 -0.058148313 0.070660256
000120 80 2a da bc 67 34 dd 3b d7 ec 91 3d 3f 0f b5 bd
       -0.026631594 0.0067506316 0.07125252 -0.088407986
000130 fb 76 9f bd 00 ac df bb 6d bb cd bc 05 35 cb bd
       -0.077863656 -0.006825924 -0.025113786 -0.09922222
000140 07 1d c8 3c ed 4f 21 bd a7 6b 33 3d 20 bf 89 bd
       0.024427904 -0.039382864 0.043803837 -0.06725907
000150 67 d9 c8 3c 17 16 09 bd 53 f4 ae bd 93 30 d6 bc
       0.024517728 -0.033468332 -0.08542695 -0.026146209
000160 d8 46 c4 bd cb 6f ba bd 3a b7 a7 3d c0 2b 6c 3d
       -0.09583825 -0.09103354 0.081892446 0.05765891
000170 67 6e 5e ba 27 92 5b 3c 67 72 46 3a 1f 7f c2 3d
       -0.0008485079 0.013401545 0.0007570148 0.09496903
000180 67 56 4f 3b d7 25 6e 3d 7d c5 8f bd eb fd b4 bd
       0.0031637193 0.058141556 -0.0702009 -0.088374935
000190 a7 15 0d 3d 00 2c b7 3b f3 3b 63 bc 8d 60 84 3c
       0.034444477 0.005589962 -0.0138692735 0.01615932
0001a0 8d a9 b1 3c 07 6c dd 3c 1a b1 3e 3d 77 90 79 3d
       0.021687293 0.02702905 0.046555616 0.060928788
0001b0 a8 01 89 bd 50 2f 64 bd 07 b9 74 bd 7f 57 88 bd
       -0.06689769 -0.055709183 -0.05974677 -0.066573136
0001c0 ed c1 80 bc e0 03 f5 3c 73 5a 1e bd 00 7e f7 3b
       -0.015717471 0.029909074 -0.038660478 0.007552862
0001d0 12 6c aa bd 00 ca fc bc 92 69 8c bd 9b ec b3 3d
       -0.08321394 -0.03085804 -0.068560734 0.08785363
0001e0 67 a6 f7 3b 4d ea 1d bc dd 5d 1f 3d 93 69 de bc
       0.0075576785 -0.009638381 0.038907874 -0.027149951
0001f0 3d 6a a0 3d b5 60 bf 3d 77 b0 8d bd ea e8 2c bd
       0.07832763 0.09344617 -0.069184236 -0.04221431
000200 cd e1 f3 3b 2d dc bc bd ab 24 89 bd c7 a5 93 3d
       0.007442689 -0.09221683 -0.06696447 0.07209354
000210 8d 20 0f 3d 15 06 86 bd 9a ac f2 3c 33 ca 1a 3b
       0.034943152 -0.06544129 0.029623318 0.0023619055
000220 cd 88 8a bc 18 7a 9e bd 77 cb 18 bd c7 40 ab bd
       -0.016910935 -0.07738131 -0.037303414 -0.08361965
000230 6a ea 76 bd 17 57 49 bd 8d 33 65 3c 07 04 98 3d
       -0.06028215 -0.04915532 0.013989341 0.07422643
000240 6a c2 ab bd 27 23 27 bd a7 88 3f bd 93 dd b6 3c
       -0.08386691 -0.04080501 -0.04676118 0.022322452
000250 87 27 a8 bd 7d c7 60 bd 53 6b df 3c 67 45 fc 3b
       -0.08210664 -0.054877747 0.027272856 0.007698703
000260 7f b3 9e bd 3f 51 89 bd e8 a7 a0 bd 0d d4 45 3c
       -0.0774908 -0.067049496 -0.078445256 0.012074483
000270 3d 11 80 3d 9f 5e bb bd 23 a4 43 bd d7 be 69 3d
       0.06253288 -0.09148907 -0.047763955 0.057066765
000280 dd 54 71 3d bb d3 8a bd 70 8a 23 3d 58 a7 bf 3d
       0.058918823 -0.06778666 0.039926946 0.0935809
000290 b0 aa 7d bd 70 dc 20 3d 8a 2f 46 3d da ca 83 3d
       -0.06193036 0.039272726 0.04838518 0.06435175
0002a0 aa 61 6a bd d8 4f 86 3d 3d f2 85 bd 98 cb b8 bd
       -0.057222046 0.06558198 -0.06540344 -0.090232074
0002b0 b3 79 94 bd 93 ad 2a 3d 6f 14 ab 3d 23 45 c7 bd
       -0.07249775 0.04166944 0.08353507 -0.09729984
0002c0 f3 a7 f3 3c 27 52 ef 3c 62 87 85 bd 75 ba b2 3d
       0.02974317 0.029213978 -0.06519963 0.0872697
0002d0 a7 30 09 bd b5 00 b5 bd 13 73 7d 3d 40 68 29 3c
       -0.033493664 -0.088380255 0.06187732 0.010339797
0002e0 98 15 9d 3d 10 4f af bd 3d fa ae 3d 33 a9 00 3b
       0.07670134 -0.08560002 0.08543823 0.00196321
0002f0 57 44 9d bd 97 b0 98 bd 57 71 5e bd cd 4b cc 3b
       -0.076790504 -0.07455557 -0.054307308 0.006234622
000300 9a 6f a2 bd 58 59 a5 3d c5 fe a2 3d 47 5a a9 3c
       -0.079314426 0.080736816 0.0795875 0.02067293
000310 ba d9 f0 bc 6d 26 8a 3d 00 15 5d bc 1a db be bb
       -0.029400695 0.067456104 -0.013493776 -0.005824459
000320 ea cb 70 bd 0a 11 a4 3d 2d 67 eb bc 1a a3 82 3d
       -0.058788218 0.080110624 -0.028735721 0.063787654
000330 da 51 c7 bd 33 42 12 3c 00 2f 2b bd 58 db 89 bd
       -0.09732409 0.008926916 -0.04179287 -0.067312896
000340 ab c8 b3 3d ba 63 c0 bc da 95 3b bd 52 4a ab bd
       0.08778509 -0.023485053 -0.045797206 -0.08363785
000350 17 21 78 3d ca 27 43 bd b8 42 cb bd 20 11 66 bd
       0.060578432 -0.047645368 -0.09924835 -0.056168675
000360 f3 8a a6 3c c0 a3 75 3c 87 e7 6d 3d 23 56 cb 3d
       0.020329928 0.014992654 0.05808213 0.09928539
000370 da e2 96 3d 00 db 29 bd 53 2a 4b 3d 67 a6 20 3c
       0.07367487 -0.04146862 0.04960091 0.009805298
000380 cd 41 6c bc b3 0f 4f bd c5 65 8f 3d 9d 75 c5 bd
       -0.014419985 -0.05055208 0.07001833 -0.096415736
000390 fa 05 ca 3d c2 d5 85 bd 70 16 23 3d 3a 7e 20 bd
       0.09864421 -0.06534912 0.03981632 -0.03918288
0003a0 87 85 87 3c 85 d8 9c bd b7 ef 83 bd df 41 8a bd
       0.016543163 -0.07658485 -0.06442206 -0.06750845
0003b0 13 5d 94 3d a7 00 0e bd 35 ed bf 3d a7 f2 b7 3c
       0.07244315 -0.03466859 0.093714155 0.022454573
0003c0 92 ff 95 3d 97 7d 05 3d 9a 02 43 3c 77 8f b7 3d
       0.07324137 0.032590475 0.011902476 0.089629106
0003d0 73 fb 15 3d 6d 6f 30 3d ca c0 4f 3d d7 b5 3c bd
       0.036616754 0.043075014 0.050720967 -0.046071853
0003e0 73 f1 da 3c 4a 35 44 3d 43 f9 b7 bd f0 f5 1f bd
       0.02672646 0.047902383 -0.0898309 -0.039052904
0003f0 37 2c 94 3d 33 f6 19 3b 1b 1c 93 3d 9a 80 c8 3d
       0.07234996 0.0023492693 0.07183095 0.09790154

encoder.mean_layer.bias f4 [3]
000000 e7 04 aa bb b2 3e a7 bd 0a 2c 71 bd
       -0.0051885727 -0.08166255 -0.05887989

encoder.logvar_layer.weight f4 [3, 100]
000000 dd 15 cc 3d 22 5f 92 3d 40 5d ae 3d c7 a6 38 3d
       0.099651076 0.071470514 0.0851388 0.045080926
000010 2b 29 8d bd 67 b2 5c 3b f2 f3 86 3d 53 cd 5e 3d
       -0.06892618 0.0033675672 0.065894976 0.05439503
000020 f3 4a df 3c 57 f3 3c bd 63 c2 b9 3d 8d 37 5e bc
       0.027257418 -0.046130504 0.090702794 -0.013563049
000030 80 d6 72 3c 98 a0 a0 bd ba 80 83 3d 1a 82 4c bd
       0.014821649 -0.07843131 0.06421037 -0.049928762
000040 e0 b1 2e bd 17 86 7d bd 50 2c 8a bd 6b 41 b8 3d
       -0.042650104 -0.061895456 -0.06746733 0.089968525
000050 cd 09 be bc 4d 50 bb 3c 0d ca 89 bc cd 47 9c 3d
       -0.023198033 0.022865439 -0.016819978 0.076308824
000060 1a 03 38 bd 1a 24 dd bc 80 66 6e bd 4a a7 bb 3d
       -0.044924833 -0.026994754 -0.05820322 0.09162767
000070 ab 4b ba bd 13 34 1c 3d a8 7b bc 3d 83 fb 0f 3d
       -0.09096464 0.0381356 0.09203273 0.03515197
000080 9a 9d de bc b0 5f 05 3d 73 69 0e bc 4d cf 8f bb
       -0.02717476 0.032561958 -0.008692133 -0.004388726
000090 ba 6b 39 3d e7 69 40 3c 1b 42 84 bd 00 87 15 bd
       0.04526875 0.011743999 -0.06457921 -0.0365057
0000a0 b3 15 da bb 9a 29 6b 3b 97 c2 19 bd 2d a9 b7 bc
       -0.006655419 0.003588295 -0.03753909 -0.022419536
0000b0 17 13 65 bd 6b 48 9e 3d 37 b3 9d 3d 67 65 33 3c
       -0.05592641 0.077286564 0.07700198 0.010949469
0000c0 40 8b 6c 3d f5 88 c5 bd 33 c8 a1 3c b0 0a 92 3d
       0.057749987 -0.09645263 0.019748783 0.07130945
0000d0 33 32 33 3b 0f b5 a5 3d 62 ea c2 3d 50 41 c4 bd
       0.0027343153 0.08091175 0.09517361 -0.0958277
0000e0 e7 15 88 3c 20 86 af 3d 73 5d 36 bc c3 cd 4e bd
       0.016612006 0.08570504 -0.0111306785 -0.0504892
0000f0 aa 7f 0b bd 17 a4 56 3d 7a ea 8c bd 9b 1f b2 3d
       -0.034057297 0.052402582 -0.0688066 0.086974345
000100 03 42 bb bd 00 f9 6b 3d 33 2d 41 bc 63 ea 15 bd
       -0.0914345 0.05761051 -0.0117905615 -0.03660048
000110 ad a8 88 bd c3 ad 00 3d d7 5d 13 bd a0 46 93 bd
       -0.06672797 0.031415712 -0.035978165 -0.07191205
000120 90 08 bc 3d 63 84 12 3d 55 55 94 bd e7 c4 e6 bc
       0.09181321 0.035770785 -0.07242838 -0.028170062
000130 33 4d 87 bd 2d 81 f5 bc 5d 9a 11 3d a7 a8 c5 3d
       -0.066065215 -0.029968822 0.035547603 0.096513085
000140 80 8a 2b bc d2 8c ca 3d ed 31 59 3d 5a 87 2d bc
       -0.010470033 0.098901406 0.05302613 -0.010591352
000150 00 be 82 ba 7a ea 22 3d c8 a9 9b bd 67 a0 18 bc
       -0.0009974837 0.039774396 -0.076007426 -0.009315587
000160 40 40 05 3c d8 82 aa bd ca c0 36 3d cd 1b 25 3c
       0.008132994 -0.08325738 0.04461745 0.010077429
000170 3d 93 4f bd d8 d0 ca 3d da 0a b5 3d e3 01 ac 3d
       -0.050677527 0.09903115 0.088399604 0.08398797
000180 b3 28 fa bc b0 51 7d 3d f7 6e 32 3d 9a b5 c8 bc
       -0.030536985 0.06184548 0.043562856 -0.024500657
000190 a0 39 07 bd aa b8 b3 3d 5d 75 ad 3d 9a cf ba bb
       -0.03301394 0.08775456 0.08469651 -0.0057010176
0001a0 d3 33 ab bc 70 ea 0c 3d eb 5f b8 bd 3d 1f 23 bd
       -0.020898735 0.034403265 -0.0900267 -0.039824713
0001b0 cf 1d ae bd 7a 51 0a 3d b3 34 e1 bb 93 af 91 3c
       -0.08501779 0.03376911 -0.0068727373 0.017783916
0001c0 23 e6 44 bd d3 fb 3e bd bd 87 91 3d 47 de 1b 3d
       -0.048071038 -0.046626877 0.07105968 0.038053777
0001d0 88 aa bf 3d ed 10 8f 3c ed 94 10 bd cd 25 7a bb
       0.09358698 0.017464126 -0.035298277 -0.0038169504
0001e0 e7 6c 3d bd 6f 27 cc bd 9b ba c6 bd 1a 02 b6 3b
       -0.046246435 -0.09968459 -0.09703561 0.0055544497
0001f0 6d fa 35 3d a7 96 0c 3d e3 9e 5b bd a2 cf b1 bd
       0.044428278 0.03432336 -0.053618323 -0.08682181
000200 e7 37 6b 3d 8f ca 91 bd 67 46 e1 bb c3 1d 17 3d
       0.05742636 -0.07118713 -0.0068748477 0.036893617
000210 42 da 91 bd c0 66 10 bd d5 19 c2 3d 8f f7 b4 bd
       -0.071217075 -0.03525424 0.09477583 -0.088362806
000220 87 51 b1 bc f7 ac 93 3d ff 27 b0 3d a3 de a5 3d
       -0.02164532 0.07210725 0.08601379 0.08099105
000230 c0 0d 5b bd e0 01 bb 3c 27 53 94 bc 50 a4 15 3d
       -0.05347991 0.022828043 -0.018106056 0.036533654
000240 da bf 19 3c 13 d7 c8 bc 4d 87 3b bd 00 ef 2d bc
       0.00938412 -0.024516618 -0.04578333 -0.010616064
000250 dd 16 c1 bd 0f 34 cc 3d 05 7e b8 bd f3 d8 c7 3d
       -0.09428189 0.09970867 -0.09008411 0.09758177
000260 ba 26 ce bc 03 f1 39 bd c7 3f 16 bd 3a bb 87 bd
       -0.02516495 -0.045395862 -0.036681917 -0.066275075
000270 33 87 46 3a f3 f0 a8 3d 60 ce c4 3d 42 02 8d bd
       0.0007573247 0.082490824 0.096096754 -0.06885196
000280 aa 19 11 bd 87 e0 f6 bc 0a cd 63 3d ed 35 97 bd
       -0.035424866 -0.03013636 0.055615462 -0.073833324
000290 ad c5 bf 3c 00 f2 eb 3b c8 98 9e 3d e7 3b af 3d
       0.023409689 0.0072004795 0.077439845 0.08556347
0002a0 00 b0 a5 3c cd b8 9d 3b aa 7e be 3d ba bd a8 bd
       0.020225525 0.0048132897 0.09301503 -0.082393125
0002b0 6f be 85 3d ba 82 d5 bc cd e7 aa bc 53 e5 d7 3c
       0.06530463 -0.026063312 -0.020862484 0.026354467
0002c0 43 6d 8f 3d ca 2b 5c bd 67 c6 8c 3d 33 6b 98 3a
       0.07003262 -0.053752698 0.0687378 0.0011628628
0002d0 33 fd a1 bc fd 60 c1 3d 0a 8c 42 bd e7 79 96 3d
       -0.019774055 0.09442327 -0.047496833 0.0734747
0002e0 87 09 c3 bd 9a d2 d3 3b ba aa fb 3c 0f 21 b5 3d
       -0.095233016 0.0064643146 0.030721057 0.08844196
0002f0 70 03 65 bd da 7b ca 3c e7 3e 8e 3d 9f db 8a 3d
       -0.05591148 0.02471726 0.069455914 0.06780171
000300 fa 09 31 bd e0 ba 33 bd 13 19 7c bd 4d d4 8f 3c
       -0.043222405 -0.04387939 -0.06154735 0.017557288
000310 77 3d 87 bd c7 fe 53 3d cd 59 cf bb 77 c6 3d bd
       -0.0660352 0.051756646 -0.0063278438 -0.04633185
000320 3b a9 c5 3d 75 40 aa bd da 86 a4 bc 73 87 4e bc
       0.09651419 -0.083130755 -0.020083833 -0.012605536
000330 33 b8 fe bc 33 cd cd bc 87 15 47 3d 1a 57 4d 3d
       -0.031093692 -0.02512226 0.048604514 0.050131895
000340 80 1f c0 3c a0 a9 45 bd 6a e6 83 bd 1d 2e b7 bd
       0.02345252 -0.04825747 -0.06440432 -0.08944342
000350 cf 8f a6 3d a7 ad 71 bc d0 8d 75 bd f0 48 bb 3d
       0.08132898 -0.014750875 -0.059949696 0.09144771
000360 cd 9d cd bb d3 dc 0c bd 90 f6 43 bd ba a8 ac 3d
       -0.006274915 -0.034390282 -0.047842562 0.084306195
000370 5a 5f 11 bd 62 13 93 bd 9a ce 7f bc 87 25 50 3d
       -0.035491325 -0.07181431 -0.0156132225 0.05081704
000380 50 c8 9d bd a5 54 95 bd 77 d9 1c bd 63 bd 92 3d
       -0.07704222 -0.07291535 -0.038293328 0.07165029
000390 07 84 93 3c 6a a3 5b 3d 92 f0 96 bd 33 e5 da bc
       0.018007291 0.05362264 -0.07370104 -0.026720619
0003a0 87 39 52 bd c7 0b 72 bd ca 44 73 3d 4f d6 b5 3d
       -0.051324394 -0.059093263 0.059391774 0.08878767
0003b0 53 e7 39 3d fd 20 05 bd e0 37 5f bd d5 95 c7 bd
       0.045386624 -0.032502163 -0.054496646 -0.09745375
0003c0 7d d8 4f 3d 17 40 92 3d 15 80 c9 3d ea 0e be 3d
       0.05074357 0.071411304 0.09838883 0.092801884
0003d0 33 d3 54 b9 f3 2a 49 3c 80 78 6a 3c 37 30 7b 3d
       -0.00020296573 0.012278306 0.014310956 0.061325278
0003e0 83 7a 4c 3d 0a ba 56 3d c2 87 9d 3d 7d 1c 2a bd
       0.049921524 0.052423514 0.076919094 -0.041531075
0003f0 fd c4 17 bd 9a e9 75 3d db d2 ca 3d dd b0 91 3d
       -0.037053097 0.060037233 0.09903499 0.07113812

encoder.logvar_layer.bias f4 [3]
000000 dd b3 bc 3d 80 db c3 bc 0d 48 34 3d
       0.09213994 -0.023908377 0.044014025

decoder.layers.0.weight f4 [100, 4]
000000 02 bd b4 3e 98 9e bd 3d c0 f2 42 bd f6 e6 f0 be
       0.35300452 0.09258765 -0.047594786 -0.4705121
000010 68 d9 f6 be 46 64 ec be 20 2a 2b be 4e 52 ad be
       -0.48212743 -0.46170253 -0.16715288 -0.33851856
000020 b8 8e a7 bd 06 37 c4 3e e8 73 bb be 82 f6 d4 3e
       -0.08181518 0.3832323 -0.36611867 0.4159432
000030 16 26 f1 be 0c c4 0d be c2 dd 8d be ec d4 ba be
       -0.4709937 -0.13844317 -0.2770825 -0.36490571
000040 c8 de 0f 3e 08 0e df 3d 60 a6 eb 3c 2e 39 e5 be
       0.14049828 0.10891348 0.028765857 -0.44770187
000050 34 be a7 3e 5e b6 e7 3e 48 dc 9f 3e 2a ad c4 3e
       0.327623 0.45256323 0.3122275 0.38413364
000060 10 dc 43 3e 84 92 5b be 00 d8 cc 3e f6 9f fc be
       0.19126916 -0.2144261 0.40008545 -0.4934079
000070 34 37 83 3e 54 ca 1e be b0 b3 84 bd 90 e5 1b be
       0.25628054 -0.1550687 -0.06479585 -0.1522429
000080 60 9f 95 3c 82 21 d2 3e e8 73 53 be f2 a4 c1 be
       0.018264472 0.4104119 -0.20649683 -0.37821156
000090 dc 69 18 be 04 82 28 3e 40 70 7d 3e 70 1d 12 3d
       -0.14884132 0.16455847 0.24749851 0.035672605
0000a0 38 b0 24 3e a0 ae a5 3c 30 99 5f 3d f0 ff 06 3e
       0.16082847 0.02022487 0.05458945 0.1318357
0000b0 b2 a5 a1 be 16 c4 a6 3e c8 b9 a2 3d 7c fe f4 3e
       -0.31571728 0.32571477 0.07945591 0.47850406
0000c0 e0 b4 77 bd a0 d1 25 3e e4 86 b2 3e e0 ea fc bd
       -0.06047523 0.16193247 0.34868538 -0.12349486
0000d0 9c e9 34 be 48 fa 9c bd 9c 0a 71 3e 78 41 bf bd
       -0.1766724 -0.07664925 0.23539203 -0.09338659
0000e0 c6 0c bb be 90 21 d2 be 28 e2 fa be 40 11 d8 bd
       -0.36533183 -0.4104123 -0.4900067 -0.10550165
0000f0 3e 1f e3 be 86 11 c6 3e c8 2a 32 be 2e f0 f5 be
       -0.44359773 0.38685244 -0.17399132 -0.48034805
000100 f4 1b 59 3e 46 9b ae be ac 3f 7b be c0 81 c2 bc
       0.2120207 -0.3410284 -0.24536008 -0.02374351
000110 56 34 bc 3e a0 67 f3 3d b0 2d 78 3e a6 50 b8 be
       0.3675868 0.11884999 0.24236178 -0.3599903
000120 80 e0 a8 3d 7c d3 35 be d4 a7 cf be a2 c0 b0 be
       0.08245945 -0.17756456 -0.4055773 -0.34521967
000130 b4 57 18 3e 1c 43 fe be b8 16 ce 3e c0 34 64 3c
       0.14877206 -0.49660575 0.40251708 0.013928592
000140 da 61 bf 3e 04 f7 a2 be 04 af 43 be 24 5c 11 be
       0.37379342 -0.31829083 -0.19109732 -0.14195305
000150 a4 e7 50 3e c4 a1 64 be 22 cc 8f 3e 0c 16 b0 3e
       0.20400864 -0.22327334 0.28085428 0.3439182
000160 22 f2 aa be 00 ad 14 bc 10 79 3d bd 48 2f 87 be
       -0.33387858 -0.00907445 -0.046258032 -0.2640326
000170 f8 23 a9 bd 3a e8 b9 be 02 a2 a8 3e a8 61 b7 3d
       -0.082588136 -0.36309987 0.32936102 0.08954173
000180 40 64 f9 3e cc 26 08 be 88 f4 fd 3e 20 b3 f4 3c
       0.48709297 -0.1329605 0.49600625 0.02987057
000190 dc 73 97 be 60 40 fc be 00 dd a3 bd 20 92 79 3d
       -0.2958058 -0.49267864 -0.08001137 0.06093037
0001a0 4c f2 4d 3e d8 c1 cf bd 06 6a b9 be 44 32 0b be
       0.2011196 -0.10144395 -0.36213702 -0.13593394
0001b0 b2 05 9b be 70 20 2d 3d a4 75 d9 be 40 e6 bc bd
       -0.30277783 0.042267263 -0.42472565 -0.09223604
0001c0 80 92 20 bd 5c da 26 be c8 e5 d3 3d c4 8f 26 3e
       -0.039202213 -0.16294235 0.10346562 0.1626578
0001d0 c0 d6 96 3c d8 3a 85 3e 62 52 96 3e 74 ae b2 3e
       0.018412948 0.26021457 0.29359728 0.34898722
0001e0 80 f8 d1 be 64 43 98 be 64 aa fd be f0 55 b1 bd
       -0.41009903 -0.29738915 -0.4954406 -0.086589694
0001f0 c0 61 06 bd 34 d7 00 3e a0 58 1f bd 30 23 f8 be
       -0.032808065 0.12582093 -0.03890288 -0.48464346
000200 2e e7 a9 be 9e 10 e0 3e b0 ce 13 3e 54 ca b7 be
       -0.3318419 0.43762678 0.14434314 -0.35896552
000210 c0 32 d7 be d0 e9 49 bd fc 79 8a 3e 40 ef 94 bd
       -0.42030907 -0.049295247 0.27046192 -0.07272196
000220 1c b8 8a be a0 40 88 bc 50 81 67 be 4a c9 d3 be
       -0.2709359 -0.016632378 -0.22607923 -0.4136451
000230 aa 9d e8 be c0 92 24 be e2 cc e0 be 78 22 7d 3e
       -0.45432788 -0.16071606 -0.43906313 0.2472018
000240 90 2f 74 bd 9e f5 ed 3e f8 cc 2f 3e f0 66 6d 3d
       -0.05961567 0.46476454 0.17168033 0.057959497
000250 9c 62 c6 be c2 a8 94 be a0 81 96 bc b6 85 d5 be
       -0.38747108 -0.29035002 -0.018372357 -0.41703576
000260 26 18 fe be 00 28 dc 3a 80 0d fa 3e 4c 36 ea be
       -0.496278 0.0016796589 0.48838425 -0.4574455
000270 7c 66 a7 be f0 55 f2 3e 38 5f e1 3e 48 42 c2 3e
       -0.32695377 0.4733119 0.4401796 0.37941194
000280 cc 33 6f 3e f8 e6 c1 3d 2e ff 8e 3e e8 8c 71 3e
       0.23359603 0.09467882 0.27929062 0.23588908
000290 60 40 a6 3c 04 eb f4 3e 3c 06 61 3e 8c 42 a9 be
       0.020294368 0.47835553 0.21975034 -0.33058584
0002a0 f4 78 d8 be f0 b5 f7 bd 98 47 a7 bd 60 88 67 bd
       -0.4227978 -0.12095249 -0.08167952 -0.05652654
0002b0 60 5d 67 3e 3c 74 55 be 10 e3 af 3d 5c 17 74 be
       0.22594213 -0.20845121 0.085882306 -0.23837036
0002c0 6e f6 94 be 68 3e 9f bd a8 9e 77 be 7a 3a fc 3e
       -0.2909426 -0.07775575 -0.24181616 0.49263364
0002d0 2a 48 b4 be 10 75 3d 3d b0 46 c3 be 30 4b 15 3d
       -0.35211307 0.046254218 -0.38139868 0.036448658
0002e0 08 73 4f be 20 9a 97 3e 62 02 f1 be 48 66 6d 3e
       -0.20258725 0.29609776 -0.4707213 0.23183548
0002f0 fc dd fa be 68 4b dd 3d 94 7f e4 3e 74 4e d2 be
       -0.48997486 0.10805398 0.44628584 -0.4107548
000300 10 2d 94 3e 90 ad ba 3d e4 bf b1 be 10 aa d1 be
       0.2894063 0.09115136 -0.34716713 -0.4095006
000310 48 70 30 3e e0 7e 3a bd 3c 9f 98 3e 94 3e a0 be
       0.17230332 -0.045531154 0.29808986 -0.31297743
000320 6c 7c 97 3e 40 0e c9 bc 80 48 e6 3b 98 80 9f bd
       0.29587114 -0.024542928 0.0070276856 -0.07788199
000330 a4 74 81 3e c0 bf 6d 3c 2c bb 93 be 7c 52 b9 3e
       0.25284302 0.014511049 -0.28853738 0.36195743
000340 ea f1 87 3e d2 54 8f be bc 4c c1 be 7c f4 7b be
       0.26551753 -0.279944 -0.37753856 -0.24604982
000350 f0 86 35 bd 38 85 cd bd 18 b4 61 3e 3c a0 25 be
       -0.04431814 -0.10035175 0.22041357 -0.16174406
000360 a4 17 fb be 42 85 aa be 48 62 c6 be e0 38 19 3d
       -0.49041474 -0.33304793 -0.38746858 0.037407756
000370 80 e6 cb be c4 c9 44 3e ae 46 c0 3e 80 b1 5d 3e
       -0.39824295 0.19217592 0.37553924 0.21649742
000380 80 21 49 3c 64 20 e7 3e 10 ba 96 3e 80 0a 03 bc
       0.012276053 0.451419 0.2943883 -0.007998109
000390 0a 0e fb be d6 82 cc be 6e 11 dc be 30 5c 68 3e
       -0.49034148 -0.3994357 -0.42982048 0.22691417
0003a0 70 de ae 3d 64 93 a3 be ac a8 c7 be b8 51 19 3e
       0.0853852 -0.31948388 -0.38995874 0.1497258
0003b0 b8 25 08 3e a8 ad ec 3d b8 4c 94 3d d2 1f f0 3e
       0.13295639 0.1155656 0.072411954 0.46899277
0003c0 46 83 c1 3e de 81 ed 3e 1c 2b 7f be f0 b8 1e bd
       0.37795466 0.46388143 -0.24918789 -0.03875059
0003d0 c6 48 dd 3e 46 b6 8f be f8 18 37 3e f4 e1 46 be
       0.43219584 -0.2806875 0.17880619 -0.19422132
0003e0 f0 f5 7c bd ae ae a2 be 4c 4e 3a 3e 1a 39 fe be
       -0.06175798 -0.31773895 0.1819393 -0.4965294
0003f0 78 e1 81 be c8 7c b2 bd a0 e0 07 3e d4 c0 0a 3e
       -0.25367332 -0.087152064 0.13269281 0.1355012

decoder.layers.0.bias f4 [100]
000000 44 e5 3e 3e 00 74 e0 ba 30 6a 6c be 00 1c 49 3b
       0.18642145 -0.0017124414 -0.23087382 0.0030686855
000010 60 9b 54 3e 8e ac a2 3e 48 be a0 3e c4 e0 05 3e
       0.20762396 0.31772274 0.31395173 0.13074023
000020 a6 4b 90 be 5a 14 a3 be 96 b0 d8 3e c0 58 45 be
       -0.28182715 -0.31851465 0.42322224 -0.19272137
000030 c6 18 cf be 9a 44 b7 3e 80 43 8c bb 40 9e 00 bd
       -0.40448588 0.35794526 -0.0042805076 -0.03140092
000040 04 ae cc 3e b0 f9 da be a4 e9 c1 3e fe 48 83 3e
       0.39976513 -0.4276862 0.37873566 0.25641626
000050 22 d9 9b 3e 80 2a 48 3e ae 2d d2 3e 80 02 e5 bb
       0.30439097 0.19547462 0.41050476 -0.0069888234
000060 04 2e 88 be 1a 85 af be 5c 98 a1 3e 58 41 4e 3e
       -0.26597607 -0.34281236 0.31561553 0.20142114
000070 c0 1c a1 3d 6c e6 4c be 72 59 cd 3e a4 7f 79 be
       0.07866812 -0.20009774 0.40107304 -0.24365097
000080 8a 1a 83 be 38 a8 a2 3e 8a 9a e8 be 72 4b c4 3e
       -0.25606185 0.31768966 -0.45430404 0.3833881
000090 3e e0 d8 3e 20 3b 38 be b8 3b db be a4 7b 2e be
       0.42358583 -0.17991304 -0.42819 -0.17039353
0000a0 a0 97 cb bc ac df d7 3e 2c a4 16 3e 4e 51 d6 3e
       -0.024852574 0.42162836 0.14711064 0.41858906
0000b0 64 2d 8f 3e 32 47 e3 be b4 8d 33 be d8 a8 43 be
       0.27964318 -0.44390255 -0.17534524 -0.19107378
0000c0 0e e4 bb be a0 32 b4 3d 72 59 93 be 78 b4 3f 3e
       -0.3669743 0.087987185 -0.2877918 0.18721187
0000d0 f4 23 89 be 1c af 58 be 70 76 09 bd d0 c7 bc be
       -0.26785243 -0.21160549 -0.033560216 -0.36871195
0000e0 02 a6 b4 3e 00 be 92 bb 62 56 c3 3e 28 ee bd be
       0.35282904 -0.004478216 0.38151842 -0.3709576
0000f0 86 bf 94 3e de c0 e8 3e 60 3d f3 3d 7c 19 1b 3e
       0.2905237 0.45459646 0.11876941 0.1514644
000100 50 14 12 3e 6c df 8f be ee db a5 3e c6 c1 e3 3e
       0.14265561 -0.28100145 0.32394356 0.44483775
000110 b0 f8 01 3d 10 d2 d5 3e 18 ea c5 be f6 d6 87 3e
       0.031731308 0.41761827 -0.38655162 0.2653119
000120 b4 9b 8d be 68 e0 f0 3e 4c c7 b4 be bc e4 da be
       -0.27657855 0.47046208 -0.353083 -0.42752635
000130 ee 80 89 3e 14 b0 40 3e 9e a9 e5 be 10 00 a3 bd
       0.26856178 0.18817168 -0.4485597 -0.07958996
000140 20 9a f1 3d 00 bc e5 3a 28 da b6 be 08 81 d2 be
       0.11796975 0.0017527342 -0.35713315 -0.41114068
000150 80 07 e5 3e 38 9a a7 3d 20 2b 36 bd 4a 56 c8 3e
       0.44732285 0.08183712 -0.04447472 0.39128333
000160 ce 7f f9 3e 20 25 33 bd c8 fa 39 be 3c c3 a9 be
       0.4873032 -0.043736577 -0.18162072 -0.33156765
000170 00 de f9 ba c4 fe 27 be d8 84 9c 3d de af b5 be
       -0.0019063354 -0.16405779 0.076425254 -0.3548574
000180 04 c2 4a 3e 00 45 64 bd bc 74 95 3e 70 db c2 be
       0.19800574 -0.055729866 0.29190624 -0.38058043
