src/magnetics_diagnostic_analysis/project_scinet/checkpoints/pendulum_scinet_checkpointed.pth (torch, 636334 bytes, 17 tensors)

encoder.layers.0.weight f4 [500, 50]
000000 d2 e3 89 3d 37 d6 8d 3d 5c d8 67 bb 68 eb 72 3d
       0.067329064 0.06925624 -0.0035376763 0.059306532
000010 b5 e1 a2 ba a2 16 f8 3b c8 f8 80 ba be 12 8f bb
       -0.0012426885 0.0075710574 -0.0009839768 -0.004366248
000020 81 f2 df 3b 18 5c 00 bd 6f c0 09 3d f8 5d 5f 3b
       0.0068343286 -0.031337827 0.033630785 0.003408311
000030 c4 f2 19 3d e8 8f 4f 3b 38 7e c5 3c 69 3d 1b bc
       0.037585035 0.0031671468 0.024108037 -0.009475091
000040 8f 1e 0b 3d 19 91 ce 3b 1c 37 12 bb 4b 27 d6 3b
       0.03396469 0.006303918 -0.002231068 0.006535446
000050 24 f2 a1 3b bf 11 73 3b 6a db ae bb 80 6f c1 3c
       0.0049421955 0.0037089435 -0.005336215 0.023612738
000060 13 53 06 bd 68 e7 b3 bc ac ea 7b bc e7 42 ff bc
       -0.03279407 -0.021960929 -0.015375774 -0.031159831
000070 ea 93 79 ba 90 db 29 bd cf b0 6d 3c 75 55 9d bc
       -0.0009520637 -0.041469157 0.0145074865 -0.019205788
000080 a9 d7 e8 bb f9 20 9e bb 73 7a 30 bb 17 06 05 3c
       -0.007105787 -0.004825708 -0.0026928454 0.008119128
000090 a8 3f c8 3b 1d 47 ed 3c bf 87 1e 3c b8 3c 76 bb
       0.006111104 0.028964574 0.009675919 -0.0037572812
0000a0 15 06 92 3c 4e db be 3a 0d 3d ad 3c e0 6f e0 3c
       0.017825166 0.0014561207 0.021147275 0.027397096
0000b0 c3 33 80 3c be f1 0a 3c 88 70 8c 3b c3 87 33 38
       0.015649682 0.008480487 0.0042858757 4.2803364e-05
0000c0 ac 56 2d ba 35 3b 67 bc ff 98 b7 bd 22 2b f4 bc
       -0.00066123414 -0.014113237 -0.089647286 -0.029805724
0000d0 55 5e 82 bd 3d 86 9d 3d 91 6c e4 3c f9 37 df 3c
       -0.06365649 0.076916195 0.0278838 0.02724837
0000e0 2d 34 1d 3c 18 03 a7 3b 11 1f 04 3d c8 8b 3f bd
       0.009594959 0.0050968044 0.03225619 -0.046764165
0000f0 40 99 1a 3b 39 97 7a bd ab b6 bd 3c 53 0b 11 bd
       0.002358988 -0.061179373 0.023158392 -0.03541119
000100 0d 28 b1 3c 9d 26 c0 bc 39 03 6a 3d 58 08 3c bd
       0.021625543 -0.023455912 0.05713198 -0.045906395
000110 a8 36 10 bd 82 04 95 bc b4 25 19 bc 89 15 c0 b9
       -0.035208374 -0.018190626 -0.009347368 -0.0003663714
000120 61 66 30 3d ba 65 62 bd 35 14 96 bd 09 15 76 bd
       0.043066386 -0.055272795 -0.07328073 -0.060078654
000130 78 bd 52 bd 2b f3 0d 3d 45 16 fc 3c 0c 4a 7c 3d
       -0.051450223 0.03465573 0.030772338 0.061594054
000140 bd 1d b7 bc e5 65 96 bc 5f 9f 8b 3c 11 ab 10 3c
       -0.022353048 -0.018359134 0.017043767 0.008829848
000150 86 aa 88 3c 67 6f eb b9 0f 44 09 3d 93 ed 31 bd
       0.016682874 -0.00044905694 0.03351217 -0.04343946
000160 27 24 00 bd 7a 71 ac 3c 4f f3 5a 3c 47 84 96 bc
       -0.031284478 0.021050204 0.013363673 -0.018373622
000170 31 00 00 3d 04 c8 e5 3c d4 3d f1 bc fd de 60 bc
       0.031250183 0.028049476 -0.029448427 -0.01372504
000180 0b 09 0a bb a4 76 0e bc df 47 69 bc 5f 4d 29 bd
       -0.002106252 -0.008695278 -0.014238327 -0.041333552
000190 8e bb 85 bd 50 7b 9d 3c 19 f4 92 bc 76 df 8e bd
       -0.06529914 0.019223839 -0.01793866 -0.069762155
0001a0 6b bf fa ba b9 17 25 bd 2c 2a 3e bc 22 32 9f 3a
       -0.0019130533 -0.040305827 -0.011606734 0.0012145678
0001b0 f1 08 25 bd 2e 83 39 bd a8 a8 a9 3d dd 1d 79 3c
       -0.04029173 -0.04529112 0.08284122 0.015204874
0001c0 33 2e d7 3c 05 a3 ba bd 1b 69 84 bd 6b 04 0a bd
       0.026267147 -0.09113125 -0.0646536 -0.03369562
0001d0 9e 79 09 3c 95 6c 86 bd 33 e7 ca bc 54 67 54 bc
       0.008390812 -0.06563679 -0.024768448 -0.0129640885
0001e0 d0 d8 54 bb 46 34 e9 bb f4 e8 84 3b c7 1b 21 bd
       -0.0032477863 -0.007116827 0.0040560905 -0.03933313
0001f0 1b 22 36 bd 8e 36 1b bd a8 0d 90 bc 5b aa 5f bd
       -0.04446612 -0.037893824 -0.017584637 -0.054605823
000200 e0 42 a1 3d bb 3b 3f bb 40 40 81 3d 2f e9 b5 3c
       0.078740835 -0.002917989 0.06311083 0.022205917
000210 48 c7 e3 bb 61 f6 9a 3b 82 be 66 bc 13 e1 f8 bc
       -0.0069512464 0.0047290777 -0.014083507 -0.030380761
000220 32 25 85 bd 4a f5 ad bd e1 50 3f 3b 17 1f 0d bd
       -0.06501235 -0.08494051 0.0029192495 -0.034453478
000230 0a aa 2c 3c 4a 7d 99 bd ea de f7 3c f4 98 59 bd
       0.010538587 -0.074946 0.03025766 -0.053124383
000240 36 e9 98 bc 69 a6 b4 bb ba 65 c0 3a 58 41 b1 3c
       -0.018665891 -0.0055130017 0.0014678754 0.021637604
000250 a0 92 3d 3d 57 46 8d bc 0e ae a8 3c 44 69 b1 bb
       0.04628241 -0.017245455 0.020590808 -0.00541416
000260 4d 0c bb 3b 72 6c 32 bc 56 15 93 3c 42 07 07 ba
       0.0057082535 -0.010890113 0.01795451 -0.0005150923
000270 0a c8 01 39 10 a6 9f ba a5 d5 2d bb 28 50 1c bc
       0.00012376919 -0.0012180228 -0.0026525047 -0.009540595
000280 1e 65 45 3c 54 4f 10 ba 19 ca 02 bb 95 de f6 bc
       0.012048034 -0.0005504985 -0.0019956885 -0.030135432
000290 ae d5 e5 3b 7a d6 ca bb 57 be 10 bc ce 01 0b 3c
       0.007013998 -0.0061901184 -0.008834443 0.008484317
0002a0 e2 4e d9 3a 33 cf ca 3a 33 47 ae 3a 22 d9 e7 3a
       0.0016579295 0.0015473127 0.0013296366 0.0017688612
0002b0 58 bb 8c 3b 14 eb de b9 04 db e0 bb 41 bb a0 bb
       0.004294794 -0.00042518287 -0.006862046 -0.004905135
0002c0 8d 5e 6a bc 8a 82 b9 3b f1 90 2d 3c a3 e6 5e bc
       -0.014304769 0.0056613134 0.010593639 -0.013604793
0002d0 98 19 f5 ba 8d 18 25 bb c5 32 20 bb c0 c7 b6 ba
       -0.0018699644 -0.0025191635 -0.0024444323 -0.0013945028
0002e0 b5 c3 64 ba 14 ed ec 39 82 36 02 3b 4f ac e8 b8
       -0.00087266724 0.00045190065 0.0019868915 -0.00011094717
0002f0 9c 1c 25 ba 51 14 79 3b 63 30 d2 3a 78 2c c6 3a
       -0.00062985136 0.0038006494 0.0016036149 0.0015119454
000300 75 fd 0a 3c 27 5b 01 3c c7 8c 81 3b e2 82 34 3b
       0.00848328 0.007895268 0.0039535495 0.0027543833
000310 34 b2 b1 3a 47 ee b5 39 3f 13 0a ba 76 5a a0 ba
       0.0013557137 0.0003470054 -0.000526715 -0.0012233991
000320 e5 4c 58 bd e7 a2 cf bc ea cc d7 3c 56 7f a9 3b
       -0.052807707 -0.025346233 0.026342828 0.0051726503
000330 bd 80 cd bb 2e bd e8 bb a1 c8 d3 ba 55 52 9a b8
       -0.0062714503 -0.00710263 -0.0016157815 -7.358628e-05
000340 93 5e 76 b7 00 51 c9 3b a7 cd 8c 3c a6 1e 85 3c
       -1.4684762e-05 0.006143689 0.017187906 0.016249966
000350 9d 46 f3 bc c2 66 a1 bc e3 3a 65 bb a8 26 fc 3c
       -0.029696757 -0.019702319 -0.0034977726 0.030780151
000360 d2 6e 89 3b d4 50 2d bb f4 a1 e2 3a 83 01 51 39
       0.004194119 -0.0026445882 0.0017290697 0.00019932356
000370 62 37 a8 3a 40 fe 5e 3b 4e f5 a8 39 55 c8 84 3a
       0.0012833888 0.0034026057 0.00032226223 0.0010130504
000380 13 5d 90 bc 09 7c a5 3c 5c 90 c0 3c 9c eb 4b 3c
       -0.017622506 0.020200746 0.023506336 0.01244631
000390 99 64 2e bc ce bb 4e bc 5d 98 86 bb e8 58 a8 3b
       -0.010644102 -0.012618018 -0.0041075186 0.0051375516
0003a0 b8 29 c6 3a 2f 10 4e ba 62 5f 4c bb 11 1c 9e bb
       0.0015118634 -0.0007860688 -0.0031184782 -0.004825123
0003b0 ed fe e1 bb 80 db 8b bc 6d 70 b0 bc 7b 5d c7 bc
       -0.0068968446 -0.01707244 -0.021537984 -0.024336567
0003c0 08 0b dd ba 39 1a 62 bc 93 2a 0e bc 82 4d 15 bc
       -0.001686425 -0.013800197 -0.008677143 -0.009112718
0003d0 13 ac a8 bb 65 1e 4e bb 48 3d 89 b9 5d 05 38 3b
       -0.005147466 -0.0031451222 -0.00026176334 0.0028079369
0003e0 16 7e af 3b 53 b7 21 3c 18 1e 07 bd ae 93 99 bd
       0.005355607 0.009870368 -0.032987684 -0.07498871
0003f0 ba e3 88 bc 20 7e 33 bd 79 db bc bc e7 12 5c bd
       -0.016710151 -0.043821454 -0.023053871 -0.053728964

encoder.layers.0.bias f4 [500]
000000 56 e8 82 3c 87 1e fd 3c 34 56 7a bd 49 61 e8 b9
       0.015979927 0.030898346 -0.061117366 -0.0004432297
000010 07 37 ae 3c a5 04 ad 3d 11 6d 4b 3c 89 17 85 3c
       0.021266473 0.084481515 0.01241614 0.016246574
000020 b2 ef 40 bd dc ec 87 3d c5 69 f6 ba 8e 6c 23 3c
       -0.04710359 0.06636974 -0.0018799832 0.009974612
000030 b9 06 ca bc cd 0e 8c 3d 18 50 7b 3d 04 de 51 bd
       -0.024661409 0.068387605 0.06135568 -0.05123712
000040 6a 22 0a 3c 14 99 f5 3b 88 ee 4d bd b5 35 38 bd
       0.0084310565 0.007495055 -0.05027631 -0.044973094
000050 05 68 f1 bc 1a 95 75 3d e1 01 2b bd 5d b8 6b bd
       -0.029468546 0.059956647 -0.04174984 -0.05754887
000060 d9 10 44 bb ac 4a 10 bd b7 23 2a bd d1 d3 55 bd
       -0.0029917269 -0.035227463 -0.041537967 -0.052203957
000070 c5 d4 ca 3d c0 02 90 bd 65 0f 7a 3d 53 a7 8a bb
       0.09903864 -0.070317745 0.061049838 -0.0042313724
000080 29 99 79 3d af 14 43 bd 00 f0 db 3b 7a 94 12 bd
       0.06093708 -0.047627147 0.00671196 -0.03578613
000090 1e b7 41 3d a6 9a c0 bc bd 7c b0 3c 72 c9 d8 3d
       0.047293775 -0.023511242 0.021543855 0.10585298
0000a0 7e e5 a0 3d a7 f0 7d bb 10 de b2 3c 7f e5 81 3d
       0.07856272 -0.0038748176 0.021834403 0.06342601
0000b0 63 a4 98 3d 55 45 8e 3a b0 35 11 bc 5e 4d 31 3d
       0.07453229 0.0010854403 -0.008862898 0.043286674
0000c0 b7 50 71 bd f4 d2 ab bc 13 fe a2 bb d5 2d 70 bd
       -0.058914866 -0.020974614 -0.0049741357 -0.05863746
0000d0 c5 42 43 bd d1 3f 78 bd bd bf 01 bd 00 e0 ae bd
       -0.0476711 -0.060607735 -0.031676996 -0.08538818
0000e0 e8 09 bb 3c cf d4 0c bd 36 4a d8 bc fe 52 0b 3d
       0.022831872 -0.034382638 -0.026402574 0.034014694
0000f0 f4 d1 90 bd 8e 3c 4a bc 53 4a 81 bd 4d b1 00 bd
       -0.070712954 -0.012343539 -0.06313004 -0.031419087
000100 9b 63 4c 3d a6 76 46 3d f8 51 0e bd d2 19 be bc
       0.04989968 0.048452996 -0.03474614 -0.023205671
000110 1d 16 59 bd f8 5c d9 bb 16 37 67 3c 0e 75 23 3c
       -0.052999604 -0.006633397 0.014112255 0.0099766385
000120 40 25 60 bb 9d 41 28 bb ee d3 fb 3b e3 40 7b bc
       -0.003420189 -0.0025673874 0.007685176 -0.015335294
000130 d8 f2 d8 bc 3f 44 17 3d 27 87 7d 3d df 9f a4 3c
       -0.026482984 0.03693032 0.06189647 0.020095764
000140 2a 23 5e bd 02 a3 ad bc 1c 08 5b bd d8 92 a6 3d
       -0.054232754 -0.021195892 -0.05347453 0.08133477
000150 9e c7 33 bd 0f d1 60 bd 76 ff 24 3d 14 dc 8b 3d
       -0.04389154 -0.054886874 0.04028269 0.06829086
000160 6c 87 fd 3c 29 95 1a bd 5a 18 98 3d 42 cb 06 3d
       0.030948363 -0.037739906 0.0742652 0.032908686
000170 d1 20 d0 bd fb 14 9d bc db e2 91 bd 57 c8 12 bd
       -0.10162509 -0.019175043 -0.07123347 -0.03583559
000180 0b 0e a0 3c 5e 4a f7 bc b3 ba 78 bc f0 bf 77 3d
       0.019537946 -0.030186828 -0.015181231 0.06048578
000190 6b c0 04 3b 5c d2 8a 3d dd ca 2b bc cb c3 27 bc
       0.0020256292 0.06778404 -0.010485378 -0.010239552
0001a0 b3 76 87 bd 6a ed f5 bc b8 6e 17 bb c3 59 b6 3d
       -0.06614437 -0.030020434 -0.0023106765 0.089038394
0001b0 0e 07 c1 3d 2e 84 8b bc 08 6e b6 3d f3 4b 20 3c
       0.09425174 -0.017030802 0.089077055 0.009783733
0001c0 48 19 63 3d 91 06 66 3d fb d6 60 bd 36 88 a8 3d
       0.055444032 0.056158606 -0.05489252 0.08229105
0001d0 d7 94 98 3c 9f e6 54 bd 63 ce ab bd 0b 26 46 3b
       0.01862566 -0.05197775 -0.083889745 0.0030235078
0001e0 46 b8 75 bc 7c ee 6e 3d 14 98 02 3d 4b e2 39 bd
       -0.0149975475 0.058332905 0.031883314 -0.045381825
0001f0 4f 42 21 3c 38 98 87 bd 71 a6 b0 3d 21 c0 3b 3d
       0.009842469 -0.0662083 0.08625496 0.045837525
000200 8f 9e 10 3d ab 47 34 3d 74 a1 11 bc 2b 04 a1 bc
       0.035307463 0.04401366 -0.008888591 -0.019655308
000210 14 a5 51 3c 32 eb c1 bd 57 3e 8d bc d0 83 85 3c
       0.012795705 -0.09468688 -0.01724164 0.016298205
000220 f4 77 52 3d 13 bf 7c ba 8e 1b a3 bc bf a9 99 3d
       0.051383927 -0.00096415094 -0.0199106 0.075030796
000230 36 2a f6 3b 25 10 8f bd b4 82 36 3d 0e 6a e6 3c
       0.007512356 -0.06985501 0.044558242 0.028126743
000240 b0 51 a6 bd cf ed b5 3c 1d 38 5f bd e4 5b ae 3d
       -0.081210494 0.022208123 -0.054496873 0.085136205
000250 c2 94 29 bd 42 9c 8e bc 65 b9 01 bd 7b 7e e3 3a
       -0.041401632 -0.017408494 -0.031670947 0.001735642
000260 4b 6e c7 3d 14 c8 a0 bc a1 52 fe 3c c6 20 52 bc
       0.097378336 -0.019626655 0.03104526 -0.012825197
000270 4d 6c cd bc 33 34 82 bb 32 c1 85 3d bc 24 b8 bd
       -0.025076056 -0.003973508 0.0653099 -0.089913815
000280 d8 72 d1 bc 3b 5f 84 3d f5 ec 5e bd 60 19 cc 3c
       -0.025567457 0.06463476 -0.0544252 0.024914443
000290 2f 19 00 3d 83 43 0d 3c 2d 6c 45 3c b6 2d 6b bd
       0.031274017 0.008622053 0.012049717 -0.05741664
0002a0 c2 f3 9e bc 5b 8e b9 bc 39 96 37 bb dd 9d 61 38
       -0.019403342 -0.022650888 -0.0028013124 5.3791202e-05
0002b0 cc 2d e8 bc a5 5e e8 bc 9d ea 82 3d 2e 2a 03 3d
       -0.02834215 -0.028365443 0.06392405 0.032022648
0002c0 bc 69 0f 3d a8 2b 32 3d 22 b7 ef 3b 07 22 76 3d
       0.035012946 0.043498665 0.0073155323 0.060091045
0002d0 60 29 d5 3c 87 04 db bc 34 5d bf 3b 93 ff 91 bd
       0.026020706 -0.026735557 0.005839968 -0.07128825
0002e0 a8 b9 47 bd 02 9c c4 3d 1b 93 d6 3d 2d 46 7c bd
       -0.04876104 0.09600069 0.10477277 -0.061590362
0002f0 56 2f 43 bd 3e e4 c7 3c fd 3f 7a bd ac fe 60 bc
       -0.047652565 0.024400827 -0.06109618 -0.0137325935
000300 c6 93 a2 bd 2c 72 46 bd 74 68 61 bd e3 b6 1d bc
       -0.07938342 -0.048448727 -0.055031255 -0.009626123
000310 7e 19 b7 bc d5 31 63 bd 89 71 4c 3d b9 be 05 bd
       -0.022351023 -0.055467445 0.049912963 -0.03265259
000320 7a 0d 4a bd 8b ac 48 3d 57 4a 47 3d 95 38 b6 bc
       -0.04932926 0.048992675 0.04865488 -0.022243777
000330 cd 13 2d 3b 9a 47 92 bb b2 32 65 bc 8b b4 90 bc
       0.0026409507 -0.004464102 -0.0139891375 -0.017664215
000340 a6 62 74 bd 8b 4d f9 3c 1b 6c 8e bb 8a 93 23 3d
       -0.05966439 0.030432483 -0.0043463833 0.039935626
000350 ce 0c 7a 3b 22 1b e4 bc 99 cc 33 bd 81 56 26 3c
       0.0038154605 -0.02784497 -0.04389629 0.01015246
000360 8c 25 36 3d 17 cd 93 3d de c1 96 3d f1 fc 92 3d
       0.0444694 0.07216852 0.07361196 0.07177151
000370 b6 e0 67 bd 7b bc 0b 3c 32 ba d7 3d 67 1c 22 3d
       -0.056610785 0.008528824 0.10533561 0.039577868
000380 06 36 40 3d ab 36 70 3d 19 78 08 bd 1e 5e 1b 3d
       0.04692652 0.058645885 -0.03331766 0.037931554
000390 27 b5 63 3d 18 9d 08 3c 74 eb 71 bd 37 c7 a3 3c
       0.055592682 0.008338235 -0.059062436 0.019992454
0003a0 09 24 61 3d 96 4a 98 3c b5 fd e6 3c 6b da 8d 3c
       0.054966006 0.018590253 0.028197149 0.017316064
0003b0 6b 0a 91 3d fb ed 38 3d 0c 69 bb bc 53 f2 06 3c
       0.07082065 0.04514883 -0.022877239 0.0082364855
0003c0 66 81 4b bd 41 93 ea 3b 2d fd c5 bd 0a 21 e3 3c
       -0.04968395 0.0071586673 -0.0966743 0.027725715
0003d0 f1 dd 35 3d 01 f7 9c bd e6 9d d8 3c e9 70 2d bc
       0.044401113 -0.076643 0.02644248 -0.010586002
0003e0 36 d2 98 bc 4c a5 0d 3d f9 3c dd 3b 19 89 23 bd
       -0.018654924 0.034581468 0.0067516533 -0.03992567
0003f0 87 33 94 3d 23 11 ae 3c 0d 42 2e bd d9 12 7c bb
       0.072363906 0.021248406 -0.04254346 -0.0038463383

encoder.layers.1.weight f4 [100, 500]
000000 d7 8f 7c bc 3e b8 0c 3c f0 60 78 3b 23 59 00 bc
       -0.0154151535 0.008588849 0.0037899576 -0.007833752
000010 a3 97 f6 39 39 03 5b bc 5a 17 b1 3c 13 89 b3 bc
       0.00047033755 -0.013367468 0.02161758 -0.021915948
000020 2d a6 a8 bc 16 b7 a0 bc 5a 5b fb bb 15 3d 9f bb
       -0.020587051 -0.019618552 -0.007670802 -0.0048595765
000030 ae 1d 83 ba a1 ca 16 3c a8 74 94 3c 94 77 ec ba
       -0.0010003352 0.009203584 0.018122032 -0.0018041008
000040 b4 a7 19 3c 5d 4d dd ba 4e 94 c5 bb f1 f4 2e bc
       0.009378362 -0.0016884018 -0.006029642 -0.010678516
000050 a9 d3 0d 3b b3 27 ad 3c 57 da 83 3c d8 2b c0 bb
       0.0021641052 0.021137094 0.016095323 -0.0058646016
000060 79 5d 68 bb 52 af dc 3c 3d 25 fa bc 58 ca 09 3d
       -0.0035456105 0.026939068 -0.030535335 0.033640236
000070 b4 ec 46 bb ca d1 e4 3b 09 a5 6b 3c 6b 99 c8 bb
       -0.0030353488 0.0069830166 0.014382609 -0.0061218045
000080 54 e1 ab 3b e1 de b4 3b 74 ad d1 bb 3d e8 82 bc
       0.005245367 0.0055197333 -0.006398851 -0.01597988
000090 17 83 4c 39 ed 68 0b bb b4 41 b5 3b 39 18 2f bc
       0.00019503791 -0.0021272257 0.005531514 -0.0106869275
0000a0 2a f9 af 3c 31 26 06 3c eb 3b a8 3c 02 85 9c 3c
       0.021481115 0.0081878165 0.020536384 0.019106392
0000b0 a2 c6 d1 3a 5b 3b dc bc ab 55 70 bc 3c cc 26 3b
       0.0016004632 -0.026883772 -0.014668862 0.0025451323
0000c0 f2 fc 0c 3c c3 df 82 ba 25 db 5c ba 90 b5 62 3c
       0.008605229 -0.0009984899 -0.0008424989 0.013837233
0000d0 8a 58 69 ba ad 0b 06 3a 59 db d1 3b df a7 52 bc
       -0.0008901438 0.0005113434 0.006404322 -0.012857406
0000e0 53 d8 69 bc 30 43 eb 3c cf 2a 5d 3c 6a ad ae bc
       -0.014272767 0.028718561 0.013498976 -0.021322925
0000f0 88 5c 57 bb 64 db 42 bc 06 75 f8 3a f8 8a 89 3a
       -0.003286155 -0.011893127 0.0018955774 0.0010493686
000100 90 a7 4b 3c d2 54 e7 bc ff d1 da bc f2 fc 68 3c
       0.012430087 -0.028238688 -0.026711462 0.014220463
000110 5d bd fc 3c b3 1f 83 3b af bb cd ba f2 8e b2 3c
       0.030852014 0.0040015816 -0.0015696193 0.021796677
000120 12 a1 7d bb d1 35 34 3a 01 72 28 3c 45 0e 1e 3c
       -0.0038700742 0.00068744743 0.010281087 0.009646957
000130 c5 fb cc bb ae 38 9b bb 20 08 a8 3c 7b d0 e8 ba
       -0.006255599 -0.0047369814 0.020511687 -0.0017762327
000140 e8 b5 a7 3b b0 83 5d 3b f8 ea b3 3b bc b6 eb ba
       0.0051181205 0.0033800416 0.005490657 -0.0017983536
000150 46 d3 a5 3b e0 dc 9f bc b2 43 7c 3c 21 18 ae 3c
       0.005060586 -0.019514501 0.015396999 0.02125174
000160 68 09 99 3c 08 fe 68 3c 24 59 6a bc e3 db 30 3b
       0.018681243 0.014220722 -0.014303479 0.0026986531
000170 f7 1b 04 3c 7b fe 2c 3c e5 d7 64 bc 50 59 24 3c
       0.008063308 0.01055872 -0.013967489 0.010031059
000180 b2 f5 10 ba 08 db 2d 3a de 28 e4 3b f7 7f f2 3b
       -0.00055297755 0.00066320645 0.0069628796 0.0074005085
000190 08 26 b8 3b 9e 52 0b bb 71 d1 65 3c 7d b6 47 bc
       0.005619768 -0.002125896 0.0140269855 -0.012189505
0001a0 64 da 10 ba a9 43 91 3b 88 1d 1e 3b 6b 51 2c bc
       -0.0005525707 0.0044331145 0.0024126489 -0.010517458
0001b0 e5 fe 83 bc 63 ed fc 3b 93 db 43 bc ad 6d 7f 3c
       -0.016112754 0.0077187284 -0.011954206 0.015590114
0001c0 3a 4d 6d 3c 8d f0 6b 3b 07 bd 70 3c c1 db f8 3c
       0.014483744 0.0036001534 0.014693505 0.030378224
0001d0 d2 6a 03 bc 33 e9 df bc 06 6c 7a 3a 68 17 d1 bc
       -0.008021073 -0.027332878 0.000955284 -0.025523856
0001e0 c1 68 a6 3a c9 ed b9 3b d9 30 7d bb 08 16 9e 3c
       0.0012696014 0.005674098 -0.0038633852 0.019297615
0001f0 0f 46 5e bc 01 e9 b6 3b c9 c1 b6 bc 06 6a e2 3a
       -0.013566508 0.0055819754 -0.0223092 0.0017274029
000200 0b d2 6b 3b e3 17 ee 3b 21 7a d7 bb fc 6a 34 3c
       0.003598335 0.007266031 -0.006575838 0.011011835
000210 2b c0 3b 3c 66 b9 ec 3b a9 5c b8 bc 8a c9 71 bc
       0.011459391 0.0072242497 -0.022505121 -0.014757523
000220 26 26 20 bb fc 7c 03 3c af 49 4d bc 63 48 8c bc
       -0.00244368 0.008025404 -0.012529775 -0.01712436
000230 33 54 62 3b 23 b9 65 bc 91 2b c9 bc 3a 48 a4 b8
       0.003453505 -0.014021191 -0.024556907 -7.833583e-05
000240 72 19 5e bc 97 54 37 ba 0a 7c 53 bb 98 42 d6 3c
       -0.013555871 -0.0006993501 -0.0032269978 0.026154801
000250 50 f2 65 3c 73 f2 35 3c 1c 43 c3 bc 4f c3 2d 3b
       0.014034823 0.011105168 -0.023835711 0.0026514118
000260 b6 27 5b 3b e8 d0 fe bb b6 98 99 bc 13 82 c6 bc
       0.0033440418 -0.0077763684 -0.018749576 -0.024231946
000270 ef d5 e7 bc 87 16 c3 3b ce a0 f7 ba a6 a8 66 3c
       -0.028300254 0.005953613 -0.0018892528 0.014078295
000280 ef 84 2a bc 46 20 45 bc 8a 61 85 3b 03 ae d8 bb
       -0.01040767 -0.01203162 0.0040704655 -0.0066125407
000290 b1 6a 14 3c e1 7a e7 bc b2 f6 a7 3c 2e 1c 89 3a
       0.00905864 -0.028256835 0.020503376 0.0010460669
0002a0 23 3a 15 3c 5c 31 2e 3b 3c fb 04 bc 54 7e 50 3a
       0.009108099 0.0026579713 -0.00811654 0.00079533947
0002b0 b5 b4 0e bc 93 e3 be bc f2 38 3e 3c af 80 03 3c
       -0.008710076 -0.023301875 0.0116102565 0.008026286
0002c0 ed d0 bf bb 65 14 34 bb 0a f6 2b bc 26 d2 6e 3c
       -0.0058537633 -0.0027477976 -0.010495672 0.0145764705
0002d0 e6 52 91 3c 45 47 d4 bb f9 15 93 bc 3f ce 7c bc
       0.017739724 -0.0064782226 -0.017954813 -0.015430032
0002e0 2a 57 a6 3b 5e b7 50 bb 0b b3 95 ba 6e f1 8b 3b
       0.0050763087 -0.0031847577 -0.0011421157 0.004270724
0002f0 f5 af 89 bc ad c6 2c 3c 2f 0f da bb 29 43 e3 3c
       -0.016807536 0.010545415 -0.006654642 0.027741985
000300 68 0c 67 bb 9c 9a 6a bb c1 14 88 3c 96 79 d2 ba
       -0.0035255197 -0.003579772 0.016611459 -0.0016057964
000310 a1 c3 43 3c 13 49 5b 3c bb c3 93 bc d9 fb 92 3c
       0.011948497 0.0133841215 -0.018037667 0.017942356
000320 e5 e0 a8 3b 45 a4 a7 bb 51 d0 8c bb 8b 1b 6a 3c
       0.0051537626 -0.005116018 -0.004297294 0.014288793
000330 f4 d8 e4 ba 96 1a 03 bb 1a 3f 55 bc a5 14 f2 ba
       -0.0017459677 -0.002000486 -0.013015533 -0.0018469287
000340 37 b3 17 bb a9 9b 14 3b 06 d1 5d bc 8c be fc 3b
       -0.0023147592 0.0022675788 -0.013538605 0.0077131446
000350 50 43 5c 3b a7 d4 2f 3b b9 00 a7 3c 95 12 16 bc
       0.0033609457 0.0026829632 0.020386087 -0.009159704
000360 d6 55 a7 3c a1 de 8f ba 9b 3c b0 3b 7f 04 f4 3b
       0.020426672 -0.0010976383 0.0053783185 0.007446825
000370 a1 d8 33 bb 5d 46 7c 3b 83 66 66 3c b0 fc ce 3b
       -0.0027442353 0.0038494088 0.014062527 0.006316744
000380 92 96 b0 bc 03 26 ac 3c d7 24 24 3c 36 8e bf 3c
       -0.021556173 0.02101422 0.010018549 0.023383241
000390 cf 79 e7 3a 38 c0 00 bc 19 d7 08 3b 94 c9 b8 3b
       0.0017660203 -0.0078583285 0.0020880161 0.0056392644
0003a0 8e fd bb bc ee 20 86 3c 71 26 0f bb e5 af d6 bc
       -0.022948053 0.016373124 -0.0021842981 -0.02620692
0003b0 9e 36 c1 3c 03 be 95 3a fc 9d 05 bc 23 01 fd 3c
       0.023585614 0.0011424426 -0.008155342 0.030884331
0003c0 7a 6b 27 bc 8c 18 9d 3c d5 e3 69 3c 77 33 06 3c
       -0.0102184955 0.019176744 0.014275511 0.008190981
0003d0 c4 8b fb bc 48 77 03 3c a0 70 41 bc f6 24 be bc
       -0.030706294 0.008024044 -0.011806637 -0.023210984
0003e0 db 26 54 bc 45 30 85 3c a5 e4 06 bc cf 10 73 3b
       -0.012948717 0.016258368 -0.008233224 0.0037088876
0003f0 57 e5 ca bb 6a 6a 04 bc 77 a8 26 bb 82 5a 9b 3b
       -0.00619189 -0.008082012 -0.0025430003 0.004741014

encoder.layers.1.bias f4 [100]
000000 c2 f1 c4 3c bd 6a 9c 3c 07 38 20 bd 7b 8b b3 3c
       0.02404106 0.019093866 -0.03911593 0.021917095
000010 08 76 d5 3c 42 5f fc 3c 1e 34 b1 3c cb b5 8b 3b
       0.026057258 0.030807141 0.021631297 0.004263615
000020 1b c8 66 3c 99 44 1e bc 53 de 1a bd 80 73 06 3d
       0.014085795 -0.00965991 -0.03780968 0.032824993
000030 36 8e 46 bd d3 c6 45 bb 57 a7 c9 3c 1a 74 eb bc
       -0.048475467 -0.0030178323 0.024615927 -0.028741885
000040 aa cf 0e 3d 6a 98 1e 3d 5d c4 2a 3d cc e5 18 bd
       0.034866013 0.038719572 0.041691173 -0.037328526
000050 d6 27 02 3d 65 a0 95 bc 52 d7 5e bb 1a ab 0d 3d
       0.03177627 -0.018264959 -0.0034002853 0.034587003
000060 8e 08 a7 bc 92 5b c7 3c fb 08 3c 3c 96 aa a3 bc
       -0.020389821 0.024335656 0.0114767505 -0.019978803
000070 ee 80 40 3b 72 5d ae 3c 6f 77 fe bc e9 f0 a0 3c
       0.0029373723 0.021284793 -0.03106281 0.019646125
000080 39 3d b8 3c 0b c0 b5 bc 38 1e 08 3d 9c d0 f2 bb
       0.02249013 -0.0221863 0.033231944 -0.007410122
000090 78 6a 44 3b 53 e0 74 3c c6 59 a2 3c 65 cd 1e 3d
       0.0029970687 0.014946061 0.019818198 0.0387701
0000a0 ea da c0 bc 93 2a 87 3c a9 b3 f6 bb ac 0b d6 3c
       -0.023541886 0.016499793 -0.0075287414 0.026128612
0000b0 2e a6 ed bb 39 07 06 bd a9 ac 08 bc 4f 10 ad bc
       -0.007252476 -0.03272173 -0.008341947 -0.02112594
0000c0 e3 1e ff 3c 27 9e ec bc da af 2e 3c 34 7e 11 bd
       0.031142658 -0.028884007 0.0106620435 -0.035520747
0000d0 82 fa ba bb ae 1a e6 bc 7f ed c4 bc ed 82 19 bd
       -0.0057061324 -0.028088894 -0.024039028 -0.037478376
0000e0 79 c3 ca 3c 7c b6 8b 3b cb f3 0d bd ed 2d d9 3c
       0.024751412 0.004263697 -0.034656327 0.026511157
0000f0 b5 03 9d 3a 62 19 08 3d 5a 4c 87 bc 4d 7a d5 39
       0.0011979254 0.033227332 -0.0165159 0.00040717647
000100 51 2e 12 3b 86 21 09 bd 18 07 a5 bc 7b e5 9c bc
       0.0022305439 -0.033479236 -0.020144984 -0.019152394
000110 58 46 87 3c 26 17 b2 b9 db 8e de 3b 0c 0a 95 3c
       0.016513035 -0.00033968053 0.006791932 0.018193267
000120 8b 31 2c bc f4 b0 03 3d 0f 50 83 bc f3 d2 25 bc
       -0.010509859 0.032151178 -0.016029386 -0.010121095
000130 8e d1 92 3c 68 ee cb bb 43 ef 8f 3b 18 d3 92 3b
       0.01792219 -0.0062234886 0.004392536 0.0044807307
000140 62 03 c0 bb 4b 30 a0 3a 46 79 20 3d 8b b9 75 3c
       -0.0058597783 0.0012221424 0.039178155 0.01499785
000150 1c 9f 57 3c 3d 10 aa 3a 72 12 95 3c dd f5 00 3b
       0.013160493 0.001297481 0.018197272 0.0019677796
000160 48 10 c4 3c bb 91 02 3d 04 9b 36 bc c6 a5 d0 3c
       0.023933545 0.03187726 -0.011145357 0.025469672
000170 79 e3 c0 bc de 73 14 3d d1 7e a1 bc eb 1e f3 3b
       -0.023545967 0.036243312 -0.019713791 0.007419457
000180 a7 6b 55 ba 1b b2 26 3d fe 24 ec 3c a9 04 77 3c
       -0.00081413466 0.0406972 0.028826233 0.015076795

encoder.mean_layer.weight f4 [3, 100]
000000 89 84 6d 3d 8a 1d 0b bd ce ad 34 3d 84 73 48 bd
       0.057987723 -0.033963718 0.044111066 -0.04893829
000010 a9 2a 05 3d ad ba b1 bc 9a fe 2b 3d 46 af 22 3d
       0.032511387 -0.02169546 0.041990854 0.039717935
000020 5c 81 39 bd d5 9e 8b bd 01 21 3a 3d ef b3 94 bd
       -0.045289382 -0.06817404 0.04544163 -0.07260882
000030 69 60 8f bd 6f a1 b4 3c 3f 5d 95 3d 76 f1 a1 bd
       -0.07000811 0.022049634 0.07293176 -0.07907383
000040 e6 01 23 bd 18 d7 83 bd 09 d5 cd 3d dd 08 11 3d
       -0.039796732 -0.0643751 0.10050399 0.035408843
000050 de a9 f8 bd d4 32 03 be 99 df 92 3d f7 cd 52 3d
       -0.121417746 -0.12812358 0.07171554 0.051465955
000060 6f 3d 6c bd f4 8a a1 bd 00 26 90 bd 45 06 8d bd
       -0.057675775 -0.07887831 -0.07038498 -0.068859614
000070 70 34 cd 3d fe b2 ae bd 41 24 7e 3d dc a2 86 bb
       0.10019767 -0.08530234 0.062046293 -0.00410877
000080 67 b7 6e 3b fd 46 73 bb b1 cb f3 3c 1c 45 cb bd
       0.0036425234 -0.003712117 0.029760214 -0.09925291
000090 59 30 01 bd 96 d0 a7 bc 7c f2 91 3d 45 77 8c 3d
       -0.03154025 -0.020485204 0.07126328 0.06858686
0000a0 d7 c9 7c bd e3 05 db 3c f7 ed 21 bd ae 58 ac bd
       -0.061715927 0.026736205 -0.03953358 -0.08415352
0000b0 3e 99 90 3d 3c 33 8b 3d 7f 76 b6 bd 3f de ab 3d
       0.07060479 0.067968816 -0.0890932 0.083919995
0000c0 5f 69 24 3d 2e d3 c8 bd 22 6e 85 bd 41 fe 35 3c
       0.040139552 -0.09805904 -0.06515147 0.011107982
0000d0 7b b7 00 be d1 87 a4 bd 03 72 4c bc e4 32 41 bd
       -0.12569992 -0.080337174 -0.012478354 -0.047167674
0000e0 b9 8f 4f 3d 07 e4 db 3d e5 8c 80 bc 66 c0 a7 3d
       0.050674174 0.10736852 -0.015692184 0.08190994
0000f0 3d 01 cc 3d 50 77 a8 bd 93 3a 45 3d 8d c2 1d 3d
       0.09961174 -0.08225882 0.048151564 0.038515616
000100 4e ec 03 3d 70 09 22 3d 64 26 09 3d 09 09 25 ba
       0.03220778 0.03955978 0.033483878 -0.0006295597
000110 1f 0c a6 3d 30 18 c4 3d a2 bd b5 ba 7c 2e e2 3c
       0.08107781 0.09574926 -0.0013865719 0.027610056
000120 de 0b 28 39 d8 14 e1 bc 0d ac d8 bd 40 0e 03 be
       0.0001602615 -0.02747576 -0.10579691 -0.12798405
000130 26 ca db 3c 6f 1a 7b 3d 82 c9 f1 bd a8 0b b8 bd
       0.02682979 0.061304506 -0.11806013 -0.08986598
000140 29 be f6 3c 88 40 c2 bd c5 6a cf bd 01 4f a8 3d
       0.030119972 -0.094849646 -0.101277865 0.08218194
000150 63 e4 04 bd 83 3c d0 3d 9f 28 93 bc 6a 73 b0 3d
       -0.03244437 0.10167792 -0.017963706 0.086157635
000160 95 78 6b bc 86 3b 75 3d 66 fa db bd b8 d4 1f bd
       -0.014372011 0.05987122 -0.10741119 -0.039021224
000170 16 bb c0 3c 8d b4 66 bd 2a 19 c4 3d e9 a1 b6 3d
       0.02352671 -0.05632453 0.09575112 0.08917601
000180 07 6a 75 bb 52 3b 59 3c 7e 6f cf bd 29 02 fd 3d
       -0.003744723 0.013258772 -0.10128687 0.12353928
000190 ff 10 cf 3c c3 5d 62 3d 2d 9d 71 bd 35 fd 30 3d
       0.025276659 0.0552652 -0.058987785 0.043210227
0001a0 60 81 6c 3d 6a 6f 76 3d a7 48 7f bd e8 3b 5b bd
       0.05774057 0.060164846 -0.062325146 -0.053523928
0001b0 af 14 e0 3c 5d 1d 40 bd 25 b2 cf 3c c2 69 96 bc
       0.027353613 -0.046903003 0.0253535 -0.018360976
0001c0 d0 d2 b9 3c c2 92 93 bd 75 03 89 3d 2c dd e9 bc
       0.022683531 -0.07205726 0.066901125 -0.028547846
0001d0 11 5b 90 bc 08 5e 63 bc d1 8d 6a 3d 88 a8 a4 bd
       -0.017621549 -0.013877399 0.057264153 -0.08039957
0001e0 54 8a 5f 3d 2a 75 94 3d 3a bb 9a bc 55 5b a8 bd
       0.05457528 0.0724891 -0.018888105 -0.08220545
0001f0 c5 e8 41 bd 1a 0b 28 bd 9d a5 c0 bb 6b d3 ab bd
       -0.047341127 -0.041026212 -0.0058791176 -0.08389934
000200 0c 09 06 bd be 73 14 bd 90 1d 47 3c ab 2f 9c 3d
       -0.03272347 -0.036243193 0.012153044 0.076262794
000210 d0 44 01 bd 9c 8d 22 bc ba 9c 57 bd 45 ab 4d 3d
       -0.031559765 -0.009921458 -0.0526397 0.050212163
000220 9b cc 11 3d 61 ab fb bc c2 d7 7a 3d 31 19 62 3d
       0.035595518 -0.030721368 0.06124092 0.055199806
000230 ab f0 f7 bc cd b7 51 bd 86 eb 97 bd c6 68 a8 bc
       -0.030266127 -0.051200677 -0.074179694 -0.020557772
000240 14 07 d3 3c a4 37 5a bd 2e 66 03 3c 75 80 b5 bb
       0.025760211 -0.05327572 0.008019967 -0.005538995
000250 7e 59 15 bd 41 24 a9 3b b3 28 0c bd 4c 47 86 3c
       -0.0364623 0.0051617925 -0.0342185 0.016391419
000260 9c 16 3a 3a 3b c9 0c 3d fa 89 b6 3c 14 d7 91 bd
       0.0007098706 0.034371596 0.02228259 -0.07121101
000270 da 7c 04 bd df ef 62 bd 20 5d 92 3c b8 e8 69 bd
       -0.03234563 -0.05540454 0.017866671 -0.057106704
000280 c7 b0 9c bd 4e 21 af 3c 88 fc ad 3d 7d 90 57 bc
       -0.07650905 0.021378186 0.08495432 -0.013157007
000290 a8 07 f0 bc 09 ed 38 3d 44 22 60 3d 23 16 1a bc
       -0.029300526 0.04514793 0.05472018 -0.009404692
0002a0 17 24 9e bc 44 2a 95 bd e9 09 88 3d 0e 0b 38 3d
       -0.019304318 -0.07283452 0.06642515 0.044932418
0002b0 71 75 c9 3c a0 81 8e bd 64 9d 36 bd 72 49 3f 3d
       0.024592133 -0.06958318 -0.044583693 0.046700902
0002c0 c1 95 ae bc a8 c4 67 bd 2f 63 c6 3c 9f cf 49 bd
       -0.021311643 -0.05658403 0.024217216 -0.04927027
0002d0 77 a2 6e bd 90 22 53 3c 9a 5c a0 bc e2 c8 80 3d
       -0.058260407 0.012886658 -0.019575406 0.06288315
0002e0 95 da 95 3d 92 57 db 3a 4c da d8 bc 81 da 20 3d
       0.07317082 0.0016734472 -0.02647128 0.03927088
0002f0 40 99 77 bc 24 1c 85 3d 9d c8 a0 3d 3d 18 36 3d
       -0.015112221 0.06499508 0.07850764 0.04445671
000300 90 ad 15 3d b4 8a b3 bc 41 4c 25 bd e4 60 9a 3d
       0.036542475 -0.021916725 -0.040355925 0.07538012
000310 53 cf 3a ba c5 20 b6 bc 3e 2c 3e bc be 49 a0 3d
       -0.00071262306 -0.022232423 -0.011607228 0.07826565
000320 e2 6a 25 3d 22 b1 e6 bc 56 80 38 bc 22 8a 5a 3d
       0.040385135 -0.028160635 -0.011261066 0.05335439
000330 c2 33 29 3d da e2 33 bd 8d 80 74 bd 7d c4 88 3d
       0.041309126 -0.043917514 -0.059692908 0.06678102
000340 62 c6 2e bd 95 1b ff 3c 19 82 92 bd a4 f3 e9 3c
       -0.04266966 0.031141082 -0.071537204 0.02855856
000350 07 56 81 bd 04 2a 99 bd 5a 79 10 3b 9f 46 a5 bd
       -0.063152365 -0.07478717 0.0022044987 -0.080701105
000360 00 8e 1f 3d f2 1b 87 bd 5a 1a 13 bd 68 65 17 3d
       0.03895378 -0.06597127 -0.035913803 0.036961943
000370 39 63 03 3d 21 a6 1b 3d d6 43 48 3c 36 e8 2a 3d
       0.032077048 0.03800023 0.012223205 0.04172536
000380 7e fa e8 3c 4a c7 85 bd c7 e7 79 3d 88 38 b3 3c
       0.028439756 -0.06532152 0.061012056 0.021877542
000390 51 28 de 3c 95 5a 5a 3c cc e0 a1 3d 83 11 4c 3d
       0.027118834 0.0133272605 0.07904205 0.049821388
0003a0 6c 13 7e 3d e1 1f c1 bc c9 69 7f 3d c2 a4 a4 bd
       0.06203024 -0.023574771 0.062356744 -0.080392376
0003b0 b9 b5 b1 bc 0e 2c 81 bc 5b e7 1a 3c 8e 27 58 3d
       -0.021693097 -0.015768077 0.0094545735 0.052772097
0003c0 ba c1 85 bd 0e 37 8f 3d 1e 3d 5c 3c 77 b6 72 bd
       -0.06531091 0.06992923 0.013442306 -0.059256043
0003d0 f6 ea 1d 3c 99 b2 de 3b 71 e0 41 bb 07 57 49 bd
       0.009638539 0.006796193 -0.002958324 -0.04915526
0003e0 37 fd 59 3b 5d ee 9d 3d 68 39 90 3b 65 bb 05 bd
       0.00332625 0.0771148 0.0044013746 -0.032649416
0003f0 93 c8 43 bd 82 c4 7b 3c af 48 3e 3c 4a 65 94 bd
       -0.047798704 0.015366675 0.011614009 -0.07245882

encoder.mean_layer.bias f4 [3]
000000 c4 ad 9d 3d f8 27 c1 3d 70 41 a8 3c
       0.07699159 0.094314516 0.020539016

encoder.logvar_layer.weight f4 [3, 100]
000000 a7 9f c0 bd 9f d5 2d bd 5d 82 72 3d 75 af 99 3d
       -0.09405451 -0.042440053 0.059206355 0.07504169
000010 85 04 66 bd 81 bd c4 3d a3 72 b8 3d 00 e4 83 bd
       -0.056156654 0.096064575 0.0900624 -0.06439972
000020 69 52 93 3d aa 24 51 bd 60 d3 00 3d f2 55 b6 bd
       0.07193453 -0.051060356 0.031451583 -0.089031115
000030 b4 d4 d5 3d 6b 24 a6 bc 91 f4 cb bb 29 a6 a0 bc
       0.104409605 -0.020281037 -0.006224223 -0.019610481
000040 69 4d 4b bc bf 16 5d 3d 6e cc ff bc 55 f1 b0 3d
       -0.012408593 0.05397677 -0.03122541 0.086397804
000050 b1 2a 52 bd 7a 18 81 bd 12 62 9a 3d 3a 95 cd 3d
       -0.051310245 -0.06303497 0.07538237 0.10038228
000060 87 85 05 be b2 db c7 bd ef e6 92 3d 23 2e 73 3c
       -0.13039218 -0.097587004 0.07172953 0.014842543
000070 ea 9a bd bd 8c 4a 01 be 0d db ad 3d 0f 95 b3 bd
       -0.09258063 -0.12626094 0.08489046 -0.08768665
000080 0c 88 7d 3c 07 e2 a0 bd 27 7e a2 bd 98 0d 6b 3d
       0.015474331 -0.07855611 -0.07934218 0.05738601
000090 92 1c 64 bd 8f a9 03 be 4b 7f c4 3d 8c 59 ad 3c
       -0.05569131 -0.1285765 0.09594592 0.021160863
0000a0 95 15 72 3d 28 45 8f bd 10 f8 0c 3d 02 ce 90 3c
       0.059102613 -0.069956124 0.03441626 0.017676357
0000b0 7f 15 b4 3c a2 2e bd 3c 9f 1f 61 bc 21 b7 a8 bd
       0.021982906 0.023093525 -0.013740449 -0.08238054
0000c0 76 dc e2 bd 12 8f a1 3d 26 1d 50 3d 4a fe b9 3d
       -0.11077206 0.078886166 0.050809048 0.09081705
0000d0 94 e6 90 3d d4 00 dc bb b4 fb c1 3d 94 49 90 bc
       0.07075229 -0.006713966 0.09471837 -0.01761321
0000e0 f4 0c eb 3b 4e 62 84 3d 06 72 06 3c 1a b7 77 3d
       0.007173175 0.06464063 0.008205896 0.060477354
0000f0 6d dc 79 bb 4d a9 bf bd 23 37 46 bd a4 97 b0 3d
       -0.0038125769 -0.093584634 -0.048392426 0.08622673
000100 9e 3e 71 3d 77 15 71 bd dd 54 a8 bc c8 1e 74 3d
       0.058897607 -0.05885836 -0.020548278 0.059599668
000110 58 a1 c2 3d 32 18 48 bd 28 73 e4 3c c3 72 f2 3d
       0.0950343 -0.0488512 0.027886942 0.11838295
000120 e2 62 cf bd ef 1d b4 3d 5d bc 21 3d cc 6d dc bc
       -0.10126282 0.08794772 0.039486278 -0.026907824
000130 83 43 e2 3d d5 d2 b3 3d 4b 79 5a 3d 2f 3f 01 be
       0.11048033 0.087804474 0.05333833 -0.12621759
000140 62 90 ec bc 4d 45 51 3a 4f db 9d 3c 9b 76 e7 3d
       -0.02887744 0.0007983044 0.019269614 0.11301919
000150 8d a4 d2 bd f6 5f c3 ba 91 e1 d4 bd 90 f6 80 3d
       -0.10285292 -0.0014905918 -0.10394586 0.06297028
000160 62 6a 83 bc a8 d8 cd 3d c2 7f 9a 3c 72 c2 d6 3d
       -0.016041938 0.100510895 0.018859748 0.10486306
000170 4b 22 bb bd 76 f8 c9 3c 8a e1 ac 3d 6f 08 99 3c
       -0.091374 0.024654608 0.08441456 0.01868078
000180 41 b4 48 3d 93 20 ce bd 2c de 9f 3d 06 6b 8d 3d
       0.04900003 -0.10064807 0.07806048 0.06905179
000190 ec 25 ea bc 1a b5 b3 bd 4e 81 ac bc 7a ec 39 bd
       -0.028582536 -0.08774777 -0.021057751 -0.045391537
0001a0 35 f0 4e 3d 29 9e f3 3c 92 cd 8f 3d e8 79 83 bb
       0.050522048 0.029738503 0.07021631 -0.004012335
0001b0 4d 4a c1 bc a0 96 b2 3b d5 35 48 bd 99 d6 c7 3c
       -0.023595 0.005450085 -0.048879463 0.02439432
0001c0 32 5c 1b bc 9c 9b 9c 3d 27 ea b3 3d cb f7 6c 3c
       -0.00948243 0.07646868 0.087848954 0.014463375
0001d0 e8 6c 91 3d 3d e1 b1 3d 22 5e 0a 3d 3f 3f a4 3d
       0.0710085 0.08685539 0.03378118 0.08019876
0001e0 3a ab 22 3d ab 87 2b 3d c1 13 c3 3d 89 c8 8c 3d
       0.039714076 0.04187743 0.09525252 0.068741865
0001f0 91 3a 35 bb 5f 66 64 3d 94 68 86 3d c1 55 77 bd
       -0.0027653317 0.05576169 0.065629154 -0.060384516
000200 55 ec 25 bd b4 1c 01 3d 2f e0 ab bd b0 a6 32 3d
       -0.040508587 0.031521514 -0.08392369 0.043615997
000210 d6 3a 85 bd 29 8a 55 bd 61 ce ca bd af 9a 9a bd
       -0.06505363 -0.052133713 -0.09902645 -0.07549035
000220 39 34 7b bc 6e 8d 4b 3d 35 9c 43 3d b8 3a 93 3d
       -0.015332275 0.049695425 0.047756393 0.07188934
000230 74 77 ca bd 08 58 ad 3d b0 99 95 bd 40 d4 6e 3d
       -0.09886065 0.08464056 -0.07304704 0.058307886
000240 56 0b 1d 3a a4 c4 28 bd 1d 50 ee 3c 00 c5 1f 3d
       0.0005990764 -0.041203156 0.029090935 0.039006233
000250 61 7b 88 3d 67 cc 4c 3d 74 08 73 3d 81 22 99 bb
       0.06664158 0.04999962 0.059334233 -0.0046733026
000260 b7 02 8e 3d 4c 6d 75 3d ac ca 52 bc ba e9 ba bc
       0.069341116 0.059918687 -0.012865704 -0.022816528
000270 5c 64 b2 bc 4e d6 16 3d 12 ec e3 bd 02 5a da 3c
       -0.02177637 0.03682547 -0.11129011 0.026654247
000280 1d 10 7a bd 06 60 1f 3c 16 85 ec bc f3 51 a5 3a
       -0.061050523 0.009727484 -0.028872054 0.0012612924
000290 fa 35 44 3d 52 fe 1b bd 79 6b 48 bd 14 fe 22 3b
       0.04790304 -0.038084336 -0.04893062 0.002487068
0002a0 c0 35 18 bd 5b 4e e8 bc 3a f1 a7 3c df 75 bc 3d
       -0.037160635 -0.028357675 0.020500768 0.092021696
0002b0 9f 67 d3 3c 60 a3 63 bd 12 23 99 bd 21 ee 87 bd
       0.025806246 -0.05557573 -0.07477392 -0.06637216
0002c0 1c 89 28 3c eb 2c 6d bd e3 4c 6b 3c ac cb dd bc
       0.010286596 -0.057904165 0.014361593 -0.027074657
0002d0 b0 83 9e bd a8 8f 27 3c d2 39 4b 3d a4 d0 0f bc
       -0.07739961 0.010227121 0.04961569 -0.008777771
0002e0 42 97 c3 bd 96 2a 4f 3d 5f ec 27 bd 00 4f fe bc
       -0.095503345 0.050577722 -0.040996905 -0.03104353
0002f0 9d 53 c2 3d 00 66 90 3d 46 2e ac 3d 79 ff a4 3d
       0.09488604 0.07050705 0.084072635 0.0805654
000300 30 2f a6 bd 15 7c 05 3d 70 cc c1 3b e6 0f ac 3d
       -0.08114469 0.032589037 0.0059142634 0.0840147
000310 6f ee 51 bd 2d b5 a3 bd 86 b9 8a 3d d1 92 9b bc
       -0.05125278 -0.07993541 0.06773667 -0.018990906
000320 39 8f 89 bb ad b3 2e 3c 1d ac 58 3b d4 5f 03 3d
       -0.0041979817 0.010662955 0.0033061572 0.03207381
000330 5b 2a ee 3c 5d d9 84 bc cc 57 0d bd 17 f5 8e 3d
       0.029072931 -0.016216928 -0.034507558 0.06980341
000340 3d 60 96 bd 6d ae d6 bc bb 42 3b bd f4 3a 21 bd
       -0.07342575 -0.02620622 -0.045717936 -0.039362863
000350 58 34 06 bd 74 fa 58 3b de e0 dd 3b 32 66 63 bc
       -0.032764763 0.0033108266 0.006771191 -0.013879346
000360 28 2a a2 3d 4d 43 46 3d f4 1d d7 3b 5b 95 96 bc
       0.07918197 0.048404027 0.00656485 -0.018381765
000370 35 99 ca bc a7 d6 94 3c eb 94 c4 3c ba 1c 3c bd
       -0.024731258 0.01816876 0.02399679 -0.045925833
000380 55 80 0d 3c 01 16 f7 bc e7 22 5c bc 63 0b f9 bb
       0.008636554 -0.03016186 -0.013436056 -0.0076002344
000390 b1 ca 95 bd db ef 26 bd 5d 29 8a 3d 06 2d 9f 3d
       -0.07314051 -0.040756088 0.06746171 0.077722594
0003a0 92 e1 5f bd f5 ff b9 bd e1 23 b8 bd 81 cd 08 3d
       -0.05465848 -0.09082023 -0.08991218 0.03339911
0003b0 a2 d4 d3 bd 40 e6 3c bd 2b 0e 70 bd 6c c8 ca 3d
       -0.10343291 -0.04611802 -0.05860726 0.09901509
0003c0 fa f5 e1 bd 26 bb fc 3c e0 cb 2c bd 8b 99 2b 3d
       -0.110332444 0.030850958 -0.042186618 0.041894477
0003d0 8c 82 0e 3d a7 d1 96 3d b6 2d b6 bd 77 3e 8c 3d
       0.034792468 0.07364207 -0.088954374 0.06847852
0003e0 bd 5b 91 bd 70 b5 61 b9 a8 e3 75 bb 79 92 aa bd
       -0.07097576 -0.00021525263 -0.0037519727 -0.08328719
0003f0 d7 ef 27 3d 34 79 17 bd 65 53 82 3d 93 12 aa bd
       0.041000213 -0.036980823 0.063635625 -0.08304324

encoder.logvar_layer.bias f4 [3]
000000 e2 74 8c 3d 57 42 d9 bb 76 4d 4d 3c
       0.06858231 -0.006630223 0.012530675

decoder.layers.0.weight f4 [100, 4]
000000 07 2e f2 bc 16 22 88 3c 7f fa f6 3d c0 a8 24 3e
       -0.029562963 0.016617816 0.12059497 0.16079998
000010 c4 e6 bf bd ca 5d e8 be ee fc a4 3e 29 ad bd 3e
       -0.09370187 -0.45384055 0.3222422 0.37046173
000020 1d f3 a2 3e 77 e3 fd bd c2 db 9d 3c 0d bd 8f 3e
       0.31826106 -0.12396901 0.019269828 0.28073922
000030 35 f4 bf 3e 61 65 e4 bd 63 b1 87 3e 99 ef bd 3e
       0.37491003 -0.11152149 0.26502523 0.3709686
000040 06 93 ac bd ab a2 d4 3d 92 f8 0b 3e 88 cc f1 3e
       -0.0842648 0.10382589 0.13669041 0.47226357
000050 67 64 cc 3e b4 48 3e 3e 3e e0 32 be 43 1b 0d bf
       0.3992035 0.18582422 -0.17468354 -0.55119723
000060 24 f5 45 3e fd f2 ea 3d 71 f5 b6 be 39 b0 ff 3e
       0.19331795 0.114721276 -0.35734132 0.49939135
000070 6c 1d 8c be ce be d8 3d 90 31 f1 bd c6 c3 ef be
       -0.27366197 0.10583268 -0.117770314 -0.4682905
000080 b1 2b 2e be 4c e9 be be ca 3f 0f be 52 9d cc bd
       -0.17008854 -0.37287366 -0.13989177 -0.09990944
000090 c4 25 89 be 8c e4 e5 bd 7e 3e c9 3d 6f 06 92 3d
       -0.26786625 -0.112252325 0.098263726 0.07130133
0000a0 ab b2 28 3e f6 2b 7b be 50 58 3d be 30 5c d7 be
       0.16474406 -0.24528489 -0.1849072 -0.4206252
0000b0 f3 92 8a 3e 1e c3 9e bc e0 2e 0e be 6f 03 e4 3e
       0.27065238 -0.019380149 -0.13885069 0.4453387
0000c0 0d 6b 4f be f7 d6 cf 3e a6 d9 6e be 58 48 6a 3e
       -0.2025568 0.40593693 -0.23325214 0.2287916
0000d0 13 7b 7b be 32 fd d0 3c 08 56 0e be f6 6c 83 3e
       -0.24558668 0.025511358 -0.13900006 0.25669068
0000e0 e2 ca 47 3d 31 4a c9 be 31 ea 87 3e 82 b4 38 be
       0.04877747 -0.39314416 0.2654586 -0.18037608
0000f0 b6 5b 72 3e 4b a8 e3 be 54 8d ce 3e 38 58 6a be
       0.23667797 -0.44464335 0.403422 -0.22885215
000100 41 49 95 3e 0b 99 8d be f4 76 50 be a6 23 1e bf
       0.2915745 -0.27655825 -0.20357877 -0.61773145
000110 67 3f 97 3e cb 7f 51 3e 42 ca 85 3d 1e b0 ca be
       0.2954056 0.20458905 0.06532718 -0.39587492
000120 39 80 de 3e c9 65 60 be d2 51 d2 bd 76 1d 52 3e
       0.434572 -0.21913828 -0.10269512 0.20519051
000130 55 6d bd 3e 9e 6c 33 3e 82 d4 52 bd 4c 2e c7 3e
       0.36997476 0.17521903 -0.051472194 0.3890251
000140 05 60 95 3e d4 d6 a2 3c 8e 7f 06 be 4f fd f5 3d
       0.2917482 0.019877829 -0.13134596 0.120112054
000150 13 39 43 3e f9 9e 70 3e 68 fe 89 be 29 bf 96 bd
       0.19064741 0.23498143 -0.2695191 -0.0736068
000160 54 49 a4 3e a4 57 d5 3d d8 a3 a9 3e ed ce 62 3e
       0.32087195 0.10417107 0.33132815 0.22149248
000170 65 9e 3f 3e 9e 25 e0 bc 73 a4 80 bd ec 4f 9a 3e
       0.18712766 -0.027361687 -0.06281366 0.301391
000180 76 cd 99 be a4 d5 d5 be 25 7f 73 be d1 a4 7e 3e
       -0.30039567 -0.41764557 -0.2377897 0.2486756
000190 49 b0 b1 3e 35 0c f4 bc 58 87 1c 3e 80 38 06 3e
       0.34704807 -0.029790977 0.15286005 0.1310749
0001a0 37 e1 f6 3d 90 e8 5a 3e bc f8 cc bd 9e bb 0a 3f
       0.12054675 0.21377778 -0.1000838 0.5419253
0001b0 f6 ff f0 3e ff 1c 38 3e 38 8b 8d 3e b1 2a 9f be
       0.47070283 0.17979811 0.27645278 -0.31087258
0001c0 e1 d5 8e 3e 25 03 5d be 3c 2f 07 be c7 61 c2 be
       0.27897552 -0.21583231 -0.13201612 -0.37965223
0001d0 e3 5e 7c 3e bc 76 0c bd 1b 21 9c be 22 03 1f be
       0.24645571 -0.03429292 -0.30494007 -0.15528539
0001e0 54 5f df be 21 ab 68 be da c1 ae 3e 31 23 08 bf
       -0.43627417 -0.2272153 0.34132272 -0.531787
0001f0 91 4c d7 3b f8 d0 18 3e 25 ff b5 be 05 65 69 3e
       0.0065704067 0.14923465 -0.35546222 0.22792442
000200 54 a9 ce 3e e5 2a 4f be b5 d8 70 3e 00 74 f8 be
       0.40363562 -0.20231207 0.23520167 -0.48526
000210 e3 d9 88 be 1e 09 c5 3e 1d 68 be 3e 67 1c b3 be
       -0.26728734 0.38483518 0.37188807 -0.34982607
000220 0b 7a c1 3e 6b 31 f7 bd be b8 8e bd 91 8b d4 3e
       0.37788424 -0.120699726 -0.069688305 0.4151273
000230 a6 e5 ca be 7c d3 11 3e 52 a6 d6 3e a0 f6 0b 3f
       -0.39628333 0.14240831 0.41923767 0.54673195
000240 7b fe 02 3d 57 52 6f 3e 37 05 24 bd b0 6d ba 3d
       0.031980973 0.23371254 -0.040044036 0.091029525
000250 74 9c c1 bd 6d 1e 9b 3d b0 ef 3d be b5 50 da bd
       -0.09453669 0.07574163 -0.18548465 -0.10659925
000260 de f5 be 3e 4f 06 c6 be 13 c8 4c be 51 44 03 3f
       0.37296957 -0.38676688 -0.19998197 0.5127612
000270 dc 2d 96 3e a0 95 a6 3e bd e3 0f 3e 33 2e 41 be
       0.29331863 0.3253603 0.14051719 -0.1886528
000280 bc 9e 84 3e 0c 74 a2 3b 0e 99 98 3a bc c6 ae be
       0.25902355 0.0049576815 0.0011642294 -0.34135997
000290 f4 2e 37 be e9 bf 9a 3e a2 f5 31 3e b4 bf 21 be
       -0.17889005 0.3022454 0.17378858 -0.15795785
0002a0 0b 09 99 be e3 81 70 3d b0 76 db 3d 80 da 97 bc
       -0.29889712 0.05871762 0.10715997 -0.018536806
0002b0 35 21 e7 3e e8 e3 c6 bc 42 d5 5d 3e de 10 03 3f
       0.45142522 -0.024278596 0.21663383 0.5119761
0002c0 72 12 a3 3e c5 cc ad be b9 0d 1e be 43 16 7e 3e
       0.3185001 -0.3394529 -0.15434922 0.2481318
0002d0 46 0c ca 3d 28 a4 9e bc 17 29 52 3e 7b 0f db be
       0.09865622 -0.019365385 0.20523487 -0.42785248
0002e0 88 0b d0 bd ec 3f c1 be 31 31 c7 bd 25 35 b0 be
       -0.101584494 -0.3774408 -0.097261794 -0.34415546
0002f0 12 bf bd bc c3 ec a6 be 54 09 8a 3e bc 65 06 bf
       -0.023162398 -0.3260251 0.26960242 -0.52498984
000300 5f 51 83 be 5e ff 70 bd 59 a6 e2 3e 60 f2 8e bd
       -0.2564802 -0.058837287 0.44267538 -0.06979823
000310 62 54 b5 bd 2d 83 bd 3e 40 95 a4 be 2c 54 13 3e
       -0.08853985 0.37014142 -0.3214512 0.14387578
000320 d0 ab e5 3e cc 01 85 3e b5 47 6f be de 00 4a 3d
       0.44857645 0.25977933 -0.23367198 0.049317233
000330 13 4a 49 3e c9 b5 90 3d c6 0f 83 be b5 1d 74 3e
       0.19657163 0.07065923 -0.25597972 0.23839457
000340 e9 37 90 3e 00 c5 db 3e d8 67 91 be 94 dc 8e 3e
       0.28167656 0.42923737 -0.2839954 0.27902663
000350 d8 8c 8b be 73 9e 9c be 89 b0 85 be b8 94 1d bc
       -0.27255893 -0.30589637 -0.26111248 -0.009617977
000360 3c 3a a2 3e c7 1b 91 be 27 13 4b 3e 93 33 0c 3f
       0.31685054 -0.28341505 0.19831525 0.54766196
000370 a5 f4 a8 be bd 99 61 3e 19 36 a9 be 68 57 98 bb
       -0.3299915 0.22031303 -0.33049086 -0.0046490915
000380 16 91 00 bd d8 50 7a be 0c e7 88 3e 5a f9 9c 3e
       -0.031388365 -0.24444902 0.26738775 0.3065899
000390 73 19 94 be 80 73 4e be ef 4d 3d be ed 55 cf be
       -0.28925666 -0.20161247 -0.1848676 -0.40495244
0003a0 53 0c 92 3e 35 94 c5 3c 26 dd a1 3d cf dc f5 3e
       0.28525028 0.024118522 0.07903509 0.48020026
0003b0 ce d0 c0 be 78 71 f3 3d 13 50 3e be cf 35 06 3f
       -0.37659305 0.11886877 -0.18585233 0.52425855
0003c0 3b e5 c1 3e e5 dd b9 3d f0 0e bc 3c 8f 54 45 3e
       0.378702 0.09075526 0.022956342 0.19270538
0003d0 ee 1f 94 3e 1d 02 2b 3d 4b 6e 24 3e 37 c4 b7 be
       0.2893061 0.041750062 0.16057698 -0.35891888
0003e0 f0 72 9c be 3c 16 05 3e 91 fe 24 be 2d b4 e0 3e
       -0.3055644 0.12996763 -0.16112734 0.43887463
0003f0 66 d3 3f bd ea 52 e8 bd ca 50 8b bd cf 15 01 bf
       -0.046832465 -0.113439396 -0.06802519 -0.504239

decoder.layers.0.bias f4 [100]
000000 bf 6d b5 bc 66 e3 a3 3e 60 14 a5 3d 4b f6 9b be
       -0.022147058 0.3200943 0.08060527 -0.30461344
000010 71 03 10 be 2e d0 a5 bb 24 df e2 3e 87 54 dc be
       -0.14063813 -0.0050602173 0.44310868 -0.4303324
000020 f6 02 37 3e 5b e6 cc bd b3 aa 42 3c d7 5b c5 be
       0.17872223 -0.10004874 0.011881518 -0.3854663
000030 f4 b9 07 3e 2d bd fa 3e 1f 4f 0a 3e e6 f2 bd be
       0.13254529 0.48972455 0.13506745 -0.3709938
000040 9b 09 bb be 54 b1 c2 be 30 c5 af be 30 39 f3 be
       -0.36530766 -0.38025916 -0.3433013 -0.47504568
000050 8b 77 5f be 0d 8a a8 3e 69 05 06 bf b2 ca fd be
       -0.21822946 0.32917824 -0.52352005 -0.49568707
000060 cc b0 a7 be e8 15 f4 3e fa a1 04 be 37 92 bd 3e
       -0.32752073 0.47672963 -0.12952414 0.37025616
000070 0a 1c d7 bd ac f9 2d 3f 20 2c db be 93 79 0b bf
       -0.10503395 0.67959094 -0.42807102 -0.5448238
000080 56 e0 0d 3f 06 22 fe 3d bf 7b 8b 3e fc 03 ec bd
       0.55420434 0.12408833 0.27242848 -0.115241975
000090 6a 87 0d bf 9d 04 01 3f 17 02 bc bd 75 4e 2c 3f
       -0.5528475 0.50397664 -0.09180086 0.67307216
0000a0 bc fb 99 bd e1 a1 02 3f 1a 08 d1 be 76 20 c6 3e
       -0.07518718 0.5102826 -0.40826494 0.3869664
0000b0 fc a9 7c be 70 15 5c be 3e 75 f7 3e 51 96 ab be
       -0.24674219 -0.21492553 0.48331636 -0.3351312
0000c0 fc 07 35 bb be 71 9f be a0 2f be be e5 70 34 3e
       -0.0027623167 -0.31141466 -0.3714571 0.17621191
0000d0 71 9c 83 bd 6e 3c 49 be bf c0 19 3e 16 17 fe 3e
       -0.06426323 -0.19651958 0.15014933 0.49626988
0000e0 04 1b 03 3f 0d 1e 01 3e fe 32 2b bd c0 96 46 be
       0.512131 0.1260912 -0.041796677 -0.19393444
0000f0 b0 50 eb 3b a7 34 f3 be 1b 80 98 be ef d5 00 3f
       0.0071812496 -0.47501108 -0.29785237 0.50326437
000100 b9 60 d1 be e3 f4 45 3e a7 fb 1f 3f c3 d5 02 bf
       -0.40894106 0.19331698 0.62493366 -0.51107424
000110 80 79 86 bd 18 37 1b 3e 8e 07 6c 3e 89 5b 31 be
       -0.06566143 0.15157735 0.23049757 -0.17320074
000120 fe 35 9d be c9 b3 0d bf 66 89 18 3f 52 a1 a4 be
       -0.30705255 -0.55352455 0.59584653 -0.32154328
000130 22 f3 1c bf 64 66 b6 3e 4a 49 04 3e 9e 46 21 3f
       -0.6130849 0.35624993 0.12918583 0.6299838
000140 5f d4 d6 3e 0f 1d ac 3e 0c 6d 05 3f d4 0a 09 bf
       0.419589 0.3361592 0.5211952 -0.5353215
000150 04 d4 1b bf 78 18 21 be 8a 86 6d 3c c7 a4 25 3f
       -0.60870385 -0.1573199 0.014497409 0.64704555
000160 28 97 b0 3d c4 09 f6 be 91 fa f8 3e a1 b9 be bd
       0.08622581 -0.48054326 0.48628667 -0.0931275
000170 5c 7e 84 be 43 38 00 bf 40 0b d3 be 6f f3 a6 3e
       -0.25877655 -0.5008585 -0.4121952 0.326076
000180 30 1c 9e 3e a4 c2 53 3d 73 8c 05 bf 9d 0d e8 bd
       0.3088088 0.051699296 -0.52167434 -0.113307215
