src/magnetics_diagnostic_analysis/project_scinet/checkpoints/pendulum_scinet_checkpointed.pth (torch, 474954 bytes, 15 tensors)

encoder.layers.0.weight f4 [500, 50]
00000000: 7a9f 5a3d f228 5b3d 3520 96b9 0ed0 263d
00000010: a979 4539 0caf 4f3b b83f f2ba a6c1 8cbb
00000020: e8cb 7eba 01a9 8dbc f537 a53c f892 5b3b
00000030: 1055 e03c f0ec a43b 57b4 a23c 6262 f9ba
00000040: 62ec cf3c 9fbc 103c 85ab ab3b 356f f33b
00000050: 4b05 993b 8948 343b d6f3 55bb 177e 063c
00000060: 20ec c0bc aeea 9fbc 4741 89bc 9de4 dcbc
00000070: 3ca9 16bc 1c0b 00bd 9171 20bb 7dcd 7cbc
00000080: 2c02 0fbc 4036 71bb b7f4 83b9 7d5f b53b
00000090: 22b1 0b3c 4b53 ae3c 882b 693c 34ad 063c
000000a0: c896 a53c 5f48 413c 65b9 ab3c 7341 af3c
000000b0: 8b53 643c 61ed 013c 33c7 fa3a 3e63 2abb
000000c0: 84db c2bb 700f 44bc 7085 89bd ff0f bcbc
000000d0: d7ea 37bd df20 4a3d 6973 8b3c 37e0 733c
000000e0: 27a8 1c3c 333f 2a3c 9fee 983c 59b4 8fbc
000000f0: 6bb9 bf3b 2be4 13bd 769e 8b3c aacc bfbc
00000100: 7b1c 543c 9f3b 93bc 7725 e63c 6745 ffbc
00000110: bf7f c9bc 6fe6 9cbc 18b9 96bc 71ae 7ebc
00000120: 81d8 d73b c720 10bd 7565 3bbd a708 1abd
00000130: 2a55 fbbc b7f4 bd3c 7257 b83c e8f7 223d
00000140: 72cf 443a f386 043c 1952 9d3c b1d7 8c3c
00000150: 92c6 993c 8e1f 4f3c 66ad b83c 54f3 78bc
00000160: d58f 5bbc 9176 333c 8224 8e3b 4256 68bc
00000170: d4a5 da3b 9cc2 653a 723a a3bc 80dd 6dbc
00000180: 4798 3bbc f4a6 50bc 3fb8 65bc f603 b0bc
00000190: 2676 60bd dcda 4c3c a278 7cbc 7fad 51bd
000001a0: 3655 59ba 2596 94bc a0a6 9e3b 280e 313c
000001b0: 6992 48bc 93b7 cabc a41a 683d b3d4 223c
000001c0: ac65 8c3c 161d 92bd 14c2 56bd b5e1 f7bc
000001d0: 5e43 01bb f455 4bbd 5a07 c8bc 38ee a4bc
000001e0: f5b3 8abc eb5a 14bc e512 a93a ff7f a9bc
000001f0: 3452 c3bc efde 99bc c37f 69bb 28dd e0bc
00000200: ba0d 833d 0318 393c 83c6 4e3d 0049 dd3c
00000210: 94f8 873c 5f27 7b3c 67cd 613b 28fe 52bc
00000220: 6078 1cbd 5db2 68bd f565 0ebc 0a87 09bd
00000230: b832 e3bb 5ede 76bd b58b c83a fde8 34bd
00000240: 864d cfbc bde7 92bc 10f1 26bc a83b 403a
00000250: f4a6 8c3c c185 b23a faa1 703b 1575 8ebb
00000260: d6aa 35ba 6c4f 78bb 6aad be3a da06 c2b9
00000270: 4ad3 73b9 fce7 0539 6496 ef39 8f6c 9439
00000280: f9cf 6a3b 3728 fd3a 0dd8 df3a d7fc acbb
00000290: 5c39 5e3b 9fca 7339 af62 84b9 a28b bd3a
000002a0: b11a 1b3a 77e3 c439 dcf5 94b8 efdc 22ba
000002b0: b758 86ba 0a7e d8ba 3b97 32bb e7a8 2cbb
000002c0: bc09 87bb 6ad1 31ba 4761 1039 5421 1ebb
000002d0: 2584 81ba 161a 47ba 81c5 efb9 94cc 5237
000002e0: 195e 1f3a 6d03 973a e7e9 d43a ca41 e73a
000002f0: e5f7 e63a f7a3 093b e8d5 e23a d19f c73a
00000300: d82b df3a ffa2 a63a 9cf4 603a 8c09 003a
00000310: 0e34 1138 6826 06ba d47c 86ba 00d4 bbba
00000320: 115a ccbc d590 42bc fce2 1f3c a62c 193a
00000330: 7d3c 42bb 89d5 13bb b502 73ba 2d40 a3b9
00000340: e536 6ab9 5bb7 273a fc9a 883b a055 a23b
00000350: 1d46 37bc 7687 f2bb f766 6aba e542 353c
00000360: 26b2 133b f9bc 423a ad7d a23a 9b4e 5a3a
00000370: 37d5 8e3a 2e35 db3a 7089 093b b0e9 143b
00000380: 0fa7 20bb 0f70 e53b 28e4 fe3b 5fc0 833b
00000390: 2214 32bb 6c0b 3cbb fc1b 5fba 0baa 1439
000003a0: f489 99b9 a9b7 84ba baea f6ba d626 39bb
000003b0: 8e61 6bbb 8a95 b0bb 9201 d5bb fa1b e6bb
000003c0: 8a4c f5ba d704 7abb 1d42 19bb 45ce f2ba
000003d0: bfb9 8cba 1442 ccb9 e62b 0c3a c20f c93a
000003e0: b1e7 243b a744 633b 54e4 97bc 5ec2 34bd
000003f0: 6de0 0dbc 87e2 b8bc 2176 2fbc 3e4d 85bc
0.053374745 0.053505845 -0.00028634226 0.04072576 0.00018832706 0.003169003 -0.0018482124 -0.0042955456
-0.00097197155 -0.017292501 0.020168284 0.0033504348 0.027384311 0.005033128 0.019861383 -0.0019026513
0.02538127 0.008834033 0.0052389526 0.0074290284 0.0046698204 0.0027509055 -0.0032646558 0.008208773
-0.023550093 -0.019521084 -0.01675476 -0.02696448 -0.009195622 -0.031260595 -0.0024481753 -0.015429852
-0.008728545 -0.0036806017 -0.00025168594 0.0055350647 0.0085261185 0.021279952 0.01423157 0.008220006
0.0202135 0.01179704 0.020962426 0.021393513 0.013935934 0.007930131 0.0019132852 -0.0025999094
-0.0059465785 -0.011966571 -0.06714904 -0.022956846 -0.044901695 0.049347755 0.017022805 0.014885
0.009561575 0.010391044 0.01866847 -0.017542051 0.005850961 -0.03610627 0.017043334 -0.023413021
0.012946243 -0.017972765 0.028094037 -0.031161023 -0.024597047 -0.019152848 -0.018398806 -0.01554452
0.0065870886 -0.03518751 -0.045751054 -0.037605908 -0.030680258 0.023187978 0.022502635 0.039787203
0.00075077184 0.008088815 0.019204186 0.017192693 0.018771444 0.012641801 0.02254362 -0.015194733
-0.013400991 0.010953561 0.004337848 -0.014180722 0.0066726003 0.0008764656 -0.01992533 -0.014518142
-0.01144988 -0.012735117 -0.0140209785 -0.021486264 -0.054800175 0.012503352 -0.0154096205 -0.05119085
-0.00082905905 -0.018138 0.0048416406 0.010806598 -0.012241938 -0.024745738 0.05666603 0.009938407
0.017138325 -0.07134454 -0.05243118 -0.030258993 -0.0019723992 -0.04964252 -0.024417568 -0.020133123
-0.016931513 -0.00905488 0.0012899308 -0.020690916 -0.023842908 -0.01878306 -0.003562913 -0.027449206
0.063991025 0.011297229 0.050482284 0.027012348 0.016598023 0.015329211 0.0034454705 -0.012877978
-0.038200736 -0.056810725 -0.008691301 -0.03357605 -0.0069335364 -0.06027066 0.0015300425 -0.044167507
-0.02530552 -0.017932767 -0.01018931 0.0007333108 0.017169453 0.0013620184 0.003671764 -0.0043474534
-0.00069300586 -0.0037889136 0.0014547531 -0.00037007668 -0.00023252997 0.0001277029 0.00045697682 0.00028309642
0.0035829528 0.0019314353 0.0017077938 -0.0052791643 0.00339087 0.00023249768 -0.00025250527 0.001446117
0.0005916758 0.00037553508 -7.102985e-05 -0.0006212731 -0.0010249828 -0.0016517055 -0.0027250785 -0.002634579
-0.0041210335 -0.0006783219 0.00013769149 -0.0024128752 -0.0009881301 -0.00075951347 -0.00045732784 1.25646075e-05
0.00060793903 0.0011521407 0.0016244025 0.0017643508 0.0017621486 0.0021002272 0.0017306181 0.0015230124
0.0017026616 0.0012713372 0.00085813715 0.0004884235 3.4619174e-05 -0.00051174173 -0.001026059 -0.0014330149
-0.02494529 -0.011875351 0.009758707 0.000584314 -0.0029638105 -0.0022557697 -0.0009270118 -0.00031137597
-0.00022336429 0.00063978665 0.004168866 0.004954055 -0.01118615 -0.007401402 -0.00089417346 0.011063312
0.0022536605 0.0007428672 0.0012397073 0.0008327753 0.0010897283 0.0016724223 0.002098646 0.0022722296
-0.0024513637 0.007001884 0.007778663 0.004020735 -0.0027172645 -0.0028693331 -0.0008510945 0.00014177726
-0.00029285217 -0.0010125536 -0.0018838265 -0.0028251908 -0.0035916301 -0.00538892 -0.0065004313 -0.007022378
-0.0018714827 -0.0038149857 -0.0023385354 -0.0018524608 -0.0010736509 -0.00038959144 0.00053471175 0.0015339779
0.0025162513 0.003467837 -0.018541493 -0.044130675 -0.008659464 -0.022568954 -0.0107093165 -0.016272184

encoder.layers.0.bias f4 [500]
00000000: 40a1 793c 9dea a73c 09e9 52bd a20a 4abb
00000010: 9b09 163c ccb7 5f3d cc3a 923c 73e4 543c
00000020: ac6a 6cbc 4932 093d 4e3e 07bc cf55 b83b
00000030: 52d2 dbbc 102a 633d 7a69 383d a6a6 21bc
00000040: a8e3 5ebb 71f8 363b 4fc6 c9bc 040a b4bc
00000050: 9e49 9abc 0b85 5f3d a55b adbc e3e9 41bd
00000060: a32d b3bb 7b66 7dbc c297 aabc 41cd bdbc
00000070: 5fd1 993d 23ba 18bd b891 403d fd5a 89bb
00000080: 7e0f ee3c 59b2 26bd ea97 f13b 5e66 d0bc
00000090: 65f7 4b3c 01da 48bc aabf e03b 04d1 a83d
000000a0: f76f 353d 3065 933a af57 b33c c451 913c
000000b0: 177a 793d a757 dfbb d1da dbba 43d9 943c
000000c0: 1688 25bd bd32 46bb 68b7 8fbb 0143 d9bc
000000d0: b0f9 b5bc 64b3 32bd 38eb 98bc c9a1 21bd
000000e0: 4f69 c93c 2ab9 07bd ee50 d4bc 0a54 693c
000000f0: 24ac 59bd a328 383b 2334 35bd ebb4 b8bc
00000100: 4638 043d be70 263d 6064 31bc 0088 29bc
00000110: be45 03bd 94fd e8bb 0cbc d13b 3c61 4abb
00000120: 1bdc 3e3b b1fe 0a3a 03c7 a43a 7ec5 aabc
00000130: aed4 99bc da32 fa3c 6b41 893c 2670 7aba
00000140: 634f b7bc bfaf 33bc bfbb 38bd 0d8a 463d
00000150: 8cce 8abc aa4d 2ebd 294b d03c d0b5 683d
00000160: 59ba c63c 2514 1abd 3e79 723d 3ee3 f93c
00000170: 51ea 7fbd 56c6 85bc 2f0b c1bc e7c0 91bc
00000180: ff24 143c 2883 25bc 0b6a a3bc 53ce 693d
00000190: b504 3dba 94eb 043d fced dd3b c6e9 593b
000001a0: 8923 0cbd b016 83bc bbeb 13bb 75fc 913d
000001b0: 3b8b 9d3d 2e42 96bc 3dba 793d 3caa 293c
000001c0: d51c 243d 4546 2f3d 0967 11bd 1d2c 613d
000001d0: 771a b03b 96b8 0fbd 323f 94bc f3cd 11b9
000001e0: c799 a6bb bd65 233d e98f bb3c afc3 05bd
000001f0: 2d06 593c 5036 49bd 05e1 593d d20b 943c
00000200: 9e71 813c 1702 e83c 04d4 e1bb 8f1b 77bc
00000210: 03d8 ac3b 525c 5bbd 96c2 f4bb eddd 163c
00000220: c230 1c3d f7a7 f3bb 6206 85bb 6532 0d3d
00000230: cfaa 1fbb f40e 5bbd f7cc 153d 3981 623c
00000240: 2e6f 82bd 4b2d 4c3c 3f46 4ebd 578a a13d
00000250: 7b01 9fbc 5024 21bc 0db1 63bc 40d5 0fbc
00000260: 74c2 b33d 2ce2 fe39 001c b53c 0385 cbbb
00000270: 9c47 a9bc 2de0 dc3a b54a 213d 48f9 2dbd
00000280: edf6 55bc bcfc 1c3d 2bb3 09bd 6aef 923c
00000290: 31da 1e3c c6ca 603b 3283 0dbc fab1 a9bc
000002a0: 2330 83bc 0251 ecbb 6102 f63b e462 5d3a
000002b0: aed7 46bc e874 9bbc 7693 173d 63fa b13c
000002c0: 8a74 0e3d fb0d e73c b17a 12bb f781 013d
000002d0: 2718 583c 3dc8 a8bc cecf 923b 211c f3bc
000002e0: 7518 fcbb e0f9 9c3d 3e2c b33d f53f 48bd
000002f0: 8fbf 8cbc ff9d 483c 8858 18bc 483a 5fbc
00000300: 8e60 81bd d7d8 c8bc 3d01 29bd 1223 1dbb
00000310: b313 00bc 243b 09bd a6b9 9e3c 804e 6cbc
00000320: 725d 2abd 7366 ca3b 2a35 213d 2ddc cdbc
00000330: 5d72 033c bd59 11ba ca4e dcbb fafc 38bc
00000340: 8821 f8bc b276 863c 0a87 fd38 6372 7f3c
00000350: 2870 1b3c 94a2 17bc 2779 bebc 81d8 2d3c
00000360: aa39 9c3c 5d96 2b3d 16a0 a93c 8a24 3b3d
00000370: a325 0abd 8027 1c3c 4c8c b53d a0b5 7c3c
00000380: a894 073d f5c4 b13c 7854 babc cfb4 353c
00000390: 02c5 513d 2e13 723c 7ff1 53bd 0bff 093c
000003a0: eb6c 373d 912f e83b fec0 673c 65ae b239
000003b0: c3c4 0f3d c802 0d3d 40f3 c4bc 91a9 be3b
000003c0: 0c32 44bd 48e6 f8bb 8f66 9cbd 0ba2 463b
000003d0: a65b 5e3c f382 6abd 95d6 4c3c c46a 0dbc
000003e0: a9b1 a3bc d836 393c 774a a73b d356 f0bc
000003f0: 1e62 693d 315b 573c 1deb e5bc 6ea6 00bb
0.015236199 0.020497615 -0.05149177 -0.0030829092 0.009157564 0.05461864 0.017850302 0.01299392
-0.014429729 0.03349522 -0.008254601 0.0056254636 -0.026833687 0.055460036 0.045022465 -0.009866392
-0.0034010205 0.0027919079 -0.024630694 -0.021977432 -0.018833932 0.05457024 -0.021161864 -0.047342192
-0.005468087 -0.015466328 -0.020824317 -0.023169162 0.075106375 -0.03728689 0.04701397 -0.004191755
0.029060122 -0.04069743 0.007372846 -0.025439437 0.01244912 -0.012259007 0.0068587856 0.082429916
0.04429623 0.0011245366 0.021892397 0.017739184 0.06090745 -0.006815869 -0.0016773586 0.018170005
-0.040412985 -0.0030242645 -0.0043858774 -0.026521208 -0.022213787 -0.04362811 -0.018666849 -0.03946093
0.024586348 -0.03313557 -0.025917497 0.014241228 -0.05314268 0.0028100393 -0.044239175 -0.022547206
0.03228023 0.040634863 -0.010827154 -0.010347366 -0.032048933 -0.007110307 0.0064005908 -0.003088071
0.0029122892 0.0005302234 0.0012571517 -0.020846125 -0.018778171 0.030541826 0.016754827 -0.00095534546
-0.022376722 -0.010967194 -0.045100924 0.0484715 -0.016944192 -0.042554535 0.025426464 0.056814015
0.02425878 -0.037616868 0.059197657 0.030503865 -0.06247932 -0.016329926 -0.023564903 -0.017792178
0.009042024 -0.010102071 -0.019948026 0.05708153 -0.0007210479 0.032451227 0.0067727547 0.0033250912
-0.034213576 -0.01600203 -0.0022570926 0.071282305 0.07692572 -0.018342104 0.060968626 0.010355528
0.04006656 0.042791624 -0.035498653 0.05497371 0.0053742486 -0.035088144 -0.01809654 -0.00013905
-0.0050842497 0.039891947 0.02289577 -0.03265732 0.013246101 -0.049124062 0.05319311 0.018072043
0.015801247 0.028321309 -0.0068917293 -0.015082254 0.005274774 -0.05355484 -0.0074694855 0.009208185
0.038132437 -0.0074357945 -0.004059599 0.034471888 -0.0024363284 -0.053481057 0.036572423 0.013824754
-0.06368862 0.012461971 -0.05035996 0.07887714 -0.019409886 -0.009835318 -0.013897193 -0.00877887
0.08777323 0.00048615166 0.022108078 -0.0062109246 -0.020664029 0.0016851478 0.039377887 -0.04247406
-0.01305936 0.038326964 -0.033618134 0.017936427 0.009695576 0.003430055 -0.008637236 -0.020714749
-0.016014164 -0.0072118053 0.007507608 0.0008445217 -0.012136383 -0.018976644 0.037005864 0.021725839
0.03477911 0.028204909 -0.0022350962 0.031618085 0.013189352 -0.020603294 0.0044803387 -0.029676499
-0.007693345 0.076648474 0.08748673 -0.04888912 -0.017181186 0.0122447 -0.009298451 -0.013624735
-0.063172445 -0.02451746 -0.041260947 -0.0023977202 -0.007817197 -0.033503667 0.019375633 -0.014423013
-0.041593023 0.0061767637 0.03935734 -0.025129402 0.008022872 -0.0005544683 -0.0067232596 -0.011290783
-0.030289426 0.01641402 0.00012089133 0.015591237 0.009487189 -0.00925507 -0.02325113 0.010610701
0.019070465 0.041891444 0.020706218 0.045689143 -0.0337273 0.009530902 0.0886465 0.015424162
0.033100754 0.021700362 -0.022745356 0.011090471 0.051213272 0.014775081 -0.05174398 0.008422623
0.044781607 0.0070857485 0.014145134 0.0003408074 0.035099756 0.03442648 -0.024041772 0.0058185537
-0.04789929 -0.007595811 -0.07636749 0.0030308987 0.013571655 -0.05725379 0.012502332 -0.008631412
-0.019982176 0.01130458 0.0051053124 -0.029338276 0.056978337 0.0131443 -0.028066212 -0.001963045

encoder.layers.1.weight f4 [100, 500]
00000000: 5ca4 8cbc 6a1a a93b 1f91 9e3c 1eca 1cbb
00000010: 6501 083b f787 1abb a76c 433c 9040 74bc
00000020: 64fb 5dbb 6d3c fdbb f507 06bb f830 39b9
00000030: b1bb 5f3b 6c25 ad38 09ca 073b ba0c cab9
00000040: 43f1 7f3c 4e25 153b b742 bcba b4e6 743b
00000050: 1e25 ef3a 1f0e debb 98c0 133c a1a5 773c
00000060: 9a12 82ba 1146 273c 1bab 5abc e0cb a03c
00000070: 634a d43b ff25 db3b 1b54 6ebb 3333 a5bb
00000080: 00ae 833b a93c 593c b9d9 5cbb b813 39bc
00000090: 7cb5 48b9 8c1f 13bb cd4f b2b9 12af c13b
000000a0: 10b3 1d3c 50fd bfb9 a031 c93b 44f4 d23b
000000b0: de10 ed3b 3b74 31bc 4e2c 89bb 512b 2bbb
000000c0: c564 713c 46a3 43bb 9f71 103b cadc ef3a
000000d0: 240c c139 870b 0b3b 2a5c ccb9 ea12 92bb
000000e0: 3dc5 39bc 747f bd3c 6eda 973c 2316 3bbc
000000f0: 3814 bc3a a90e bbbc 1533 bd3b a4bf 4c3b
00000100: f88e 0c3b ae5c 7ebc eca4 04bc dcc5 373b
00000110: 851f a43c 30b6 7b3b 9a42 0d3b dcf5 2c3c
00000120: 65a7 cebb a128 05bc 0389 c43b ef7a c33c
00000130: a904 d93b 8ecc 34bc dab2 b23b d260 0fbb
00000140: 8ccd 34bb 5f2a 3b3b 010c 413b 02dd c7bb
00000150: d0fd 3f3b a248 0bbc c61a fa3b e9c9 583b
00000160: eed8 ea3b cccf 5b3c 2750 9839 4839 2fbc
00000170: 4149 113c 8e7b 3e3c efc1 c4bb 249b 543b
00000180: f5d9 68bb a74f 363a cee6 8b3c af01 15bc
00000190: deb3 5b3b 7c7b 5abb 9846 493b b32f 9abb
000001a0: 88bc a13b 46af d5bb 7438 7a3b 952c 04bc
000001b0: c545 81ba e152 dd3b d9cf 70bc f6db 183b
000001c0: 5d71 7a3b ccff e2bb 6639 d03b bad7 503c
000001d0: f979 dbbb 8d7d 91bc e001 47bb 7e9f 53bc
000001e0: 388f 363b d801 8e3b 1aac 413c b312 773c
000001f0: fb9c 35bc ee68 ff3b 04f4 8ebc a761 0dbb
00000200: 3d4d 21bb fec5 f438 d312 1dbb 489a ad3b
00000210: a63d 053b 0b85 303c bfaf afbb 2cee 113c
00000220: 68ab cc3a 648c 5f3c 2cb1 57bb 5aa4 f7bb
00000230: 7cea be3a ee38 df3b 3bda efbb f0d3 e63a
00000240: d716 043c f358 33bb 09a6 90bb 3c73 813c
00000250: 1503 a93b 34ff 093b 931a 38bc 51aa 323c
00000260: 0cc5 5cbc 377f 7dba 6135 12bc ecd6 82bb
00000270: 5aa6 45bc 68c1 b83a dc1e a0bb 9c64 d63b
00000280: 01fc 913a d4b0 8b3b e985 ac3b f373 22bb
00000290: 6759 553c 2603 06bc b759 613c 047a 793a
000002a0: 3cac 953b bdd0 9fba a12c c2bb 728f 363a
000002b0: dee3 da3a a06b 46bc 65c6 8c3b 8e5b 04bb
000002c0: 6662 61bc f27d cebb 4b65 c93b 2429 4b3b
000002d0: e89b 473c a873 38bc 717f 1fbc e879 e138
000002e0: d3e0 a5ba 1779 93bc 81c5 05bc 0b76 513c
000002f0: 334b 41bc b30e ad3b 7f1d a639 2730 163c
00000300: 7573 23bb 5146 c1bb 01ed c03b aadc 8fbb
00000310: f439 c1bc 13bc 81bb 6159 83bb b082 01bb
00000320: 3526 103c 8177 043a cb9e 81b9 d6e3 283c
00000330: 27da 4fbc 7fa7 a93b 1f3e 1bbb 9933 d33b
00000340: bc1c 0cba 60af 24bb 84f7 f7bb b509 423c
00000350: 2d47 fdbb 4837 413b 69de 583b 852f cebb
00000360: d6b4 ca3b e498 20bc 9687 403b 8e3e 28bc
00000370: d085 00bc 6684 a9bb 7e4e 99bb 67d2 b6ba
00000380: 06bb 88bc 5003 183b 5757 afbc cb17 0d3c
00000390: eb11 57bc 4b94 27bc 0dd7 803c 1b12 973c
000003a0: 3e21 60bc f9e8 eb3b c4a6 7abb c8b4 45bc
000003b0: b5d9 863c 507b 41bc 5e90 f1bb d8f5 043c
000003c0: 49eb 783c 5a63 313c 9193 9e3c 2cc7 9f3b
000003d0: afe5 19bc 5439 263c 9f87 39bb 254a b2bb
000003e0: afc5 30bb 0796 1f3c ae0b ffba 39cb 2a3c
000003f0: e1e3 4a3c 4bdb 593b f96f 58bc 5c6b 453a
-0.017168216 0.0051606195 0.019356309 -0.0023924182 0.0020752784 -0.0023579577 0.01192776 -0.014907971
-0.0033871764 -0.0077281506 -0.002045152 -0.00017661217 0.0034138972 8.256253e-05 0.0020719788 -0.00038537924
0.015621486 0.002275783 -0.0014363144 0.0037368955 0.0018245315 -0.0067765857 0.009018086 0.015115173
-0.0009923757 0.010209576 -0.013346459 0.019628465 0.006478594 0.006687879 -0.0036366049 -0.005041504
0.004018545 0.013259091 -0.0033699109 -0.011296205 -0.00019141095 -0.0022449223 -0.00034010262 0.0059107626
0.009625211 -0.0003661909 0.006139949 0.00643781 0.0072346767 -0.010830934 -0.0041861897 -0.0026118348
0.014733498 -0.0029851957 0.002204038 0.0018300053 0.00036820874 0.0021216588 -0.0003897858 -0.004457821
-0.011338529 0.023132063 0.018536773 -0.011418852 0.0014349287 -0.022834139 0.0057739117 0.0031242156
0.002144752 -0.015525026 -0.008095961 0.0028041517 0.020034561 0.0038408153 0.002155459 0.010556664
-0.006306576 -0.0081273625 0.0059977784 0.02386233 0.00662287 -0.011035098 0.0054534497 -0.0021877778
-0.0027588336 0.002855919 0.0029456618 -0.006099344 0.002929557 -0.008501204 0.007632586 0.0033079332
0.0071669733 0.013416242 0.00029051417 -0.010694809 0.008867563 0.011626137 -0.006004564 0.0032441104
-0.0035530303 0.0006954618 0.01707783 -0.00909464 0.0033523957 -0.0033337763 0.0030712243 -0.004705393
0.0049358048 -0.0065211384 0.0038180621 -0.00806727 -0.0009862712 0.0067542647 -0.014697992 0.0023324466
0.0038214542 -0.006927466 0.0063544987 0.012746746 -0.00669789 -0.017760063 -0.0030366108 -0.012916444
0.002785636 0.004333716 0.011820817 0.015080142 -0.01108479 0.007794491 -0.01745034 -0.0021573098
-0.0024612688 0.000116717056 -0.002396752 0.005297933 0.0020330935 0.010773907 -0.0053615267 0.008906882
0.0015615048 0.013644312 -0.0032912 -0.007557434 0.0014565731 0.0068122065 -0.0073197163 0.001761077
0.008062086 -0.002736625 -0.004414324 0.015802018 0.005157838 0.0021056654 -0.011236805 0.010904864
-0.013474714 -0.00096701406 -0.008923859 -0.003992906 -0.012063587 0.0014095725 -0.004886491 0.0065427553
0.0011137725 0.004263023 0.005264987 -0.002478835 0.013021803 -0.008179462 0.0137543 0.0009516778
0.004567651 -0.0012192946 -0.0059257303 0.0006964124 0.001669999 -0.012110621 0.0042961114 -0.0020196172
-0.01375637 -0.006301635 0.0061461083 0.0030999864 0.012183167 -0.011258043 -0.009734974 0.00010751543
-0.0012655504 -0.018002076 -0.008164764 0.012784491 -0.011797714 0.0052812933 0.00031683964 0.009166754
-0.0024940644 -0.005898275 0.005887628 -0.004390319 -0.023587205 -0.003959188 -0.0040084575 -0.0019761734
0.008798172 0.0005053208 -0.00024723107 0.010308227 -0.012686289 0.005177438 -0.002368815 0.00644536
-0.0005344858 -0.0025128946 -0.007567348 0.011843135 -0.007729432 0.0029482413 0.003309155 -0.006292286
0.006186108 -0.009802077 0.002937769 -0.01026882 -0.007844403 -0.005173254 -0.0046785465 -0.0013948203
-0.016690742 0.0023195334 -0.021403952 0.00861163 -0.013126831 -0.010228227 0.015727544 0.01844125
-0.013679801 0.0071994034 -0.0038246373 -0.012067027 0.016461233 -0.011809185 -0.0073719462 0.008115254
0.015192815 0.01082691 0.019357475 0.004876038 -0.00939314 0.010145504 -0.0028309596 -0.0054409676
-0.0026973297 0.009740359 -0.0019458437 0.010424429 0.012383432 0.003324228 -0.01321029 0.00075309514

encoder.layers.1.bias f4 [100]
00000000: ea4a fd3b e258 143d adf5 c4bc 96a4 183d
00000010: ee78 753b 977c 103d 3136 523c f9ca a33a
00000020: d918 d83c 23a0 5fbc 7b9a e3bc cf3d 8e3c
00000030: 43bc c9bc a687 82bc cf66 9d3a 7153 aebc
00000040: 9ad7 c53c e308 0a3d 3612 d53c b6a8 1ebd
00000050: 465a a63c c92b afbc 0a6d d6bc 620e 073d
00000060: 42de bcbc c95e 8e3c ecfd 153c f448 12b9
00000070: 7a67 0fbc b6f4 eb3b 21d6 00bb 26d6 833a
00000080: f18c 0c3d 0927 a0bc 03de 143d ff10 6d3c
00000090: 9955 8cbb 082a 96bc 83dc 4c3c 8c30 793c
000000a0: e86c 243c c46e 0dbc 1366 483c 2e12 d83c
000000b0: 3f5c 21bc f08b a5bc e489 58bc 2975 37bd
000000c0: 1880 25bb c01f 51bc 10ae 783c 7e08 cfbc
000000d0: 898b f03b 8f55 0dbd 5f48 033c 73fa bbbc
000000e0: 1ef4 be3c ff36 8abb 8fa3 083c c158 c53c
000000f0: fef3 5f3b 3182 0d3d bec5 d6bc 727a 833c
00000100: 80c4 13bc ce8c 0cbd d061 a8bc e8a8 6d3b
00000110: fee7 b23c bc98 16bb f287 ae3a 8f4e 103b
00000120: 3e74 0fbd 968f 683d 9387 273c c2b4 b03b
00000130: f5ef b83c c455 c03b f182 823c 89e9 da3b
00000140: 2b45 ed3b 3d97 4d3c 60e3 473d ccec 4a3c
00000150: 611a a83c fedc 90bc c165 963c b268 02bb
00000160: 24bd bcbb 8ae9 bf3c f8b0 42bc 35ac c23c
00000170: 999b a1bc 8baf 1e3d f345 bdbc cb83 27bc
00000180: 17df e33c c4bb 333d 347b 233d e5a1 e43b
0.0077298777 0.036217578 -0.024042929 0.037266336 0.0037456113 0.035275068 0.012830303 0.0012496404
0.026379036 -0.013649019 -0.027783623 0.017363457 -0.024625903 -0.015933823 0.0012008789 -0.021280022
0.024150658 0.03369988 0.02600966 -0.038735114 0.020306718 -0.021383183 -0.02617504 0.0329727
-0.0230552 0.017379181 0.009154778 -0.00013950822 -0.008752698 0.0072008027 -0.001965888 0.0010058328
0.0343141 -0.019549863 0.03634454 0.014469384 -0.004282665 -0.018330589 0.012503746 0.015209328
0.010035731 -0.008632366 0.012231368 0.026375856 -0.009848653 -0.020208329 -0.013216469 -0.044789467
-0.0025253352 -0.012763917 0.0151782185 -0.025272604 0.0073408526 -0.034505423 0.00801286 -0.022946572
0.023309764 -0.004217982 0.008339777 0.024090173 0.003417253 0.03454799 -0.026217338 0.016049597
-0.009019017 -0.03431397 -0.020554453 0.0036264006 0.021839138 -0.002297922 0.0013315661 0.002201948
-0.035022967 0.05677756 0.0102251945 0.0053926418 0.022575358 0.005869599 0.015931578 0.0066806716
0.0072409115 0.012548265 0.048800826 0.012385558 0.020520391 -0.017683502 0.018359067 -0.001989883
-0.005759852 0.02342679 -0.011883013 0.023763755 -0.019727515 0.03874163 -0.023104643 -0.010224293
0.027816338 0.04388024 0.039912418 0.006977307

encoder.mean_layer.weight f4 [3, 100]
00000000: df2e 5f3d 97d7 d8bc 0e00 303c c8bf e7bc
00000010: cfae 0e3d e284 c3bc 620d f83c ed87 ad3c
00000020: fb98 16bd bfdd 1bbc b9b7 0d3d 5fed 27bd
00000030: beba 69bd fe7f 763c 0a8a 523d daeb 3ebd
00000040: eaba d8bc b8e1 3cbd bb2e 663d 9191 bf3c
00000050: f1c9 9cbd 5e71 87bd c9b9 693d 4b43 4c3c
00000060: ce3a 26bd 23cb 52bd 48ca 25bd 028a 67bd
00000070: 48b1 a83d d272 93bd 90b5 4c3d ab7d 3c3c
00000080: 2408 49bb 5ee0 ebbb 1fa0 aa3c 125e a8bd
00000090: 2c2a 16bb 7460 24bc 572e dd3c afd7 703d
000000a0: 90e3 8dbd 1731 003d 0fcd ffbc cbd0 76bd
000000b0: 29e9 563d 36f2 1d3d 5e55 24bd cf81 973d
000000c0: 5081 223d 1715 8abd 62e1 4bbd 5c29 3a3c
000000d0: e192 cbbd 3cc4 01bd 70b8 71bc 2ae8 38bd
000000e0: 4c5d 803c db63 a03d 04c2 98bc e6a7 f73c
000000f0: f620 993d c2f2 80bd 52f4 3e3d b730 2e3c
00000100: d89d 143d e6bc 0d3d 8266 1c3d bb24 8fbb
00000110: c610 883d 0db6 8c3d f701 8f3b 3edd 133d
00000120: 64b6 aa3c a545 4bbd 9383 b7bd 8738 84bd
00000130: ea97 913c 7600 ee3c d74e babd b2a0 83bd
00000140: d9e3 943b 1c61 89bd e641 a6bd 7b35 933d
00000150: be53 10bd cb06 813d b924 61bc 2043 8b3d
00000160: 43e9 07bb 3e5d 313d dc82 9bbd 3183 eebc
00000170: 0616 883c 90f3 38bd fc36 a23d 674d 883d
00000180: 19fb 81bc 462b 2c3c 09d8 a3bd 17d5 b03d
00000190: c545 b13c c183 993d 229a e1bd febe cd3d
000001a0: 4654 e53d 104f 0a3e 7ddb b1bd ddc8 b5bd
000001b0: 65e9 513d ad65 99bd 4187 233d af71 38bd
000001c0: c4db 463d 2b89 b8bd 5248 d73d e68b 95bc
000001d0: cff3 9cbc 4f4a 15bc 9cb4 db3d e945 b1bd
000001e0: 08b8 ab3d 150e 153e 2c9a 84bc ab76 cbbd
000001f0: 7d6a 8ebd dee5 74bd 2077 22bc 2164 e9bd
00000200: f725 5ebd 450a 54bd 107b 8c3c 7feb 033e
00000210: 38e9 82bd 7dc9 94bc faf5 92bd 12fe a43d
00000220: f294 2c3d cf08 21bd 0693 d53d 42d5 973d
00000230: f233 43bd f678 8cbd dddb f4bd 5098 a6bc
00000240: 0c7f 823d 8b01 9cbd 4e1a 163c 7efc 333a
00000250: 138a 68bd b3c9 033c 57f0 58bd d20e b73c
00000260: 1ddc 393c 04f4 a83d c643 223d 376c babd
00000270: 1f42 9ebd 437d 88bd dad9 4e3c 6ff0 f3bd
00000280: f69d cabd 652b 133d 4286 ec3d 8aab 7ebc
00000290: 7208 f1bc 7d52 843d 3412 ad3d 9ff2 32bc
000002a0: 94d7 93bc e2ce dfbd 7ebd f43d bf12 823d
000002b0: 0df2 643d 6210 cabd 0e14 84bd e05e 993d
000002c0: 56e2 e9bc 6ca6 c5bd 8b54 493d 08db b5bd
000002d0: 0c67 e0bd a86e 013d 75d6 a3bc bbf7 de3d
000002e0: b4e7 c13d ac47 ec3b c407 13bd 65f8 703d
000002f0: 549d 72bc 8859 d33d 36ce 0c3e d9ac ac3d
00000300: 91ea ef3c 0ed6 15bd b22f 50bd 83e9 033e
00000310: e092 00bc 7274 ebbc 53df 3ebc febb d33d
00000320: c53f ac3c 7751 97bc b887 d9bb 99ae 593d
00000330: 4119 ef3c 760d 11bd f622 7cbd f21b 5a3d
00000340: 9499 f7bc f989 b13c de50 80bd 5903 e73c
00000350: cee3 5bbd 6d06 91bd c34b 2ebb 7dbd 68bd
00000360: a68f 133d c810 96bd d521 3abd dfcd d03c
00000370: 3051 043d 2307 153d c65f 823b 3ba8 f03c
00000380: 050d c93c c9a6 05bd b20b 503d 45c7 c93c
00000390: 4b66 8f3c aa50 583c b2d5 963d 9ac2 273d
000003a0: 9ac4 663d 82f6 8dbc 2101 663d 9a74 8ebd
000003b0: 970d aabc d5e8 81bc 3a92 253c 5828 423d
000003c0: ba69 72bd 2db9 5c3d cad9 583c d8f1 79bd
000003d0: 849c e4bb 7801 ee3a 5e28 c23b 6588 5bbd
000003e0: a16d 9fbb 01a3 953d bca7 1f3c ad48 f0bc
000003f0: 246a 37bd d688 5c3c da59 5b3c a326 84bd
0.05448806 -0.026469989 0.010742201 -0.02828969 0.03483468 -0.023867074 0.030279819 0.021182979
-0.036766987 -0.009513318 0.03459904 -0.04099786 -0.057062857 0.015045164 0.051401176 -0.046611644
-0.026456315 -0.0461137 0.05619691 0.023384841 -0.07655705 -0.0661342 0.057061944 0.012467216
-0.040583424 -0.051463258 -0.040476114 -0.0565281 0.08236939 -0.071996346 0.04997784 0.011504571
-0.0030675018 -0.0071983775 0.020828305 -0.082210675 -0.002291332 -0.010032762 0.026999636 0.058799442
-0.0692817 0.031296816 -0.03122571 -0.060257714 0.052468453 0.03856107 -0.040120475 0.07397806
0.039674103 -0.06742304 -0.04977549 0.0113624 -0.09940124 -0.031681284 -0.014753446 -0.045143284
0.015669487 0.07831546 -0.018647201 0.030231427 0.0747699 -0.062963024 0.04661972 0.010631732
0.036283344 0.034603976 0.038183697 -0.0043683923 0.06643824 0.06870661 0.004364248 0.036099665
0.020838924 -0.049626965 -0.08960643 -0.06456094 0.017772634 0.029052954 -0.09097069 -0.064271346
0.004543763 -0.06707975 -0.08118038 0.07187935 -0.035236113 0.06300124 -0.0137416655 0.067999125
-0.00207384 0.043301813 -0.07593319 -0.029115291 0.016612064 -0.045154154 0.07920644 0.06655388
-0.015866803 0.010508364 -0.0800019 0.08634394 0.021639714 0.07495833 -0.110157266 0.100461945
0.111977145 0.13506722 -0.08684442 -0.08876202 0.051247973 -0.07490096 0.03992391 -0.045030292
0.04854943 -0.09010538 0.10511841 -0.018255185 -0.019159226 -0.009111955 0.10727808 -0.086559124
0.083847106 0.14556153 -0.016186796 -0.099347435 -0.06953905 -0.05978953 -0.009916097 -0.11396051
-0.054235425 -0.051767606 0.017148525 0.12882803 -0.06392139 -0.018162483 -0.071758226 0.080562726
0.042134233 -0.03931504 0.10428433 0.074137226 -0.04765696 -0.06859009 -0.11955998 -0.0203363
0.063718885 -0.07617482 0.009161545 0.00068659324 -0.056772303 0.008043694 -0.05296358 0.022345934
0.011343983 0.08249667 0.039615415 -0.091026716 -0.07727455 -0.06664517 0.012625182 -0.119110934
-0.0989341 0.035930056 0.11549045 -0.015543828 -0.029422972 0.06461046 0.084507376 -0.010922103
-0.018047132 -0.10928132 0.11950205 0.06351232 0.0558949 -0.09866406 -0.06449138 0.07488799
-0.028550308 -0.09650883 0.049152892 -0.088796675 -0.10957155 0.03159967 -0.019999722 0.108870946
0.09468022 0.0072106924 -0.035896078 0.058830637 -0.014808018 0.10319811 0.13750538 0.084314056
0.029286655 -0.03658109 -0.050826736 0.12882046 -0.007847518 -0.028742049 -0.011649924 0.10338591
0.021026501 -0.018471463 -0.0066384934 0.053145025 0.029186847 -0.035413228 -0.06155678 0.053249307
-0.030224599 0.021672236 -0.06265424 0.028199838 -0.05368405 -0.07081304 -0.002659545 -0.056821335
0.036025666 -0.073274195 -0.04544242 0.025488792 0.03230399 0.03638376 0.0039787022 0.029377094
0.024542341 -0.03262976 0.050792404 0.024631152 0.017504832 0.013202826 0.07364978 0.04095707
0.056339838 -0.017329458 0.05615342 -0.06955834 -0.020758433 -0.015858093 0.010105664 0.047401756
-0.05918286 0.053887535 0.013235519 -0.061021656 -0.006976666 0.0018158397 0.0059252223 -0.053596873
-0.0048653637 0.07306481 0.009744581 -0.02933153 -0.044778958 0.013460359 0.0133881215 -0.06452682

encoder.mean_layer.bias f4 [3]
00000000: c6be 693d 594b b63d 8fe3 ae3c
0.0570667 0.0890109 0.021348743

encoder.logvar_layer.weight f4 [3, 100]
00000000: 5710 c4bd 4ffa 87bc 7bd0 cf3b 6b7c 8d3d
00000010: 2dad 72bd 0a11 693d 9e55 153d 6fb4 1bbd
00000020: 5890 3d3d 87ed 9cbc a466 84bc 6239 23bd
00000030: f6ad a73d 0cd9 0bbd 59a3 dfbc a2c9 a33c
00000040: a7d3 763c f507 983d c7a5 3bbd 866b 203d
00000050: 5b3c f5bc f105 dabc 0ac1 3b3d 3c97 4b3d
00000060: f2c8 9cbd de1c 38bc 6314 933d bcbb 8a3c
00000070: cb62 c8bd 9300 b8bd ce07 5c3d 1860 4bbd
00000080: 94d3 a1bb febe 86bd 560e 97bd 3320 5f3d
00000090: 8430 5abd 87be b7bd dcb0 ec3c 7beb 123c
000000a0: 4c64 5a3d d9b9 79bd 9760 413b c9ed 423d
000000b0: 14b1 0dbd 7d61 bdbb 6e3a 5d3c 1191 96bd
000000c0: c313 ccbd 2ef2 a03d 13d6 893d 8894 2d3d
000000d0: eea7 a83d da53 0b3c 568c ac3d f252 18bc
000000e0: 2a91 f6bc 8a3d 8c3c 313a 783a a78d 21bc
000000f0: 9fee c9bc 1a01 aabb 801d 96bd ef15 933d
00000100: 0222 fa3c 5e8e 79bd ec25 52bd 3123 483d
00000110: 738b 693d 17e1 8dbd 1bfd 523b b7cc af3d
00000120: 58c6 91bd 6126 aa3d b5d4 4e3d dab7 cc3c
00000130: 2cfc 913d 5590 383c 3c36 823d aa80 7fbd
00000140: 4d13 29bd 6df1 133d b611 783d 9b0d 3f3d
00000150: 4657 83bd da07 92bc 28c5 81bd fc42 dabb
00000160: db55 ba3b 8875 693d 071a 103d a288 9b3d
00000170: ce2a b7bd e7d7 863d b503 153d fe4c febc
00000180: 4dc9 143d 22cc 9fbd 9ed8 c83d 2846 fa3b
00000190: ed09 98bd d18a 1cbe 7c45 cb3b a509 a0bd
000001a0: 069c d93b cec7 3dbc 0f6a ec3d 39e6 3fbc
000001b0: ba5f f8bc 5383 bc3d 9fb2 adbd 2682 813d
000001c0: cada 6f3a 897b e63d 71a4 7e3d a6a0 4a3d
000001d0: c3ed b73d f7ed b53d f480 6ebd a286 063e
000001e0: 0b9e 773d 39ad 293d 419d f93d c1e0 013e
000001f0: 93d7 313c d368 583d edf8 e33d 417c f2bc
00000200: 832e 6cbd 2858 043d f1b4 9cbd 294f 163a
00000210: d7f7 62bd a9bf 35bd bd62 e7bd f90e bebd
00000220: 29e5 39bd ada0 6a3d bb30 e03c fa21 923d
00000230: 9702 cabd 88b5 e93d 8966 08bd c40c 903d
00000240: 4871 c4bd 174d 2abd 10b8 803d de89 fb3c
00000250: e6ca b43d 36c5 b53d 8695 df3d 7fde 4b3c
00000260: b665 bc3d b487 c03d 595b 18bd 8b41 b3bc
00000270: 5983 76bc eae1 e93c ef1c 0fbe b5dc 763d
00000280: 9f45 80bd 1473 c9bc 2bee 59bd c70f 2f3c
00000290: 02ae 9f3d df3b b2bd 047f b2bd 7dbb 7d3c
000002a0: c458 0dbd 3358 29bd c236 083c d503 f03d
000002b0: e751 8d3b b526 2cbd c6c7 72bd d5c7 12bd
000002c0: 7347 413d 3aed 00bd 120f e93c b976 2b3c
000002d0: 9fa7 91bd 62b7 8f3c b6d5 853d 5df1 93bc
000002e0: ce52 1fbe 9fcf 263d 66fa 82bd 31a4 46bd
000002f0: 7120 d43d 153b 213d 7cbe ac3d bf9d c23d
00000300: 0843 fcbd 7aa2 ac3d 15c4 303d cd99 5d3d
00000310: 66cf 80bd 32bd d7bd 0572 cc3d f118 5abd
00000320: 48e1 16bd 4773 3e3c da80 923b afa5 433d
00000330: 4401 93bc b6ab bebb 5a12 1cbd b620 533d
00000340: 5bff 1abd b903 e7ba 716d 4bbd d87a c8bc
00000350: a35f 41bc b521 2dbc f5bf c2bc 830f 6c3c
00000360: 8e07 943d caba 523d 009f 1ebd 05cc edbb
00000370: 8649 66bc bee7 543c 89ce f83b bd5c ccba
00000380: 4ccc 1f3c 995a 0f3c 8e78 70bb 3e7a 903c
00000390: a632 a8bd afa2 04bd 5800 793d a5d9 3c3d
000003a0: 6b6d ffbc 2113 a4bd bf55 aabd 4b6e 473d
000003b0: 29c2 aabd 381f 3cbd cb8a 08bd 60cc 933d
000003c0: 2142 9dbd 6727 60bb 1645 e0bb a7ee 493d
000003d0: c5b2 97bc 9d82 4d3d 78ee 03bd fa34 103d
000003e0: d386 afbd eaa1 243c 0492 f93c a12b 93bd
000003f0: 50e9 4d3d ee87 adbc 7bba 923d c539 80bd
-0.09573429 -0.016598849 0.0063419915 0.069084965 -0.059247185 0.056901015 0.036458604 -0.03801387
0.046280235 -0.01915623 -0.016162224 -0.039849646 0.08187477 -0.03414254 -0.02729957 0.019993607
0.01506511 0.07423393 -0.045812394 0.039165042 -0.029936006 -0.026614161 0.045838393 0.049704775
-0.07655515 -0.011237351 0.07181623 0.016935222 -0.09784468 -0.089844845 0.05371838 -0.04965219
-0.004938552 -0.065793976 -0.07375781 0.054474067 -0.053268924 -0.08971887 0.028892927 0.008967276
0.053318307 -0.060968254 0.0029507035 0.04759005 -0.034592703 -0.005779444 0.0135027 -0.07351888
-0.09964707 0.07858692 0.067302845 0.04237798 0.08235155 0.0085038785 0.084252045 -0.009297119
-0.030098516 0.017119188 0.00094691204 -0.009860433 -0.024649916 -0.0051881196 -0.073298454 0.07181918
0.030533794 -0.060926788 -0.051305696 0.048861686 0.057017755 -0.06927698 0.003219432 0.08583968
-0.07117909 0.083081014 0.050495822 0.024990011 0.07128176 0.01126488 0.06358001 -0.062378563
-0.041278172 0.036118913 0.060563765 0.046643835 -0.064131305 -0.01782601 -0.06336433 -0.006660817
0.0056865043 0.056996852 0.03518107 0.0759442 -0.08943711 0.06584149 0.03638049 -0.031042572
0.036324788 -0.07802607 0.098069414 0.007637758 -0.07423768 -0.1528733 0.0062033515 -0.078143395
0.006640914 -0.011583282 0.115436666 -0.011712604 -0.030319083 0.092047356 -0.08481335 0.06323652
0.00091497286 0.11254031 0.062168542 0.049469613 0.08980896 0.08883279 -0.058228448 0.13137296
0.060453456 0.041424964 0.12188197 0.12683393 0.01085462 0.052834343 0.11131463 -0.029600265
-0.057661545 0.032310635 -0.07651699 0.00057338417 -0.05541214 -0.044372234 -0.1129813 -0.092801996
-0.04538456 0.05728214 0.027366986 0.07135387 -0.09863775 0.114115775 -0.03330091 0.07033685
-0.09591919 -0.041577425 0.06285107 0.030705389 0.08827762 0.088755056 0.10917191 0.012443184
0.09199087 0.09400883 -0.03719649 -0.02188184 -0.015045964 0.028550107 -0.13975881 0.060269076
-0.06263279 -0.024591006 -0.05320565 0.010684914 0.07796861 -0.08702826 -0.087156326 0.015486595
-0.03450848 -0.04134388 0.0083138365 0.11719481 0.004312742 -0.0420291 -0.05927255 -0.035835106
0.04718728 -0.031476237 0.028449569 0.010465317 -0.07112049 0.017543498 0.06534903 -0.018059427
-0.15558931 0.040725347 -0.06395416 -0.04849643 0.1035775 0.039362986 0.084347695 0.09502744
-0.12317473 0.084294274 0.04315575 0.054101754 -0.06289558 -0.10534133 0.09982685 -0.053246442
-0.03683594 0.011624164 0.0044709267 0.04776543 -0.01794494 -0.0058188094 -0.03810344 0.051544867
-0.037841182 -0.0017625011 -0.04966492 -0.024472639 -0.011802587 -0.010567118 -0.023773173 0.014407995
0.072280034 0.051447667 -0.038725853 -0.007256987 -0.014055615 0.012994705 0.0075929803 -0.0015591603
0.009753298 0.0087496275 -0.003669295 0.017636415 -0.082127854 -0.03238171 0.060791343 0.046106
-0.031180104 -0.08011461 -0.08317136 0.048689168 -0.08337814 -0.04592821 -0.03333549 0.07216716
-0.07678629 -0.0034203173 -0.006844173 0.049299862 -0.018517861 0.05017339 -0.032209843 0.035206772
-0.085706376 0.010048369 0.030465133 -0.07186056 0.050271332 -0.02118298 0.071644746 -0.06261019

encoder.logvar_layer.bias f4 [3]
00000000: 49b1 d33d 30d7 56bd 035f ca3c
0.10336549 -0.052451313 0.024703508

decoder.layers.0.weight f4 [100, 4]
00000000: 2e8a 0dbd 5199 333c 6f66 e03d a5ea 443e
00000010: 030c a3bd 2069 e0be c766 9a3e 4b08 bd3e
00000020: f19f 923e 3748 09be 4468 943c 1af8 9a3e
00000030: a14a c83e ae83 c6bd 3e9c 863e b133 b53e
00000040: 3874 b7bd 43a0 ee3d c0fd ea3d 74f1 e33e
00000050: 2b00 a13e 5fc5 163e 5aa3 1cbe b881 39bf
00000060: 5e2d 243e b558 113e 83db aabe 7871 053f
00000070: 466d 5cbe 955d f33d b8c4 b3bd 0a9b 32bf
00000080: 244b 18be 2f36 aebe 2141 19be f578 debd
00000090: 5eb1 94be 3746 e8bd 7948 b43d 7250 b73d
000000a0: 4128 253e 7e03 56be 5fe7 19be 7b47 08bf
000000b0: 6d9b 603e 7cc2 29bd d568 ddbd 6181 003f
000000c0: f581 26be 7b4f bb3e 138f 67be da06 7f3e
000000d0: 2871 66be 61cd f73c 757f a5bd de3b 9a3e
000000e0: 25c2 603d 815e d0be 5c04 6d3e 92fd 61be
000000f0: 81d7 7c3e e298 c7be c3a8 cb3e 1f74 8dbe
00000100: 650b 8b3e 89be 5ebe 6d6a 34be 193f 31bf
00000110: 2e41 b23e 931a 623e 5bd6 603d 2375 e5be
00000120: d9b9 ca3e d8dd 54be 2bb5 d9bd 4073 6a3e
00000130: b0f7 c13e 47e6 433e 4607 77bd 3aff d13e
00000140: bb17 623e 4751 643a fd4d dcbd 827d 2b3e
00000150: fc09 4e3e 2c99 6b3e 71d1 76be adbf 98bd
00000160: 219c 823e 408c 873d cc7c 9b3e e3b3 943e
00000170: 71ab fd3d be62 14bd 4790 09bd d605 b33e
00000180: 4119 90be 96ba ccbe b4df 1ebe 13a4 8d3e
00000190: 9b6e ae3e 7b73 34bd e218 243e 15de 1b3e
000001a0: 89ed da3d c5e4 413e 4e9e b5bd 5ed0 123f
000001b0: 2c9e ee3e a789 273e 8ac3 4f3e 8ab9 abbe
000001c0: 3564 6c3e 354b 47be 9d1d d2bd 46f7 04bf
000001d0: 6224 733e 00a4 b4bc 0dc3 8abe 528c 02be
000001e0: e0b1 bbbe d402 3cbe 073f 9f3e 6501 30bf
000001f0: 581b 15bd cfa9 df3d 7e90 86be cdda 9f3e
00000200: 0522 b33e 7fe5 31be 2c64 473e db1e 17bf
00000210: 9ae3 84be c57d 9e3e 6a4f 933e b944 0ebf
00000220: a8c1 a73e f097 febd fd8a 60bd 979d f93e
00000230: fd3d d0be dcec 113e 49a4 d33e 7e26 0b3f
00000240: 8a21 3f3c c1a1 443e 49c0 7dbd 9fd6 f03d
00000250: 1feb 38bd cd71 973d 3cff 18be d734 e1bd
00000260: f127 993e eda1 c8be 3ed4 0cbe aa3c 173f
00000270: 6f6f 833e 2a33 a43e 0673 e63d ca0f 13be
00000280: 222c 653e 4d2f 86bc 4785 d1ba 8a1f ffbe
00000290: 4659 00be 155d a33e 951d 1c3e cf69 00be
000002a0: 35ff 90be 82d1 1f3d 3ea6 b13d 53f7 34bd
000002b0: 5ec7 c23e ec5f 37bd e91d 743e 66f3 073f
000002c0: 03df 7f3e deaa afbe 72cf 13be cf35 953e
000002d0: a324 db3d df3d 14bd 495b 563e d52c e4be
000002e0: 1843 a3bd bf8d 8dbe e4da b1bd a3d2 fcbe
000002f0: 7e99 81bc 97f4 89be abae 8d3e 385d 20bf
00000300: 5668 6bbe 5b10 8fbd 5e30 db3e 385f b4bd
00000310: e0cb e7bd 006a 913e 27eb 7abe 7f85 623e
00000320: a586 a03e 4f61 3b3e 5345 54be 274a 1c3e
00000330: e6d9 4c3e 58ec 983d 6368 83be 55ed 663e
00000340: 08b4 883e b895 ac3e 2870 4cbe f720 a93e
00000350: 5e56 a4be f26a bbbe 9eb1 7dbe 44a5 ca3a
00000360: 1de5 9e3e c06a 83be 7ed1 443e 60b1 013f
00000370: a10c 7abe 1f54 5f3e 4837 a9be 48a4 27bd
00000380: f6e1 67bd 40da 71be d28e 603e 4b6e a43e
00000390: 1be5 79be b33f cebd 2ea0 20be 16d0 12bf
000003a0: abdb a03e 5efd 813c 6d45 a93d 574d f63e
000003b0: 5e89 b3be 265b 7c3d 31cb 09be e44d 253f
000003c0: bb50 c53e a321 d63d b2f0 f43c 2a32 483e
000003d0: 5892 8b3e 3558 123d 5962 143e 2e8f c8be
000003e0: aabd 9bbe 0c02 193e 6645 48be 24ca d63e
000003f0: 2432 20bd 7730 9ebd 1411 2ebd 70a4 1fbf
-0.034555607 0.010961846 0.10957038 0.19230135 -0.079612754 -0.43830204 0.30156538 0.3692039
0.2863765 -0.13406454 0.018116124 0.3026741 0.39119437 -0.09693085 0.26291078 0.35391
-0.08957714 0.11651661 0.1147418 0.44520152 0.3144544 0.14723729 -0.15296689 -0.7246356
0.16032931 0.14193995 -0.333706 0.52126265 -0.2152606 0.11883084 -0.087777555 -0.6976782
-0.14872414 -0.34025714 -0.14966251 -0.108629145 -0.2904157 -0.113415174 0.088028856 0.089508906
0.16128637 -0.2089977 -0.15029667 -0.5323407 0.2193429 -0.04144524 -0.10811011 0.50197417
-0.16260512 0.36584076 -0.22613172 0.24904957 -0.22504103 0.0302493 -0.08080951 0.301238
0.05487265 -0.406971 0.23146194 -0.22069386 0.24691583 -0.38983828 0.39777192 -0.27627656
0.2715713 -0.21752371 -0.17618723 -0.69236904 0.34815353 0.2208045 0.054891925 -0.4481593
0.39594916 -0.20787752 -0.10630258 0.22895527 0.37884283 0.19130813 -0.06030967 0.41015035
0.22079365 0.0008709621 -0.107570626 0.16747096 0.20120996 0.23007649 -0.24103333 -0.07458434
0.25509742 0.066185474 0.3036865 0.29043493 0.123862155 -0.03622698 -0.03358486 0.3496539
-0.28144267 -0.39986104 -0.15515023 0.2766424 0.3406876 -0.044055443 0.16025117 0.15221436
0.106898375 0.18934925 -0.08868085 0.57349193 0.4660505 0.16361104 0.20289436 -0.33539993
0.23085101 -0.19462283 -0.102595545 -0.5193981 0.23744348 -0.022050858 -0.27101937 -0.1274884
-0.36659145 -0.18360454 0.31102774 -0.6875213 -0.03640303 0.1092106 -0.26282114 0.3122162
0.34986892 -0.17372702 0.19471806 -0.59031457 -0.25954896 0.3095533 0.28771526 -0.5557361
0.32764935 -0.124313235 -0.05482005 0.48753044 -0.40672293 0.14250511 0.41336277 0.5435561
0.011665711 0.19202329 -0.061950956 0.11759686 -0.045146104 0.07394753 -0.14941114 -0.109964065
0.29913285 -0.3918604 -0.13752839 0.5907694 0.25670955 0.32070285 0.11252408 -0.14361492
0.22380117 -0.016379977 -0.0015985154 -0.4982875 -0.12534055 0.31906953 0.1524566 -0.12540363
-0.28319708 0.03901816 0.08674286 -0.04418118 0.3804273 -0.044769213 0.23839535 0.5310577
0.24987416 -0.3431005 -0.14434603 0.29142615 0.10700347 -0.036191817 0.2093326 -0.44565454
-0.079717815 -0.27647206 -0.08684328 -0.49379453 -0.015820261 -0.2694442 0.27672324 -0.6264224
-0.2298902 -0.069855414 0.4281034 -0.08807224 -0.11318183 0.28401184 -0.24503766 0.22121237
0.31352726 0.18298839 -0.2072957 0.15262662 0.20004997 0.07466954 -0.25665578 0.22551472
0.26699853 0.33707976 -0.19964659 0.33032963 -0.32097143 -0.3660503 -0.24774787 0.001546063
0.31034175 -0.2566738 0.1922054 0.5066128 -0.2441888 0.21809433 -0.3304999 -0.040928155
-0.056611978 -0.23618412 0.21929482 0.32115397 -0.24403803 -0.100707434 -0.15686104 -0.57348764
0.31417593 0.015867885 0.08265195 0.4810588 -0.3506574 0.061610363 -0.13456418 0.64571977
0.38538155 0.104556344 0.029899929 0.19550386 0.2726009 0.035728652 0.14490642 -0.39171737
-0.3041814 0.14942187 -0.19557723 0.41951096 -0.039110318 -0.07724088 -0.042496756 -0.62360287

decoder.layers.0.bias f4 [100]
00000000: 91b8 cfbc 1a57 933e c9ca a13d b01c 89be
00000010: 38ff d1bd babf 63bd c830 bc3e 7136 f8be
00000020: 4b07 9e3e 4fc4 27be 51d4 9d3d ff1e f3be
00000030: 64c5 d63d 97b8 cc3e 3a75 a93d 9135 d5be
00000040: 86e9 c0be d436 e3be bfec c7be c64b 02bf
00000050: e546 b3be d55c f03e 9c31 20bf 7028 1abf
00000060: b97c e8be c4da d33e d12c 85be ae3d fe3e
00000070: 9ab9 21be 27ae 5b3f b4b7 cebe 707f 3abf
00000080: 0ba0 193f 0f28 fd3d 4934 2f3e fb00 2bbe
00000090: 4c03 1dbf 0364 3e3f cbf2 80be 6184 5c3f
000000a0: 5e54 32be bbe7 363f a328 dabe f62d 8a3e
000000b0: 09ea bebe 5d54 77be 41ab 083f 88a8 95be
000000c0: 865c be3c 0adf edbe f3ce 0fbf 1491 313e
000000d0: c54b 13be ffcb 08be 9aa2 373e 9801 253f
000000e0: 386f 013f 7549 d83d 09b5 00bd 95a4 afbe
000000f0: 3846 96bd f44a 16bf 2a09 89be b4e1 f03e
00000100: 780e 0fbf 2a70 3d3e 7121 463f cbe6 f3be
00000110: f8fd 8cbd ef01 403e 0106 913e 6c61 e4bd
00000120: 8f57 8abe 2362 3ebf a64e 4a3f 04a5 cdbe
00000130: 0a6e 15bf 327a 9e3e d970 793d 0eee 1d3f
00000140: 00e8 043f d58f af3e ce60 0e3f c106 07bf
00000150: 6ad6 2bbf 8b9b 74be 483a 123c ffca 413f
00000160: 49c2 a43d 9d6a 05bf 697e f93e 1638 5cbe
00000170: 636b 1abe b07c 0abf 3c06 00bf f69f 943e
00000180: c188 a03e bde2 153e cd0a 2cbf 7128 f1bd
-0.025356563 0.2877739 0.07900006 -0.267797 -0.10253757 -0.055602767 0.36755967 -0.48479035
0.3086494 -0.1638348 0.07706512 -0.47484586 0.10486868 0.3998458 0.08274312 -0.4164243
-0.37678164 -0.44377768 -0.3904781 -0.5089687 -0.35015026 0.46945825 -0.625757 -0.6021795
-0.45407656 0.41377842 -0.26010755 0.49656433 -0.15793458 0.8581261 -0.4037453 -0.72850704
0.6000983 0.12361156 0.17109789 -0.16699593 -0.61333156 0.74371356 -0.25185236 0.86139494
-0.17414996 0.7144734 -0.42609128 0.2698819 -0.3728793 -0.24153276 0.5338631 -0.29230142
0.023237478 -0.46459228 -0.56175154 0.17340499 -0.14384373 -0.13359068 0.17933121 0.64455557
0.5056033 0.10560886 -0.03142265 -0.34305254 -0.07337612 -0.5870812 -0.26764804 0.47047198
-0.5588145 0.18499818 0.7739478 -0.4763702 -0.06884378 0.18750738 0.28324893 -0.11151394
-0.27019927 -0.74368495 0.7902626 -0.4016496 -0.5837103 0.30952603 0.060898636 0.6169137
0.51916504 0.34289423 0.5561646 -0.5274468 -0.67124045 -0.2388746 0.008925028 0.7570037
0.080448695 -0.52115804 0.48729256 -0.2150577 -0.15080027 -0.5409651 -0.5000951 0.2902829
0.31354335 0.14637275 -0.6720398 -0.11775292

decoder.layers.1.weight f4 [200, 100]
00000000: b787 c33d 4b58 53bd 69b5 b83d b9e0 823d
00000010: da2c 023d 46b2 1bbd 3ae6 183d c60d 93bd
00000020: 534e 8bbd e50f b23d a82e cabc 3f5c af3d
00000030: 10c9 39bc dfa5 ac3d 54a6 16bc 0342 e23c
00000040: 340e 513d 504d 84bd d37c 413d 1ffa 363d
00000050: 0862 ce3d 3b7e 1c3d d70f 8b3d db0f bd3c
00000060: ffca 0d3d 19e5 2d3c bdac 813d f4ec 8dbd
00000070: ef80 453d 850b 5f3c b2ef 18bb a864 58bd
00000080: cdd9 12bd 0410 403b 0e23 123d 2c49 683d
00000090: cd53 c43d 5c26 4cbd c081 c23d 9120 72bd
000000a0: db48 78bd a010 b0bc 9034 d73d da71 ae3c
000000b0: e659 b43d 83c2 9abd a5f7 b63c ba93 c53d
000000c0: f1ed 953d 9e1d 6ebd 3231 fa3c b544 473d
000000d0: 157c a5bd c28b 763d 2a7e 94bd 88f8 a6bd
000000e0: 710d 253d 09a1 0e3d e3ed 263d 130d 063d
000000f0: a8b5 aabd 499b 173d 2626 853d 6b94 8cbc
00000100: 51ed 093d 33ae 36bd cf28 c5bd a2a6 5e3d
00000110: c374 233d 1bb7 6cbd 9308 763d f74a 85bd
00000120: fdbd c1bc 7981 b13d 0a4f 96bd 7776 163d
00000130: b558 8d3d 96c0 8dbd e2db b13c 6e94 8f3d
00000140: f5f4 3c3d 38b4 253d 2226 cbbd a978 703d
00000150: d60c 92bd e9a0 b43a ff97 8abc c640 383d
00000160: ad4e 77bd 9e98 ae3c 3708 6d3d c053 043d
00000170: f3ec 55bd 393a 95bc a4ae 573c adc6 953d
00000180: 8755 b8bd ec88 823a 7fe3 97bd 1f5f 3b3d
00000190: 5577 cd3c 5cf8 aeba 9f08 923d e753 17bc
000001a0: dbcf 83bd 9bcc 1dbd dadc 9abd 8e77 11bc
000001b0: 0e22 5f3d cfb6 8c3d 6f53 693d 1ff9 063d
000001c0: d06d f73c ec8f ee3c 8d51 093c 75f3 b8bd
000001d0: a9b7 2ebd b6ee a43d f0bb c6bd b9e0 98bd
000001e0: 3b92 8f3c 44d0 da3d cc4b aabc 5cc5 8ebc
000001f0: e5ae b3bd 3636 bb3d 43ed c8bd 22c0 82bb
00000200: 96f3 30bc 88b2 b7ba 9fd4 32bd b284 c1bd
00000210: de34 ce3d bdc0 05bd bb0d febc dea6 d8bd
00000220: 00d3 c6bd 8217 a43c dd2c 143b 5322 9739
00000230: 5a14 2f3d 4895 d03d eb8b e2bd a7f1 6ebd
00000240: b760 a0bd e4e5 abbd dda4 843d ab10 f9bb
00000250: 49b3 65bc 1c37 5c3d fbfb e9bd cd6d 90bd
00000260: 1f8c 543d 55bc 033c 2cb5 543d 3bef 063d
00000270: f7eb b5ba 6214 80bd 6064 b7bb 25fb 8cbd
00000280: 50a2 c63c 3b75 7ebd fb67 ccbd 95f5 10bc
00000290: bfc7 b6bd d809 84bd ebfa 943c 9383 fabc
000002a0: 391e 8439 1fbc c03d d3d9 3c3d a3dc bcbc
000002b0: d161 34bc 9be8 c2bd f4d4 99bc 4317 37bb
000002c0: bb85 48bd 6ccb b63d 0bbb 4ebd 6f73 0b3d
000002d0: 2374 073b fa51 ec3b b7bd adbc 8206 c6bd
000002e0: 7428 8d3d 3a99 7e3d 9d4e 19bd a1e1 993d
000002f0: 4b7d a4b9 36aa 3b3d 906a 523d 7428 af3d
00000300: 3796 85bd 77c2 9ebd 4c68 2b3d 4111 19bd
00000310: 8cab 6cb8 0fb3 353d 0c96 453d 9c83 773d
00000320: 0b52 9ebd 4b27 a93d 96ee 823d b18b 7b3c
00000330: 47b8 193c 6ab6 313d 1c72 583c aa92 233d
00000340: 4d65 9ebd 439d 923d 3760 89bd c8fd 7e3d
00000350: cd89 063d a12d 173d be49 0d3c d2a2 a23d
00000360: 3d49 da3c 2a78 c3bd f287 34bd 4e2f 213c
00000370: f137 603b 49e1 afbd 0360 e63d 3e14 c53d
00000380: 0506 053d cbb7 a13d 2bc5 aebd a189 2e3c
00000390: 4641 7abb 2b16 513d ccf0 86bd f91e 28bb
000003a0: 9e43 d8bd e20e 90bd 2358 043d 4d57 c5bb
000003b0: f970 7a3d cf85 183b 8644 d63d 5803 9fbd
000003c0: 585c 3f3d 5210 13bd 68e7 f7bc 06aa 98bd
000003d0: 01e1 82bc dceb 8fbc 0812 d23c fa02 9fbd
000003e0: d1a5 a2bd ff33 263d 4db0 e3bc 793d 47bd
000003f0: b3bc b7bc ec99 453b 40fb 083d 86cb 4d3d
0.0954737 -0.051597875 0.09018976 0.06390519 0.031781055 -0.03801181 0.037328936 -0.071803614
-0.068020485 0.08694438 -0.02468045 0.085625164 -0.011339441 0.08430075 -0.009194929 0.027619367
0.051038936 -0.06460059 0.047238182 0.044672128 0.10077292 0.03820632 0.067901306 0.02307885
0.03461742 0.010613703 0.06331775 -0.06929961 0.048218664 0.013613586 -0.002333623 -0.05283037
-0.035852242 0.002930642 0.035677962 0.056710407 0.09586296 -0.04984127 0.09497404 -0.05911309
-0.060616355 -0.021492302 0.105080724 0.021294523 0.08806209 -0.075566314 0.022334883 0.09647317
0.07320774 -0.058133714 0.030541036 0.04864951 -0.080803074 0.060191877 -0.072506264 -0.08152872
0.04029602 0.034821544 0.04075421 0.032727312 -0.083354294 0.037013326 0.06501417 -0.017160615
0.03367359 -0.044599723 -0.09626924 0.054358132 0.039906275 -0.05779181 0.06006677 -0.06508439
-0.023650164 0.08667273 -0.07339294 0.03673407 0.06901685 -0.069214985 0.021711294 0.070107326
0.046132047 0.040455073 -0.09919383 0.05870882 -0.071313545 0.0013780865 -0.01691818 0.044983648
-0.060377765 0.021313008 0.057869162 0.032306433 -0.052227926 -0.01821624 0.013164196 0.07313285
-0.09000688 0.0009959019 -0.07416438 0.04574501 0.025081316 -0.0013349163 0.071305506 -0.0092363125
-0.0643613 -0.038525205 -0.07561655 -0.008878602 0.054475836 0.068708055 0.056964334 0.032952424
0.03020373 0.029121362 0.00838126 -0.09030811 -0.04265562 0.08053343 -0.09703815 -0.074647374
0.017525783 0.10684255 -0.020788096 -0.017428093 -0.08773593 0.09141199 -0.09810879 -0.003990189
-0.010800263 -0.0014014998 -0.043659803 -0.09449138 0.10068677 -0.032654513 -0.031012407 -0.105787024
-0.09708214 0.02003074 0.0022609748 0.00028826538 0.04274402 0.10184723 -0.110618435 -0.058335926
-0.07830947 -0.083934575 0.06476758 -0.007600864 -0.014019796 0.053763494 -0.114250146 -0.07052193
0.051891442 0.008040507 0.05193059 0.03294299 -0.0013879527 -0.06253888 -0.0055966824 -0.068838395
0.024247319 -0.06212352 -0.0998077 -0.008847614 -0.08924817 -0.0644719 0.018186053 -0.030580318
0.0002519952 0.09410881 0.04610617 -0.023054427 -0.011009649 -0.09517022 -0.018778302 -0.002793745
-0.04895566 0.089255184 -0.050471347 0.034045633 0.0020668588 0.007211921 -0.021208627 -0.0966921
0.068924814 0.062157847 -0.037428487 0.075137384 -0.00031373868 0.045816623 0.051371157 0.08552638
-0.06522792 -0.07751935 0.041847512 -0.03736997 -5.642655e-05 0.044360217 0.0482388 0.060428247
-0.07730492 0.08259448 0.06393163 0.015353129 0.009382314 0.043386854 0.0132108 0.03993479
-0.07734165 0.071589015 -0.06707805 0.062253743 0.03284626 0.03690875 0.008623539 0.07941212
0.02664625 -0.09544404 -0.04407496 0.0098379385 0.0034213031 -0.085878916 0.112487815 0.096230015
0.032476444 0.07896384 -0.085337006 0.0106529305 -0.0038185879 0.05104653 -0.06588897 -0.0025653227
-0.10559772 -0.07034089 0.032310616 -0.00602237 0.061142895 0.0023273116 0.104622886 -0.0776431
0.046718925 -0.035904236 -0.03026171 -0.074543044 -0.01597643 -0.017568521 0.025643364 -0.077642396
-0.07941783 0.04057693 -0.027794028 -0.04864261 -0.022428846 0.003015156 0.033442736 0.050242923
