src/magnetics_diagnostic_analysis/project_scinet/checkpoints/pendulum_scinet_interrupted.pth (torch, 353492 bytes, 13 tensors)

encoder.layers.0.weight f4 [500, 50]
00000000: 3a49 de3d 2237 f13d 9949 05bd 655e 053e
00000010: 61d6 f8bc ac5a ed3c f9aa 8abd d6b8 a63d
00000020: 071e fd3d 821f d5bd f718 fa3d e5cf d33c
00000030: 6b7f d43d 5607 983c 7b49 8a3d 6fe4 a7bc
00000040: f0af dd3d 0851 a63c 06bd 87bd 147b 103d
00000050: 8453 81bd 0ecc 81bc 34f3 67bd 98e6 c03d
00000060: 19ea e2bd 970b 84bd 5dd7 20bd c29c acbd
00000070: 84b5 633c c418 0ebe a2ee 023e 56d1 f3bd
00000080: c544 de3d 1a05 b73c e49d 3dbd c0d2 b03d
00000090: b6a6 ae3c 9213 e83d 9369 723c 1fc7 38bd
000000a0: 2cc4 183d a61d 1fbd 3da6 703d bf38 003e
000000b0: df6e a53d 512b 7cbd 811f a43d 9fa7 d33c
000000c0: 79b3 933d ba5f aebd 417d 0fbe 079e 60bd
000000d0: 9871 debd 09e5 ec3d c0a3 253d b379 6e3d
000000e0: c86b 353d a2fd 04bb 10a8 e23d 72da ccbd
000000f0: e92b 163c d9ea c4bd c47f 333d 4f3e 46bd
00000100: 6e52 323d 0523 efbc b159 f03d 92f0 aabd
00000110: 73ee abbd c8a1 abbd 54e8 fe3d e797 3e3d
00000120: 0cad 0a3e cf41 efbd bcbb 0fbe 61df e2bd
00000130: 1821 c3bd 0a47 693d 8826 4e3d d0d0 ef3d
00000140: 63a0 95bd d011 c5bd e8cb 983d 33a8 5fbd
00000150: 2cf0 af3d 9857 07bd fc0a a63d 26f1 dfbd
00000160: 154b 91bd 3379 313d ffa8 f63c 7b71 12bd
00000170: 1eb6 ac3d 45b9 c43d 070f d1bd b9c1 99bd
00000180: da43 013e fcd5 44bd 4781 4ebd 521f 0cbe
00000190: 434f a4bd dc1b 133d e06a 93bc 8b80 d0bd
000001a0: 9a0c 823b 8098 c3bd 6069 f1bd 4320 9dbd
000001b0: ea1f fdbd fde0 b8bd 40e1 0f3e d4e9 d53c
000001c0: f3e3 2f3d 7f68 07be a711 bfbd 50e7 42bd
000001d0: 2682 af3c 8c73 ffbd 5395 7bbd fcbc adbd
000001e0: dd22 49ba 42ba 55bd c92a 1bbc 21e5 c2bd
000001f0: 266c c5bd 5ca2 a7bd 5ed1 43bd bdff e2bd
00000200: aa5e f33d 354e e0bc 18a2 f93d a5b4 363d
00000210: 5deb f0bd e551 c73d dca4 1cbd 5318 5dbd
00000220: a8e0 efbd 28ca 0fbe 92c5 233d 5ca7 ffbc
00000230: d304 5f3d 76f3 edbd e321 d53d f7ed d4bd
00000240: a7cf ccbc 662a e83c d650 903d efee e53d
00000250: 5cd6 023e 2555 e4bd d89d 123d 51ab 77bd
00000260: b629 79bc f2c6 d7bd 36c6 033e a51c d3bd
00000270: a820 993d d3ff 453d 50c2 393d e9b8 9cbd
00000280: 9bf7 023e cc83 fb3c 0647 923c 8f53 ffbd
00000290: 1380 713d 99a3 afbc 84da 84bd bc6e f73d
000002a0: 467a ff3c c645 9ebd 8782 8cbd 7fbf cabb
000002b0: f2d9 a13d 9def 11bd 720a a4bd ea6e 44bd
000002c0: 9827 d7bd 3653 4f3d f825 e03d 1a9c 07be
000002d0: 77e4 063d f0fe 943d c9d6 ce3c 0ead 4bbd
000002e0: 7430 943d 4736 963d b6c1 553d a746 cebc
000002f0: 457d 1abd f203 713c 3bd3 cebc a951 2dbd
00000300: 62c9 b73d 3c24 f73d 5529 66bc e953 ffbc
00000310: 7b72 453b ee09 f5bb 69a9 0c3d ab8c 233d
00000320: d13c 03be 55f7 54bd a4d3 f33d 49cc 613d
00000330: 5dd6 e1bb b0c0 adbd d656 afbd cd15 00be
00000340: 9c99 3cbd b18b 423d 2c08 b83d 1139 853d
00000350: e2e2 ffbd 1a2c aebd 0297 b7bc 6cb7 0b3e
00000360: e73f a63c 7016 16bd 7440 6e3d 88ec 5abd
00000370: ed14 b6bd d170 d23d 8ced 82bd 357c e6bc
00000380: ec9b 0fbe 1cb9 c13d 8145 db3d e133 533d
00000390: 4145 c9bd 1773 0ebe 5b44 eabd 2f2a d73d
000003a0: c4e6 893d 5be2 ea3d f4ff 953d b33f 113d
000003b0: 87ed c7ba 7ce9 dbbd 8ac6 f7bd 463f 07be
000003c0: 2909 6c3d fe0d 8ebd d356 e9bc 0240 a6bd
000003d0: 06af d2bc 16ff c9bd e258 b7bd 1d81 3e3d
000003e0: b54f 2abd 8c44 b23d b2cb 3abd 04da d4bd
000003f0: 845f cebc 7ec6 8cbd 00f3 31bd b5c8 09be
0.108538106 0.11778094 -0.03254089 0.1302429 -0.030375661 0.0289739 -0.06770892 0.081407234
0.12359243 -0.104064 0.12211793 0.025855968 0.103758655 0.018558186 0.067522965 -0.020494668
0.10824573 0.02030231 -0.0662785 0.035273626 -0.063147575 -0.015844371 -0.05662842 0.09418982
-0.11079807 -0.06447523 -0.039267886 -0.08428337 0.013898257 -0.13876635 0.12786344 -0.11905162
0.108529605 0.0223413 -0.046293154 0.08633947 0.021319728 0.11331858 0.014795679 -0.04511177
0.03729646 -0.038846634 0.058752287 0.12521647 0.080777876 -0.061564747 0.080138214 0.025836764
0.07211966 -0.08514352 -0.14012624 -0.054838207 -0.1086151 0.115671225 0.040439367 0.05822153
0.04429224 -0.0020292778 0.11067212 -0.10002603 0.009165742 -0.09615106 0.04382302 -0.048399266
0.043535642 -0.029191503 0.11735857 -0.083466664 -0.0839509 -0.08380467 0.12446657 0.046531584
0.13542575 -0.11682474 -0.14036459 -0.110777624 -0.095277965 0.056952514 0.050329715 0.1170975
-0.07305982 -0.09622538 0.07460767 -0.054603767 0.08590731 -0.03304252 0.08107564 -0.10934667
-0.07094399 0.043328475 0.03010988 -0.035752755 0.084331736 0.0960565 -0.10207944 -0.07507653
0.1262354 -0.048055634 -0.050416257 -0.13683823 -0.080229305 0.03591524 -0.017995298 -0.101807676
0.0039687874 -0.095505714 -0.11787677 -0.07672169 -0.12359603 -0.09027288 0.1405077 0.026112475
0.042942 -0.13223456 -0.09329539 -0.047583878 0.021424364 -0.12473211 -0.061421704 -0.084833115
-0.00076727365 -0.052179582 -0.00947065 -0.09516359 -0.09639768 -0.081852645 -0.04780709 -0.110839345
0.1188329 -0.027381042 0.1218912 0.04460587 -0.11763642 0.09732417 -0.03824316 -0.053978276
-0.11712772 -0.1404196 0.03998334 -0.031207733 0.05444796 -0.11618702 0.10406854 -0.10396951
-0.02500136 0.02834053 0.07046668 0.112272136 0.12777084 -0.111490525 0.035795063 -0.060466114
-0.015207699 -0.10535993 0.1286858 -0.10308198 0.07476932 0.048339676 0.045351326 -0.07652456
0.12789766 0.030702494 0.017856132 -0.124671094 0.05896003 -0.021440314 -0.06486991 0.12081668
0.031186234 -0.07728152 -0.068608336 -0.006187379 0.07902898 -0.035628904 -0.08009805 -0.04795734
-0.10505599 0.050616466 0.10944742 -0.13243142 0.032932725 0.07275188 0.025248902 -0.049725585
0.07235804 0.07334571 0.05218669 -0.025180174 -0.037717123 0.014710413 -0.025247207 -0.042314205
0.089739576 0.12067458 -0.01404794 -0.031167941 0.003012805 -0.0074779904 0.03434125 0.039929073
-0.12816168 -0.051993687 0.119056016 0.055126462 -0.006892009 -0.08484018 -0.085614845 -0.12508316
-0.04604493 0.0474965 0.08985934 0.06505025 -0.12494446 -0.085045055 -0.022410873 0.13644189
0.020294143 -0.03664249 0.058166936 -0.05344823 -0.0889071 0.10275424 -0.06392965 -0.028135398
-0.14024323 0.09459135 0.10706616 0.051563147 -0.09827662 -0.13911091 -0.11438819 0.10506093
0.06733468 0.11468955 0.0732421 0.03546114 -0.0015253284 -0.10737893 -0.12098415 -0.1320773
0.057625923 -0.069362625 -0.028483784 -0.08117677 -0.025718223 -0.09863107 -0.089525 0.04650985
-0.04157992 0.087044805 -0.045604415 -0.10393146 -0.02519203 -0.06873797 -0.043444633 -0.1345547

encoder.layers.0.bias f4 [500]
00000000: df7e c13b 4e58 083d 627d 98bd 1952 2bbd
00000010: c309 bb3d e2de e73d ad56 373d 1497 c53c
00000020: 2b60 b1bd ae43 d83d f947 623b a32a 853c
00000030: cb9b 34bd a8eb d13d 8fc4 d83d a938 d5bd
00000040: b53f 9f3c 3727 173a c685 bbbd 96b6 a1bd
00000050: 65f6 86bd 4d77 9a3d 4e78 43bd 3a00 9dbd
00000060: b6a4 15bd 5427 07be e8c6 b6bd 96a9 87bd
00000070: 2ef0 063e a2e7 cebd 076f 963d 3689 97bc
00000080: ab4a bd3d f785 81bd a9a2 fc3a fc6c 37bd
00000090: 728b dd3d 03de d7bd 4ba6 1c3d 1244 0e3e
000000a0: bd66 063e 9488 a2bb 842e 003d d478 ef3d
000000b0: 2f4c f73d 453f 8ebc 41cd adbc 352a a33d
000000c0: 26d7 cfbd 1e67 18bd 4fa0 0bbc cd2d e8bd
000000d0: 4b0e 96bd 1ac0 09be 4bf8 59bd 151d 0dbe
000000e0: 61bf 7b3d f152 2abd e95a 00bd 19b4 693d
000000f0: b3ed dbbd c658 04bd f204 9abd e7f6 88bd
00000100: 6ab9 8b3d 9d33 603d a05e 9abd 0c91 39bd
00000110: 55b2 8dbd d450 8fbc 6caa f63b 5980 033b
00000120: e448 d3bc 7b10 1ebb aa83 f63c 35f3 7ebc
00000130: ec4e 33bd 834d 413d f1a8 c93d 121b 263d
00000140: 897c cdbd c07c 1fbd ae0b ebbd 133d de3d
00000150: d6dd d0bd cbe8 9bbd 1c05 8a3d 51a8 c93d
00000160: b20c 843d 81e0 82bd bbe8 bb3d 650f 093d
00000170: 3e19 08be b765 97bc 8f12 03be d18c 49bd
00000180: 173f d83c a1a8 09be d88b 74bc dbf1 a83d
00000190: 820b c33b 5da6 f83d a5eb a9bc c98f 85ba
000001a0: 9093 ecbd 710d 29bd 552d b13c eab2 dc3d
000001b0: 574d 043e 7006 a2bc 73b5 fb3d 91ce 863c
000001c0: bf56 c43d 384d ab3d 2ffb bbbd fd29 0c3e
000001d0: 14ec 093d 97af a2bd 213d 0abe 8294 a63b
000001e0: eebd 48bd 8fd2 f53d d05c 453d 502d 8dbd
000001f0: eb6d 023d fcd3 a4bd ac85 053e e6df a13d
00000200: c13d 8d3d e990 7a3d 8523 60bc 3849 17bd
00000210: 0edc 653c db24 11be da73 93bd f956 783c
00000220: edcb cf3d 5327 8a3a 90fe 43bd 891a c73d
00000230: c71f 1c3d 6b4e b3bd f876 7d3d 9638 0f3d
00000240: 1ffc eebd 12b2 dd3c bebd c1bd 38c0 033e
00000250: 1fd7 b2bd 6289 c2bc bf3c 70bd 69d4 5f3c
00000260: 380d fc3d 2372 88bd 590c 3a3d 15e2 f5bc
00000270: 4c7f 74bd 287a 813b 6310 da3d ee5a 03be
00000280: 5a89 71bd 0c58 db3d 07fd 8abd 8faa 083d
00000290: 3227 5c3d e789 403c eb8b 343c 37ed c1bd
000002a0: 3554 babc 4523 debc e134 d8bb 447d 6cbc
000002b0: 886c 07bd a846 abbd 8b33 cf3d dfa9 233d
000002c0: 7b86 413d ba80 913d 0ec6 3f3b 86d6 ba3d
000002d0: 8cb8 373d 1b33 30bd 63f1 b23a 4f3e fdbd
000002e0: 5057 95bd c266 063e 9543 103e 0319 cdbd
000002f0: 9e59 80bd 4840 a03d 9b40 00be 14c5 7abc
00000300: 92bd 03be 2223 89bd 5c7d 96bd cbb1 f2bb
00000310: 5663 15bd cc4b a1bd f6b0 973d 52d5 7abd
00000320: a83a 0ebe 6d97 8e3d 91d1 bd3d c6aa 02bd
00000330: 55e8 7c3b 1911 913c 037a 98bc 3556 f1bc
00000340: e51b ebbd bf28 7f3d d899 eeba c444 983d
00000350: 9604 153c 59aa 68bd 6ae9 90bd 3cc1 8d3c
00000360: c282 933d c278 113e e09d 013e b820 ed3d
00000370: 1d3e ddbd 6443 cc3c f5c0 043e 0745 843d
00000380: 6782 bf3d 3507 0a3e 14f7 32bd 8608 9b3d
00000390: 61a0 ab3d 6012 3a3b a154 aabd b7c0 213d
000003a0: 7106 ef3d 4abe 853c 8b63 313d 8c2e a63c
000003b0: 1933 ce3d f52c 9b3d e89c fcbc 8160 bf3c
000003c0: d7fb 86bd 69ba b93c dbbf fabd bae0 463d
000003d0: db20 af3d 6a85 f4bd 0127 1a3d f412 a4bc
000003e0: cad4 64bd 1703 803d 3eb8 e53b d7b2 98bd
000003f0: ddc0 c53d f117 183d a254 c6bd 3e7d bcbc
0.005905017 0.03328734 -0.0744579 -0.04182634 0.09132721 0.113218084 0.044760395 0.024119891
-0.08660921 0.10559784 0.0034527762 0.016255682 -0.04409389 0.10250026 0.105843656 -0.10411198
0.019439558 0.00057660363 -0.09156375 -0.07896154 -0.06589965 0.07542286 -0.047722153 -0.07666059
-0.036534034 -0.13198596 -0.08924657 -0.06624143 0.13177559 -0.10102774 0.073453955 -0.018498044
0.092427574 -0.0632438 0.0019274551 -0.04478167 0.10817613 -0.10540392 0.038244527 0.13893154
0.13125129 -0.004960129 0.03129436 0.11692968 0.12075078 -0.017364154 -0.021216037 0.07967035
-0.10148458 -0.037207715 -0.008522107 -0.11336861 -0.07326945 -0.13452187 -0.053215306 -0.13780625
0.06146181 -0.041583005 -0.0313367 0.05705652 -0.10738697 -0.032311223 -0.075204745 -0.06687718
0.06822474 0.054736722 -0.075375795 -0.045304343 -0.0691878 -0.017494597 0.00752764 0.0020065515
-0.025791593 -0.002411871 0.03009208 -0.015560915 -0.043776438 0.04719306 0.09846676 0.04055316
-0.10033519 -0.03893733 -0.11476837 0.10851493 -0.10198562 -0.07612761 0.06739256 0.09846557
0.06447734 -0.06390477 0.09175249 0.033461947 -0.13290879 -0.018481119 -0.12800048 -0.04920656
0.026397271 -0.13443233 -0.0149259195 0.08249255 0.0059522996 0.12141106 -0.020742247 -0.0010189946
-0.11551583 -0.041272584 0.021628061 0.10776313 0.12920128 -0.01977846 0.12290468 0.01645592
0.09586858 0.08364338 -0.09178769 0.13687892 0.033672407 -0.07943647 -0.13499881 0.0050836215
-0.049009256 0.120030515 0.048184216 -0.06893408 0.031843107 -0.08048245 0.13039273 0.07904033
0.06896544 0.061173353 -0.0136803435 -0.03693506 0.014029516 -0.14174215 -0.07199831 0.015157455
0.10146318 0.0010540284 -0.04785019 0.09721858 0.038116243 -0.087551914 0.061881036 0.034966074
-0.11669182 0.02706245 -0.094600186 0.12866294 -0.08732437 -0.02374715 -0.058651682 0.013661482
0.12307209 -0.06662395 0.045421932 -0.03001503 -0.059691712 0.0039513297 0.10647657 -0.12827656
-0.05896888 0.10710153 -0.067865424 0.033365782 0.053748317 0.0117516285 0.011019687 -0.09469073
-0.022745231 -0.027116427 -0.0065981005 -0.0144341625 -0.033062488 -0.08363086 0.10117253 0.039956924
0.04724739 0.07104631 0.0029262337 0.09122948 0.044853732 -0.043017488 0.0013652261 -0.123654
-0.07292044 0.13125136 0.1408828 -0.10014536 -0.06267093 0.07824761 -0.12524645 -0.015305776
-0.12865284 -0.06696154 -0.07348129 -0.0074064485 -0.036471687 -0.07875785 0.074067995 -0.061238594
-0.13889563 0.06962476 0.09268487 -0.031901143 0.003859063 0.017708348 -0.018612867 -0.029460052
-0.1147993 0.062294718 -0.0018203808 0.07434991 0.009095332 -0.05680308 -0.0707577 0.017304055
0.072026744 0.14206222 0.12657881 0.11578506 -0.10802863 0.024934478 0.12964232 0.064584784
0.09351044 0.13479312 -0.043692663 0.07569985 0.08380199 0.00283923 -0.08316923 0.039490428
0.116711505 0.016326088 0.043307822 0.020285867 0.1006834 0.07576934 -0.030836537 0.023361446
-0.065910034 0.022671895 -0.12243625 0.04855416 0.085511886 -0.11939509 0.037634853 -0.020028569
-0.055866994 0.06250589 0.007010489 -0.07455986 0.096559264 0.037132207 -0.09684111 -0.023008939

encoder.layers.1.weight f4 [100, 500]
00000000: 0e8d c2bc bba1 f03c 6912 18bd beaa 81bc
00000010: 7648 63bc 9743 98bc 06c6 1a3d db0b 1dbd
00000020: 20e6 12bd 5171 18bd 962f a0bc 2de9 c63c
00000030: bc6d b63b d36d a2ba 6b40 0d3d 7715 fe3c
00000040: 48f6 343c d3e2 fd3b b5ab 8ebc f163 2ebd
00000050: f0d2 f13b 2a6e 1d3d 9958 063d 280e a6bb
00000060: 0615 f0ba fa8e 2e3d 1cae 39bd 1014 233d
00000070: 5638 2d3d 607a eb3c 6466 8f3c 9074 a53a
00000080: d3fe 833c 5346 b8bc 7df1 efbb 9f99 e6bc
00000090: 4fee a73b 38f1 49bc e907 263d d424 833c
000000a0: 82f4 ae3c 773a f1bc 42ce 4f3a 9cf7 223d
000000b0: 6ca8 993c 02ee 21bd bb36 9bbc e223 cd3c
000000c0: a07b be3c e1dd ba3b 7702 51bc cd37 d23c
000000d0: ba77 3f3c 1bf3 813b 7623 593c b274 cdbc
000000e0: 18f9 f7bc a0be f53c 84c1 bcbc 5251 03bd
000000f0: e78f 14bd 7fb1 143d 897b 993c 576a 9d3c
00000100: 0577 013d ff95 2ebd f88a 16bd 2634 903c
00000110: 127b 203d db6d 9f3c cc55 663b b750 2f3d
00000120: a6d3 a3bc 521b 1e3d cab2 183d 6d46 09bd
00000130: b363 a0bb bc29 173d ba54 273d 17ee 08bc
00000140: 0929 1e3d e144 15bd 8705 3e3c d92f f33b
00000150: 8e2c 483c fca9 bb3c b1e7 083c a2f4 c03c
00000160: 4689 0d3d a9f1 ca3c ddf9 e73c 46f0 333d
00000170: b770 0d3d 3d74 5b3b f3ce fcbc bdac a23c
00000180: f481 7e3b 3915 283d 5e5a 37bc d3d6 0b3b
00000190: 6c0f 26bd 02fd a8bc 0243 013d 55c9 e7bc
000001a0: 74f3 bfbc 51e9 1d3b 1d75 3d3b 58b3 ff3c
000001b0: 54e7 eabc e95e 0d3c db36 e9bc fc67 c43c
000001c0: 6ff9 903c 7638 c1bb 4336 013d b87e 023d
000001d0: 0ec8 cabc dda9 1cbd 578b ad3c 1a57 14bd
000001e0: 34dc a33b 1b73 8c3b 3244 803c 6891 bb3c
000001f0: 3c61 bebc 9104 5b3b 0bee dcbc 63eb fb3c
00000200: 799e 5f3c 7c29 1e3d c776 0b3d 0c6e a03c
00000210: 0adf e13c 80a9 5cb9 f331 0bbd d559 9cbc
00000220: a4d5 8abc 6fd3 a2bc 11c8 bebc 51a5 34bd
00000230: 657f 003c f16a e6bc d821 1ebd fd46 593c
00000240: 89b4 2dbd 2ef7 133c 7e54 05bb c46f c73c
00000250: dd9a 153d 44b4 b73c e5fd 14bd 74eb 7ebb
00000260: 026d aa3c ca49 12bd f2f5 32bd 768c 26bd
00000270: a8de 0abd e706 a43c 0f89 4fbc 4b49 983c
00000280: 8eb3 c7bc e336 44bc 747b c6bb cbf9 2a3d
00000290: 9959 ac3b a4e1 17bd f600 0b3d 8795 4c3b
000002a0: 036e 263d 48eb 5c39 cbe9 13bd 7ef4 de3b
000002b0: 35e7 c3bc bce3 ffbc 8b96 b33b 7b5d 863c
000002c0: dcac b8bc a706 48bc 1e41 93bc 36e9 073d
000002d0: dfed 3f3c fa1f 17bc 3a94 74bc 9668 89bc
000002e0: c555 27ba 547e 2e3c 7219 88bc 6a3e 9ebc
000002f0: b22f 05bd 30b6 223d 1b99 9dbc 9b85 233d
00000300: 64d4 a5bb e5fe 1cbc 6423 6fbc 2b95 3db8
00000310: 674c 05bb d868 4f3c ab93 b1bc 7a51 1c3d
00000320: a709 1f3c 083e febb 50bb f4bc 9fa5 3e3c
00000330: e25d 06bb 9d93 c9bb db49 24bd f092 863c
00000340: 74a0 9a3b 0861 e13c aac6 c8bc 5f5c e33c
00000350: ac18 0e3d b400 213c 4a2b 0c3d 0ea8 2bbd
00000360: 9e1e f23c 4864 71bc cfe4 783c 491f 043d
00000370: 4b7b b23b fc05 22b7 f1fa 9d3c 4c7f 2c3d
00000380: ab48 00bd 0567 2c3d 23a8 0b3c 0855 c63c
00000390: 17e3 64ba 9198 1fbc 7179 d6bb 5e02 2cbc
000003a0: e80e 1cbd 2179 003d 3b97 b23c 1e5b 37bd
000003b0: 0b0e b73c 271d 07bd 917a 93bc 4e38 203d
000003c0: 2c3a abbb 78da ed3c facd d93c d294 9c3b
000003d0: df07 32bd c206 fb3c 33cc 9cbc 2a4b f8bc
000003e0: 568f 79bc bf0c 163d 7f53 51bc c5a8 943c
000003f0: 23f3 993b 3133 b4bc 134c c53b cb6a 123d
-0.0237489 0.029373994 -0.037126932 -0.015828487 -0.0138722565 -0.018586917 0.037786506 -0.038341384
-0.035863996 -0.037217442 -0.01955394 0.024281109 0.0055672806 -0.0012392349 0.034485262 0.031016095
0.011045046 0.007747987 -0.01741586 -0.04257578 0.007379882 0.03843514 0.032799337 -0.0050676055
-0.0018316812 0.04261682 -0.04533206 0.039814055 0.042290054 0.028744876 0.017504878 0.0012623239
0.01611272 -0.02249447 -0.007322489 -0.028149424 0.005124844 -0.012325577 0.040534887 0.016008772
0.021356825 -0.029446824 0.0007927158 0.03978692 0.018757068 -0.039533623 -0.018946996 0.025041524
0.023252308 0.0057027196 -0.012756935 0.025661374 0.01168626 0.003965748 0.013253083 -0.025080059
-0.030270144 0.029998124 -0.023041494 -0.032059975 -0.03627005 0.036302086 0.018735664 0.019215746
0.031607646 -0.042623516 -0.036753625 0.017602991 0.03917987 0.019461563 0.0035146354 0.042801585
-0.019998383 0.038600273 0.03727988 -0.03351443 -0.0048946976 0.036905035 0.040852286 -0.008357546
0.038613353 -0.03644264 0.0115979975 0.0074214754 0.012217654 0.022908203 0.008356021 0.02355415
0.034554742 0.024773436 0.028317386 0.043930314 0.03453132 0.0033486031 -0.0308604 0.019857759
0.0038834782 0.041035865 -0.011190979 0.0021337762 -0.04054205 -0.020628456 0.031558044 -0.028294245
-0.023431517 0.0024095366 0.0028908916 0.031213447 -0.028674759 0.008628585 -0.02846854 0.023975365
0.017697064 -0.0058966232 0.03154589 0.03185913 -0.024753597 -0.03824793 0.021184606 -0.03621588
0.0050006155 0.0042861826 0.015657518 0.022896484 -0.023239724 0.003341947 -0.026968976 0.03075189
0.013648623 0.03861378 0.03404882 0.019583724 0.027572174 -0.00021043979 -0.033983182 -0.019085804
-0.016947575 -0.01987621 -0.023288758 -0.04410297 0.007842873 -0.028127166 -0.038606495 0.013261554
-0.0424085 0.0090311 -0.002034455 0.024345286 0.036524642 0.022424825 -0.036374945 -0.0038897665
0.020803932 -0.035714902 -0.043691583 -0.040661298 -0.033903748 0.020022823 -0.012666955 0.018589636
-0.02437761 -0.011975977 -0.006057197 0.041742127 0.0052597043 -0.037080422 0.033936463 0.0031217055
0.04063226 0.00021068484 -0.036111634 0.006804048 -0.023913959 -0.031236522 0.0054805926 0.016401997
-0.022543363 -0.012208617 -0.017975386 0.03318139 0.011714428 -0.009223932 -0.014927918 -0.016773503
-0.0006383325 0.010650236 -0.016613696 -0.01931687 -0.03251619 0.03972453 -0.019238045 0.039922338
-0.0050607193 -0.009582256 -0.01459584 -4.5200035e-05 -0.0020339729 0.012659274 -0.021676859 0.03816364
0.009706891 -0.0077588595 -0.029874474 0.011636167 -0.0020502736 -0.00615163 -0.040109497 0.016427487
0.0047188345 0.027512088 -0.024508793 0.027754007 0.034691498 0.009826828 0.03422097 -0.041908316
0.029555615 -0.014733382 0.015191271 0.0322564 0.0054468266 -9.657346e-06 0.019284697 0.042113587
-0.0313193 0.042090435 0.008523974 0.024210468 -0.0008731349 -0.0097409645 -0.0065452387 -0.010498611
-0.038100153 0.031365518 0.021800628 -0.04476463 0.022345563 -0.032986786 -0.01800278 0.039116196
-0.0052254405 0.029034838 0.026587475 0.004778483 -0.043464538 0.03064287 -0.019140339 -0.030309279
-0.015231928 0.03663325 -0.012776255 0.018146882 0.0046981736 -0.021997066 0.0060210316 0.035746377

encoder.layers.1.bias f4 [100]
00000000: 3b34 a63c c4d3 d03c 8fcc 24bd 942d f83c
00000010: fd8c a93c f55b 2f3d 9ed4 d73c 0fda 81bb
00000020: 4e62 003d 7dde 4cbc 25b6 17bd e577 083d
00000030: 7aa5 36bd d187 0bbc 6794 ab3c 3759 00bd
00000040: 811c e83c 51e6 273d 361c 2f3d bcde 29bd
00000050: 31a2 033d e88a b8bc 3dbd 30bc 444d 2f3d
00000060: 94f9 03bd 7099 b53c ec6a 503c e42f 98bc
00000070: 26ca daba 4394 773c b94a 03bd e61b 1b3c
00000080: dc24 0a3d ceb4 c7bc bce7 1e3d e716 5abb
00000090: 12d3 f73b 5ce3 113b c7f9 e03c 10bf f53c
000000a0: 6d9f 3abc cb60 793b 135c 0a3a 4c08 e23c
000000b0: f921 39bc 2afc 23bd 8e47 c3bb e6e5 10bd
000000c0: 8638 d53c 9d0b 0abd 8e36 5f3c 5669 b9bc
000000d0: af33 1dbc 5389 12bd b275 d4bc 6ce6 0dbd
000000e0: 4b06 043d 1d04 c33b 4527 c5bc 0c07 003d
000000f0: 548c 343b 6fc1 fe3c 4aa7 b3bc b283 42bb
00000100: 4953 0a3b 50d8 1abd ba67 a1bc 9622 ebbc
00000110: 6e8b c03c dbcf 4ebb 8b15 0f3b bfe3 9e3c
00000120: 2b8b c8bc eff8 333d d837 23bc 2dba 2abc
00000130: b969 e63c 5115 8f39 8ad0 bc3b 107f 3d3a
00000140: 2265 00ba f6d8 ae3a d6d5 283d c9b2 a93c
00000150: 4d8a 7a3c a44f b1bb ae0f 2a3c 55b0 c83b
00000160: e6ec 893c 5f47 0f3d 642e 71bc 5d71 0c3d
00000170: 35de ccbc 9955 2f3d 9bc2 a6bc 119b 933b
00000180: 30dc 083c 27b7 233d 0a2f ea3c 0320 993c
0.020288577 0.025491603 -0.040234145 0.03029517 0.020697111 0.042812306 0.026346501 -0.003962762
0.03134375 -0.012504217 -0.03703894 0.033317465 -0.044591404 -0.008516268 0.020944787 -0.031335082
0.028333904 0.04099113 0.042751513 -0.04147218 0.0321371 -0.022527173 -0.010787305 0.042798296
-0.032220438 0.022167891 0.012720805 -0.018577524 -0.0016692325 0.015111032 -0.032053683 0.009467101
0.033726558 -0.024378207 0.038795218 -0.003327781 0.0075630033 0.002226076 0.027462853 0.029998332
-0.011390549 0.0038052078 0.00052780024 0.027591847 -0.011299604 -0.040035404 -0.0059594577 -0.0353755
0.026027929 -0.03370248 0.013623847 -0.022633236 -0.009594842 -0.035775494 -0.025935028 -0.034643576
0.032232564 0.005951418 -0.024066577 0.03125672 0.0027549462 0.031098096 -0.021930356 -0.0029680547
0.002110677 -0.037803948 -0.019702781 -0.028703015 0.023503985 -0.0031556997 0.002183291 0.019395707
-0.024480423 0.043938573 -0.009962045 -0.010420364 0.028126584 0.00027290967 0.0057621645 0.00072287116
-0.00048978825 0.0013339806 0.041219555 0.020715134 0.015291763 -0.005411105 0.010379715 0.006124536
0.016836595 0.034980174 -0.014720533 0.0342878 -0.0250083 0.04280624 -0.020356467 0.0045045693
0.008353278 0.03996959 0.028586883 0.018692022

encoder.mean_layer.weight f4 [3, 100]
00000000: 51b1 293d b07c 2abd d4c2 053d 582c bdbc
00000010: f1ed 2a3d e001 11bc 6b47 7e3d 8ae0 323d
00000020: f307 52bd 70bb 11bd 685b e53c 0c0d 76bd
00000030: 848d 86bd 2467 db3c 878c 943d 7165 6ebd
00000040: afd4 9fbc b298 05bd 3830 b83d c50c 2a3d
00000050: 7010 c3bd bd06 c2bd 7c2f a03d fd0f 793d
00000060: f77e 69bd c7a4 9fbd 59fa 1abd f700 83bd
00000070: f03f b53d 114e abbd eff0 6c3d b7c9 803c
00000080: 6025 fcbb afb9 8fbc 357d a93c ca20 c2bd
00000090: ae09 07bd 8110 94bc 35c9 943d 7091 8f3d
000000a0: 064b a1bd 5f95 203d aae7 3abd d1f9 5fbd
000000b0: 8e1f 883d 99ad 833d 02d0 93bd 262e a93d
000000c0: 6756 223d 0d0f 96bd ab2b 04bd 6fcc 0b3c
000000d0: 0867 ccbd 344b 29bd ac9e 09ba 5e59 4dbd
000000e0: 3fbb d73c ef17 c33d eccf 04bd 7a72 9a3d
000000f0: bde4 b93d 3071 93bd 66c6 1b3d 1bf3 263d
00000100: 1dc0 5e3d debc ce3c 41f4 8b3c aaac 593b
00000110: 850f a33d de6c af3d 9c3d 513c d302 343d
00000120: 6579 09b9 6153 d0bc a099 cbbd b422 cabd
00000130: f883 ed3c d2f6 3f3d b959 c2bd b2d1 c2bd
00000140: 6daa 05bc 6349 8ebd 228d 94bd 70a8 c33d
00000150: 6925 80bd 6e16 cb3d e8bf 99bc 401b a63d
00000160: 0d43 3e3c a56c 8e3d c97a 88bd 3305 b2bc
00000170: a338 543b 2a24 7cbc 52cf c23d ff68 c03d
00000180: 327d 59bc 41da 433c 7564 94bd 853c ca3d
00000190: a136 233d 4934 873d 10fc bdbd 21dc 8a3d
000001a0: b141 b03d c171 a83d 14cd cdbd 7532 84bd
000001b0: d946 e63c 250c 9dbd 2f7d f03c cc1f fdbc
000001c0: d3b1 b23c 3500 c2bd f1df 993d 1de3 19bd
000001d0: 6853 9bbc e1a5 debc 9a39 bc3d cccb bdbd
000001e0: 3bec 693d d58f b43d 14f4 bfbc e5b8 cabd
000001f0: 0052 64bd 3fe3 8ebd 17ef 7ebc a812 c3bd
00000200: 3df4 06bd dd14 23bd 9f53 613c a30f ca3d
00000210: 1393 20bd 6674 3ebc c93c 64bd 5ef9 563d
00000220: 6634 293d a167 12bd 844b 913d eefb 7a3d
00000230: fc49 2bbd 493d 6cbd c1c8 afbd 37ca 05bd
00000240: aa8b 6d3d 009f 88bd 64f3 e63b 6d0e 86bb
00000250: cf80 33bd dbc2 303b 23e8 54bd 1879 893c
00000260: dd2c 42bb a6fc 3e3d dbc5 c73c 5900 a5bd
00000270: 8e6e 7abd be3b 78bd 7104 b43c b223 bbbd
00000280: 76f5 a8bd 3dab ae3c 6ed0 c43d d6fa 79bc
00000290: 5349 2bbd 496f 8a3d 96af ad3d dce8 2ebc
000002a0: f72f b3bc 0899 b5bd cfb9 b13d 7d74 5f3d
000002b0: cbf9 263d 817e bfbd e610 52bd 21d8 513d
000002c0: 694a cebc 628f 91bd a8c6 b13c 3475 80bd
000002d0: bd5c b0bd 4289 0d3c 94fb 00bd 46bb ae3d
000002e0: c8b6 bf3d 67fd 523c e0dc f4bc bf51 453d
000002f0: eaa6 dbbc 1541 a23d 671a b03d 109b 463d
00000300: c95f 2c3d 8b72 32bd a371 37bd 569e be3d
00000310: 7947 4a39 cf6c b1bc 1f2b 70bc f50d c23d
00000320: 44c3 883d 2657 c8bc 2108 58bc ebeb 753d
00000330: 5ffe 353d cb51 8fbd 9b8c bcbd 48aa ac3d
00000340: f2b3 5ebd be4a 793d e624 aebd ec6f 293d
00000350: d6b3 98bd 6663 c8bd 5c97 fdbb 9efc c3bd
00000360: 423f 1b3d 620a c1bd 7a58 76bd 1245 133d
00000370: d8af ec3c 2888 1e3d 4460 c83b b9b6 283d
00000380: 1e4d 263d 58f7 b5bd e276 6a3d 9794 f23c
00000390: dcf1 0c3d 8fe6 963c 075e ae3d 9205 5e3d
000003a0: f311 b03d 602a 7dbc 8445 953d fa73 b8bd
000003b0: 80f8 9abc d357 62bc 4735 bb38 525c 483d
000003c0: 74d3 8abd 4267 a43d 55d6 cb3c 07de a4bd
000003d0: ec0e ab3b b459 073c 6588 b1bb 644d 68bd
000003e0: 16e2 4f3c ed72 9f3d ca1b 0cbc 8d63 1cbd
000003f0: a7dd 68bd fad2 ec3b 7587 da3b 91ce 95bd
0.041428868 -0.041622818 0.032656506 -0.023092434 0.041730825 -0.008850545 0.06207983 0.04367117
-0.051277112 -0.035579145 0.027997687 -0.060071036 -0.06569961 0.02678258 0.07253366 -0.05820221
-0.019510595 -0.032616325 0.08993572 0.041516084 -0.095246196 -0.094739415 0.07821557 0.060806263
-0.05700585 -0.07795101 -0.037836406 -0.063966684 0.08850086 -0.08364499 0.05784696 0.015721185
-0.007694885 -0.017544596 0.020689586 -0.0947891 -0.032968216 -0.018074276 0.0726494 0.07010162
-0.07875638 0.03920495 -0.04563109 -0.054681603 0.066466436 0.064295955 -0.07217409 0.08260755
0.03963318 -0.073270895 -0.032268208 0.0085326275 -0.09980589 -0.041331485 -0.0005249779 -0.050134055
0.026334403 0.09526049 -0.032424852 0.07541366 0.090768315 -0.07199323 0.038031004 0.040759187
0.054382432 0.025236543 0.017084243 0.0033214488 0.079619445 0.08565687 0.0127710365 0.043948006
-0.00013110561 -0.025430383 -0.09941411 -0.098699 0.028993592 0.046866246 -0.094897695 -0.095126525
-0.008158308 -0.06947591 -0.072534814 0.09553611 -0.062571354 0.099163875 -0.018768266 0.08110666
0.011612666 0.06954316 -0.066640444 -0.021730995 0.003238239 -0.015389482 0.095121995 0.093950264
-0.013274478 0.011953891 -0.07245723 0.098748244 0.03984702 0.066017695 -0.09276593 0.067802675
0.0860628 0.08224822 -0.10048881 -0.064549364 0.028109955 -0.07668332 0.029356567 -0.030898951
0.021813309 -0.09472696 0.075134166 -0.037570108 -0.01896067 -0.027178707 0.09190674 -0.09267387
0.057110053 0.08816496 -0.023431815 -0.09898547 -0.055742264 -0.069769375 -0.015559933 -0.09525043
-0.032947768 -0.03981482 0.013752847 0.09866264 -0.03920276 -0.011624431 -0.05572203 0.05248391
0.041309737 -0.03574336 0.070944816 0.061275415 -0.041818604 -0.057675634 -0.08583213 -0.03266355
0.057994522 -0.06670952 0.0070480574 -0.004091075 -0.043824013 0.0026971612 -0.051979195 0.016781375
-0.0029628791 0.046627663 0.024386337 -0.08056707 -0.06114059 -0.06060385 0.021974774 -0.09137668
-0.08249943 0.021321887 0.09610067 -0.015257558 -0.041817974 0.06759507 0.08480756 -0.010675635
-0.021873457 -0.08867079 0.08678018 0.05455445 0.040765565 -0.093503006 -0.051285647 0.051231507
-0.025181966 -0.07107426 0.021701172 -0.06272355 -0.086114384 0.008638682 -0.031489924 0.08531813
0.09361035 0.012877799 -0.029890478 0.048173662 -0.02681299 0.0792257 0.08598786 0.048487723
0.042083535 -0.043566268 -0.044786107 0.09307544 0.00019290847 -0.02165833 -0.014658718 0.09475318
0.06677869 -0.024455618 -0.013185532 0.060039442 0.04443204 -0.06998023 -0.09206506 0.08430916
-0.054370828 0.060862295 -0.085031316 0.041366503 -0.07456176 -0.09784584 -0.0077389907 -0.09569667
0.037902124 -0.094258085 -0.06014297 0.035954542 0.028892443 0.038704067 0.0061149914 0.041189883
0.04060089 -0.08885068 0.05724228 0.029611869 0.034410343 0.018420486 0.08514028 0.05420453
0.085971735 -0.0154519975 0.0728865 -0.09006496 -0.018917322 -0.013814884 8.9267785e-05 0.04891617
-0.06778613 0.08027507 0.024882475 -0.08050161 0.0052202847 0.008261133 -0.005417871 -0.05671443
0.01268818 0.07785592 -0.008551547 -0.038180877 -0.05685201 0.007227299 0.00666898 -0.0731479

encoder.mean_layer.bias f4 [3]
00000000: 7568 9e3d 0dc0 c33d c489 9b3c
0.07734767 0.09558115 0.01898659

encoder.logvar_layer.weight f4 [3, 100]
00000000: 01da c1bd 7a72 9dbb 0cf7 163d 6cc2 833d
00000010: c863 9ebd 19ff b93d 23cc ab3d d1c6 85bd
00000020: e3ad 893d 5988 6cbc ed3f be3c 867f 85bd
00000030: 9924 ce3d f2dd 22bd 8775 18bd 9ff1 8c3c
00000040: bfdf cabc d02c 533d 594c 51bd 9fb8 6d3d
00000050: e2ec 5cbd 0d36 67bd a66b 353d 7787 913d
00000060: db1a bebd 87b1 72bd d631 693d f3ba 1f3d
00000070: 8934 a8bd 8b21 bfbd 5a4a 803d c1a6 8ebd
00000080: 3af4 5c3c 905a 4fbd 145f 63bd 05f3 513d
00000090: 9830 cdbc 824d c0bd 5ee6 823d 29a2 0bbc
000000a0: c282 be3d d08c c1bd 2c85 723d c80a b23c
000000b0: b1c8 02bd 0379 3bbc 734d 9a3c be3e b2bd
000000c0: 0ef0 babd 46b0 903d 4a5f 663d 0c96 8c3d
000000d0: 0201 8c3d 6b7d 29bb f7d4 923d c6f5 6a3c
000000e0: 2138 2d3d 921f c13d 8fa1 083d cd5b 5a3d
000000f0: 3788 573c 40ac a2bd 04f8 8cbd e556 533d
00000100: 9bb8 603d 74ae 3bbd d3af cdbc f3d7 093d
00000110: 4f50 8f3d 79c9 01bd cdec 4f3a 5eb0 c73d
00000120: 9b10 bfbd 8e95 c73d b406 813d b388 17bd
00000130: f414 a73d 3a74 a43d 7c57 573d 7644 afbd
00000140: 7ad0 883c 5868 633b ab2e c23c c83c bc3d
00000150: 334b afbd 7e2c 0fbd a4f8 90bd dd80 1e3d
00000160: b856 95bc 3577 b73d 5dab 853c 8deb c03d
00000170: ddc1 86bd 25ae ac3c 42a6 653d 85eb 1fbc
00000180: beab 473d e4b1 9ebd aea0 903d 6936 a23d
00000190: 0bdb b3bc f587 b1bd 3e69 f9bc ffb2 b2bd
000001a0: c7e7 143d acf8 ba3c fe66 be3d e93f b8bc
000001b0: ed58 33bc 917c 703d a4ec 3dbd 5430 583d
000001c0: 11e2 5aba 4a55 b63d 8ed1 9d3d 971f 1d3d
000001d0: e3aa 7b3d 17dc a63d ecd2 e93c 9bb6 a93d
000001e0: 04f3 7c3d bbbf 903d 17fc a83d bdee 873d
000001f0: f817 613c 170d c13d 598f 8a3d 7bfb 46bd
00000200: fb55 2dbd 9f3c 403d 6733 bcbd 2ce1 1d3d
00000210: 1257 89bd e8f5 babc 047b c4bd 5442 91bd
00000220: 6b24 b03b 70cf 8f3d c3d3 143d 6027 593d
00000230: b117 99bd 6eef a83d 9a65 81bd 9191 643d
00000240: b99b 2fbd 0868 8ebd 1328 703d db72 073d
00000250: 712f cb3d f53e 6f3d c7b5 7b3d a8a7 cfba
00000260: 78ef 9a3d ed44 b43d 524a 15bd 89ca f7bb
00000270: b900 2c3a 6182 4e3d 454b c7bd 4cba 0e3d
00000280: 523d 7bbd 3f30 2b3c c343 f3bc d5be debc
00000290: 5963 5d3d 7434 0fbd 3047 30bd 2580 18bc
000002a0: 2f52 44bd 70f4 b7bc dc19 903b 6f08 be3d
000002b0: 69b7 753d 02d1 9fbd 9247 8bbd 9631 8dbd
000002c0: 0646 613b e743 84bd 558b b63c e217 763b
000002d0: d40c 3abd fee8 7d3c 804f 5f3d 42bf d8bc
000002e0: 05c7 b7bd b855 743c c578 12bd 5a0d 33bd
000002f0: bc1d b43d 9696 723d 2c80 b73d 16a5 b33d
00000300: c81d 94bd 9f16 9a3c 4301 e43a acf7 ac3d
00000310: c280 6abd 1eb4 a5bd c8d1 923d e022 5cbc
00000320: 583d 443c b636 243d 0cbf b9bb 3e7d 3f3d
00000330: 75db e83b 5023 2abd d77e b0bd 3828 ae3d
00000340: e14e a6bd 1a9a 343c e858 64bd 60a2 2cbd
00000350: 223a 06bd aa98 5dbc 2932 abbc 0eea b13b
00000360: f4cc 923d 7939 f23c 954c 0cbd ce1b 0cbd
00000370: a00a b1bc 3751 1a3d 2bc3 0ebb 08f2 9fbd
00000380: 639e f23c b637 1fbd 1f1b 53bd 6adb 6f3c
00000390: cfc9 a1bd 8c7d 03bd b174 9e3d c4f9 c03d
000003a0: cb0f 6bbd bef4 a3bd 3f3b b0bd c6d3 483d
000003b0: afee c2bd 8854 32bd 5409 d0bd d633 aa3d
000003c0: 9c3c c4bd 9eb6 4f3c efb3 c8bc ac1e 083d
000003d0: f845 9b3c b4d8 9f3d b47f b6bd 4040 8f3d
000003e0: 32c1 c1bd 6fcd c1bb ff50 fbbc 150d c7bd
000003f0: a1e5 1f3d b4a3 45bd 1786 803d 9662 a0bd
-0.09465409 -0.0048049064 0.036856696 0.064335674 -0.077338755 0.09081859 0.08388545 -0.06532062
0.067226194 -0.014436805 0.023223842 -0.06518464 0.10065574 -0.039762445 -0.037221458 0.017205058
-0.024764894 0.05155641 -0.0510982 0.058037397 -0.053936847 -0.05644803 0.044292115 0.07105916
-0.09282466 -0.059251335 0.056932293 0.038996648 -0.08213145 -0.0933257 0.062641814 -0.069653995
0.0134859625 -0.050623477 -0.055510595 0.051257152 -0.025047585 -0.093897834 0.06391595 -0.008522549
0.09302284 -0.09450686 0.059209034 0.021733657 -0.031929675 -0.011442426 0.018835759 -0.087033734
-0.09127818 0.070648715 0.05624322 0.06864557 0.0683613 -0.0025862108 0.07169526 0.0143408235
0.042289857 0.0942985 0.0333572 0.053310204 0.013155035 -0.0794301 -0.06883243 0.05159654
0.054863553 -0.04582067 -0.025108254 0.03365321 0.069977395 -0.03168628 0.00079317094 0.09750436
-0.09329339 0.09745322 0.06300107 -0.0369956 0.08158293 0.08029981 0.052573666 -0.0855798
0.016700972 0.0034699645 0.023703894 0.091912806 -0.08559265 -0.03495454 -0.070786744 0.038697112
-0.018229827 0.08958284 0.016317064 0.09419928 -0.06579945 0.021079132 0.05606676 -0.009760742
0.04874777 -0.07748774 0.07061897 0.07920534 -0.021955034 -0.0866851 -0.030445691 -0.08725547
0.036353853 0.022823654 0.09296988 -0.022491412 -0.0109464945 0.058712546 -0.046368256 0.052780464
-0.00083497266 0.08902986 0.07705985 0.038360205 0.061442267 0.081474476 0.028542958 0.08286782
0.061755195 0.0706782 0.08251207 0.066373326 0.013738625 0.09426325 0.06765623 -0.048579674
-0.042318325 0.046932813 -0.09189492 0.03854482 -0.067060605 -0.022822335 -0.09593776 -0.07092729
0.005375435 0.070219874 0.036334764 0.053016067 -0.07475222 0.082487926 -0.06318207 0.055802885
-0.042873118 -0.06953436 0.058631968 0.03306852 0.09921158 0.05840965 0.061452653 -0.0015842812
0.07565206 0.08802209 -0.03644783 -0.007561986 0.0006561387 0.050417308 -0.097311534 0.034845635
-0.061337776 0.0104485145 -0.029695397 -0.027190605 0.054049823 -0.034962133 -0.04303664 -0.009307896
-0.04792994 -0.022455424 0.004397614 0.09278952 0.059989367 -0.07803537 -0.0680076 -0.068942234
0.0034374013 -0.06458264 0.022283236 0.0037550856 -0.04542239 0.015497444 0.054519176 -0.026458386
-0.08973507 0.014913015 -0.035759706 -0.043713905 0.08794734 0.05922564 0.08959994 0.08771722
-0.07232243 0.018809615 0.0017395396 0.08445677 -0.0572517 -0.08090995 0.07168919 -0.013436049
0.011977516 0.04009124 -0.0056685265 0.0467503 0.0071062394 -0.041537583 -0.08617943 0.08503765
-0.08120514 0.011023069 -0.05574885 -0.04214704 -0.032770284 -0.0135251675 -0.020897942 0.005429513
0.07167998 0.02956842 -0.03425272 -0.034206204 -0.021611512 0.03767511 -0.002178381 -0.07809836
0.02961654 -0.03887149 -0.051539537 0.014639715 -0.0789982 -0.032102153 0.07737101 0.09422639
-0.05738811 -0.08005665 -0.0860505 0.049030088 -0.095181815 -0.043537647 -0.10158029 0.08310668
-0.09581873 0.012677817 -0.024499862 0.033232376 0.018954262 0.07805005 -0.08911076 0.069946766
-0.09460677 -0.005914382 -0.03067827 -0.09719292 0.03903735 -0.048251823 0.062755756 -0.07831304

encoder.logvar_layer.bias f4 [3]
00000000: 837c c23d 9de4 90bc 67c4 f73a
0.09496405 -0.017687136 0.0018903137

decoder.layers.0.weight f4 [100, 4]
00000000: 3773 90bc 6f61 733d 0859 eb3d 2271 fe3d
00000010: cac3 bbbd 2171 ebbe 8792 ac3e 32d6 b23e
00000020: fdf8 af3e e977 1abe b1c4 913c 4e44 8c3e
00000030: fad5 e23e 5168 a8bd ca2a 873e 9e0b a33e
00000040: 22ef a3bd 401e 0a3e 5460 df3d eceb d53e
00000050: 6506 f13e e9b6 563e 583b 2cbe 80dd ddbe
00000060: 6def 613e a9c4 123e aed6 cebe 1247 f73e
00000070: bf30 93be 4f82 bc3d c115 bebd a26d a8be
00000080: 7d59 17be 9454 d9be 3fa6 27be 3c8b e5bd
00000090: 7bb2 97be 73de 09be 53c3 b93d f681 fb3c
000000a0: ed34 323e d8eb 9dbe 9538 3dbe 968c a1be
000000b0: 382d 9d3e f379 a9bb 957e 2fbe b8f6 d13e
000000c0: 54ab 65be 7c9a db3e d888 8bbe 84f9 673e
000000d0: 0a5c 8bbe 87d1 d73b a3a3 11be b5bd 883e
000000e0: 7091 523d 8408 e8be 53ad 893e e21e 2fbe
000000f0: d52a 713e 1af9 debe bc19 e33e 209c 57be
00000100: e122 ad3e 0543 a0be 53a7 62be a4f2 debe
00000110: 17fd eb3e a29b 9a3e b7e0 ac3d 7bb0 8bbe
00000120: 140d fd3e 1c99 51be 01de 0dbe e368 0f3e
00000130: dbf7 ed3e 5fae 773e 8fd9 02be 3e5f a43e
00000140: fc98 9c3e 71c3 2b3d 6919 1fbe 94dd be3d
00000150: 79c3 3c3e f4c4 4d3e eb48 85be 9263 3fbd
00000160: 2ef0 b73e 726d bc3d b37b aa3e 0fa8 2d3e
00000170: ba0f 813e f8b2 28bb f7b8 dcbd 65f8 883e
00000180: 8f7d b1be b8e5 d1be 1a10 95be db01 293e
00000190: 1b21 b33e f951 3dbd ca9b 343e 6abf 293e
000001a0: b3a0 343e 9489 8b3e f400 19be a5bc f33e
000001b0: 1440 f93e 85b5 343e 10c9 a13e ad78 b0be
000001c0: 4d7c 983e 5d50 76be f308 10be d15e 92be
000001d0: 35d1 813e 1fd5 b6bd 0fd5 b0be 0c76 3abe
000001e0: ffba f4be a01d 99be 60ae c73e d08d d2be
000001f0: 2cda 2d3d 7b58 643e 586d e5be 2e7d 283e
00000200: c336 e53e 9e15 73be cf99 833e e8e3 f5be
00000210: 0ccb 9abe 1205 e13e 39a4 ce3e e5e0 a5be
00000220: 1d51 de3e 1f3f f8bd 21f8 b5bd 4f6b c93e
00000230: e046 cfbe 6f63 353e a89b e63e 690e fb3e
00000240: 66ad db3d e003 863e 3565 cabd 4f53 173d
00000250: d6cd 14be ec68 a43d 156d 3ebe 1da1 06be
00000260: f2a8 df3e aad2 c5be 0d35 71be 9dfa ec3e
00000270: f29d 8d3e 92f0 bb3e fd53 5e3e 47da 74be
00000280: 21c8 8e3e 3f92 4bbc b019 e0ba 3824 93be
00000290: 6966 85be 9d78 c83e 7fad 683e 8083 3abe
000002a0: f940 8ebe c5d7 8f3c 88fd af3d 9b1b 73bd
000002b0: a522 fd3e 2c42 eebb e438 493e 5434 fa3e
000002c0: 94d6 c43e 2f7e b5be 66a6 31be dfc7 593e
000002d0: 8984 ee3d d11c c0bc ee1e 653e 27a6 94be
000002e0: 0645 eebd 27de efbe 7084 dfbd 0e98 b0be
000002f0: e977 50bd 130d c4be 6b04 9a3e a8d5 c4be
00000300: e4f9 73be 44c7 94bd 200f f63e cb55 86bd
00000310: 1043 6cbc ce40 e83e c701 d8be 2253 e03d
00000320: ba61 f23e 91ce a63e 9273 8dbe 4f28 dd3c
00000330: 29fc 5b3e 0176 953d a3a4 8cbe abf0 663e
00000340: 7e11 a13e 1add fb3e a6be b7be 3e01 833e
00000350: 9e35 a8be 34c0 90be a64d 83be 6cea 94bc
00000360: 1e68 be3e 7f76 87be 56c1 3b3e a85f fb3e
00000370: 5625 c4be 0d7e 6a3e 44f7 a5be 35cd 333c
00000380: 6c67 32bd 5e89 86be 3876 8d3e b3b3 973e
00000390: 1fc3 a9be 1435 92be 6481 2ebe 532a a6be
000003a0: 09d2 9e3e 9232 883d 7d9d 383d fd5f e83e
000003b0: b684 bdbe 5c8a 263e 8639 80be 7b89 fd3e
000003c0: 3dd9 d03e 1ee1 c33d c569 763c a978 443e
000003d0: d45d cc3e 3e91 d53d 1a2a 513e 5ebf 71be
000003e0: 62bc a7be db25 343e a0b1 6abe eba0 c13e
000003f0: 1ab7 6ebd 2b48 37be 8315 93bd 47b1 e5be
-0.017633064 0.05941909 0.11491591 0.12423922 -0.09168203 -0.45984748 0.33705541 0.34929043
0.3436965 -0.15084805 0.017793985 0.27395862 0.44303876 -0.08223022 0.26399833 0.318448
-0.08004595 0.13488102 0.10907045 0.41781557 0.4707519 0.20968212 -0.16819513 -0.43333054
0.2206399 0.14332832 -0.40398163 0.4829641 -0.28748128 0.09204542 -0.09281493 -0.32896143
-0.14780231 -0.4244734 -0.16372012 -0.112081975 -0.29628357 -0.13463764 0.09070458 0.030701619
0.17403002 -0.30843997 -0.18478616 -0.3155257 0.30698562 -0.005172008 -0.17138131 0.41008544
-0.22428638 0.428913 -0.2725284 0.22653776 -0.27218658 0.006586257 -0.14222579 0.26707235
0.05140823 -0.45318997 0.26890048 -0.17101625 0.23551495 -0.43549424 0.4435557 -0.2105565
0.33815673 -0.31301132 -0.22134142 -0.43544495 0.4609153 0.30196863 0.084412985 -0.2728308
0.4942404 -0.20468563 -0.13854219 0.14004855 0.4647816 0.24187611 -0.12778305 0.32103914
0.30585468 0.041934434 -0.15537037 0.093196064 0.18433942 0.20094663 -0.26032194 -0.046725817
0.3592543 0.092005625 0.332975 0.1695864 0.2520731 -0.002574144 -0.10777467 0.2675201
-0.34666106 -0.40995574 -0.29113847 0.16504614 0.34986195 -0.046220753 0.17637554 0.16576925
0.17639427 0.272534 -0.1494177 0.47604862 0.486817 0.17647369 0.3159871 -0.34467068
0.29782334 -0.24054094 -0.14065914 -0.28587964 0.25354925 -0.089273684 -0.3453755 -0.18209094
-0.47798917 -0.29905415 0.39000225 -0.4112382 0.042444393 0.22299378 -0.44809985 0.16454002
0.44768342 -0.23738715 0.25703284 -0.4802544 -0.30233037 0.4394918 0.40359667 -0.32398143
0.4342126 -0.121214144 -0.088852175 0.39339682 -0.4048376 0.17713712 0.4504063 0.49034432
0.107264325 0.2617483 -0.09882585 0.036944684 -0.14531645 0.08027825 -0.18596299 -0.13147397
0.43683583 -0.38637286 -0.23555394 0.46284953 0.27659565 0.36706978 0.21711726 -0.23911391
0.2788706 -0.0124250045 -0.0017097499 -0.2873857 -0.26054695 0.3915452 0.22722434 -0.18214226
-0.27783945 0.017558942 0.08593279 -0.0593525 0.49440494 -0.007271072 0.19650608 0.48868048
0.3844496 -0.35447833 -0.17348632 0.21267651 0.11646373 -0.02345124 0.2237508 -0.29033014
-0.11634259 -0.46849176 -0.10913932 -0.3449101 -0.050895605 -0.38291225 0.30081496 -0.38444257
-0.23825794 -0.072645694 0.48058414 -0.065593325 -0.014420286 0.45361942 -0.42188856 0.10953356
0.47340184 0.32579473 -0.27627236 0.02699676 0.2148291 0.07297898 -0.27469358 0.22552745
0.31458658 0.49192125 -0.3588764 0.25586885 -0.32853407 -0.2827164 -0.2564518 -0.018178187
0.3718881 -0.26457593 0.1833547 0.49096417 -0.38309735 0.22899647 -0.3241521 0.010974218
-0.043555662 -0.26276678 0.27629256 0.29629287 -0.33156678 -0.2855612 -0.17041546 -0.32454166
0.3101962 0.066502705 0.045072068 0.45385733 -0.37015313 0.16263717 -0.25043887 0.49518952
0.4079074 0.09564422 0.015039866 0.19186653 0.39915335 0.104280934 0.20426217 -0.23608157
-0.32760912 0.17592566 -0.22919321 0.37818083 -0.058280088 -0.17898624 -0.071818374 -0.44861814

decoder.layers.0.bias f4 [100]
00000000: 91b7 d13d 35ad a53e 542d 9f3d e65a 50be
00000010: 4bc1 02bd 05d3 bdbc 6ba8 dd3e 34d0 ddbe
00000020: 33c6 6b3d ac56 48bc d747 61bd 9c51 88be
00000030: c0d8 073e 0716 dc3e 0d77 bc3c 4a27 a7be
00000040: cd2b b4be eed9 a8be 804b 4cbe 0bc4 b0be
00000050: 369f fdbd d239 373e c427 c9be 7ed3 bfbe
00000060: f2c7 50be 12d8 cf3e 5276 aebc 5f20 773e
00000070: 1b41 1fbe c2dd fe3e 4c41 d0be 6c5f dcbe
00000080: ee24 fd3e 2799 643d 7a32 9a3e 495c 04bd
00000090: d833 e5be b1d6 b13e d147 fcbc 43ad fa3e
000000a0: 98cb 15be 6dc7 a83e e41d 94be f11c ca3e
000000b0: d54c 2bbe a146 80be 5e0f b83e 0c8e b1be
000000c0: ed61 07bd 19f5 1dbe 4467 94be 0ba7 273e
000000d0: 61fa 8fb9 d864 afbd eeed 813e 6629 c43e
000000e0: 42e9 d73e a0bc 9a3d 5251 433d 030d b7bd
000000f0: 6af2 71bd f6ee ccbe 8c08 3cbe e423 eb3e
00000100: 23a2 90be fed2 5f3e fa66 e93e c0cf b7be
00000110: d92a adbd cf40 e73d 0ed0 063e 6c38 2bbe
00000120: 5c4d 8ebe d4fa efbe fba0 dc3e 5f93 58be
00000130: 63fb e9be adb9 813e edfc 033e f83d fb3e
00000140: e6e3 883e e809 903e 8bab b53e f28b ccbe
00000150: ffbf e7be 52df cebc b4b6 c83d 22f0 fd3e
00000160: 8e07 483e 7319 bfbe 741d eb3e 0e8d f3bd
00000170: 0342 8abe 7b6b f1be 5629 96be 05f3 7e3e
00000180: 8f21 6c3e 223d f1bb 6641 dbbe 919c 5dbd
0.10240091 0.3235871 0.077723175 -0.20347175 -0.03192262 -0.023171911 0.43292555 -0.4332291
0.057562064 -0.012227695 -0.055000152 -0.26624763 0.13266277 0.42985556 0.023005987 -0.32647163
-0.35189667 -0.32978767 -0.19950676 -0.3452457 -0.12383883 0.1789315 -0.3928815 -0.37466043
-0.20388773 0.40594536 -0.021296654 0.24133442 -0.1555218 0.49778563 -0.40674818 -0.4304155
0.49442238 0.05581012 0.30116636 -0.032314572 -0.44766116 0.3473411 -0.030795963 0.48960313
-0.14628446 0.3296465 -0.28929055 0.39475206 -0.16728528 -0.25053886 0.35949224 -0.34678686
-0.033052374 -0.15425529 -0.28985035 0.16372316 -0.00027461632 -0.08564156 0.25376838 0.38312835
0.4217015 0.075555086 0.047684975 -0.08938029 -0.059069075 -0.40026063 -0.18362635 0.4592582
-0.282487 0.21857831 0.45586377 -0.35900688 -0.08455438 0.11291658 0.13165304 -0.16720742
-0.27793396 -0.46871054 0.43091568 -0.21149968 -0.45699605 0.25336972 0.12889452 0.49070716
0.26736373 0.28132558 0.3548244 -0.3995052 -0.4526367 -0.025252972 0.09800473 0.4959727
0.19534132 -0.37324104 0.45920908 -0.118921384 -0.27003488 -0.47152314 -0.29328412 0.24897392
0.23059677 -0.007362024 -0.42823333 -0.05410439

decoder.layers.1.weight f4 [100, 100]
00000000: 1fe1 b63d 48f0 62bd ae27 b03d df32 5f3d
00000010: 60b9 ae3c 3df8 16bd 0da5 043d 21a0 a6bd
00000020: 4760 7bbd 965c 9c3d bb15 bfbc 5731 953d
00000030: 4434 b7bc 32c7 a43d 9624 1abc 1e33 a03c
00000040: c506 3d3d 850c 8fbd 0566 213d e87d f63c
00000050: 9ac6 b63d 4b81 9b3d eff9 3e3d 5366 593b
00000060: cae4 923c ed88 5d3c e697 573d 01cb 60bd
00000070: bb5a 423d 5f2a 7d3d a16a 0cbc 7892 b8bd
00000080: 59d5 87bc f429 3e3c 2d41 fc3c 984c 393d
00000090: 017f 603d ac61 25bc 079b b13d 1f84 a7bc
000000a0: b45e 82bd 0ae8 d63b 1a99 c83d 4e74 893c
000000b0: 55dd a63d e7a4 a6bd f407 203d 84f1 bc3d
000000c0: b219 aa3d 0017 b3bd 4353 0e3c 2931 373d
000000d0: b542 bdbd 1609 853d 0932 9fbd 9807 95bd
000000e0: a731 213d 6868 233d 42ae 073d a4af 9b3c
000000f0: 248e bebd 3bf3 013d 8894 4e3d 2fb1 85bb
00000100: 3890 903c 4571 47bd ca72 92bd 4afb 3f3d
00000110: 7c5b 223d 9239 58bd 8ede 9e3d 0b8e 83bd
00000120: 7ed7 edbc 8119 883d 2465 25bd 0e97 bb3c
00000130: 36f0 833d bb2d 85bd 4e4e 553c 5469 b83d
00000140: 4afe 943d cfa8 4f3d 3e2e 99bd bb29 343d
00000150: e310 b7bd 9f12 22bc 32c2 e5bc 6b47 833d
00000160: 0588 90bd 83b4 513c 609f 7b3d e966 db3c
00000170: 0100 69bd 9ccf d6bc 4f7c c5b9 9e2a 8a3d
00000180: cba3 a4bd 7eee f43b 9364 adbd e8f2 3f3d
00000190: 7828 da3c 85cd aabb 9c84 9a3d 97c1 9c3b
000001a0: c94b 7bbd 4dec d0bc 6bc0 a3bd b24a 653c
000001b0: b613 543d 7d46 8c3d 2082 883d eaeb 473d
000001c0: 3d99 fb3c 4fdb b13c 4dd3 133c bfc7 9cbd
000001d0: 918e bebc 5a92 c33d d721 b4bd 170e 64bd
000001e0: a611 1c3d ad78 bf3d 22ed 1a3c ca2c 4c3c
000001f0: b9b4 b7bd 75b1 b03d 75b6 bfbd 3784 96bc
00000200: 9485 91ba c198 17bd 9488 d1bc 93e4 8ebd
00000210: 97d3 a23d a029 1bbd aa86 febc e31d d0bd
00000220: 8d5a 90bd f014 9ebc 0f9e 1d3c 8bfa e6bc
00000230: fb6d 683d 9f0f ab3d e41e cbbd e617 73bd
00000240: 5197 93bd 7c54 91bd 0f5e 483d cf86 283c
00000250: 42a2 76bc c047 903d 301e cebd f825 98bd
00000260: 9753 733d 4757 083c ef7b 553d 63df 393c
00000270: 1289 17bc 4058 63bd 96f3 c1ba 1720 7fbd
00000280: f33e 153d e3e9 46bd 2653 bbbd af8e 7aba
00000290: 2d77 97bd 7ec8 9dbd c8df 9bbb 15d5 50bc
000002a0: 93ac b93c 9003 d23d 5e61 193d e780 89bc
000002b0: 1dfe 053c d1a5 90bd fda4 68bd d972 8f3c
000002c0: 9f4e 0bbd 2511 a53d 751b 57bd 0e20 003d
000002d0: e1c8 c6bc 2281 983c e85c 38bd 01a9 aebd
000002e0: 40c0 b33d 4367 883d ce9f 0fbd c455 843d
000002f0: e606 abba f19e 883d c8be 2a3d 9d4a c63d
00000300: 3507 4ebd 700c 77bd a486 6c3d 9d14 46bd
00000310: 57ef db3a 81a1 3d3d 0fc8 8c3d 7c94 863d
00000320: c373 b9bd 1bf4 963d 9d33 603d 5234 203b
00000330: ee18 7cbb 01a5 683d 802f 8f3b 5de1 343d
00000340: fb0e 78bd 2a4b 683d 915c 53bd fe69 473d
00000350: 5963 b03c a5bd e43c 10e3 e93c b1af b83d
00000360: ea8c 0c3d 4885 b4bd 74ac 66bd 0f26 a6bb
00000370: f5ed 1cbc 4dcb 5fbd 4dca bf3d 2138 a33d
00000380: 2ccf 583c 3911 9c3d 41c7 c9bd e823 0f3d
00000390: a985 223c d339 b53d 1359 76bd 00e7 eabc
000003a0: 0de8 9bbd 9457 5ebd 0d5b be3c e732 a2bc
000003b0: 0146 283d 0a4c f93c 64cb be3d a4f7 42bd
000003c0: 3d21 723d 22da 72bc 3827 0bbd 02bc abbd
000003d0: dcf8 e4bc f24b 10bc f438 703d 2a25 8fbd
000003e0: 5077 95bd 6e0d d93c b4d6 0bbd 5e10 6cbd
000003f0: c556 0abd b959 8c3c 4d04 c63c 0a15 7d3d
0.08929657 -0.05540493 0.08601318 0.054491874 0.021328628 -0.036857832 0.032383967 -0.08136011
-0.061371114 0.07634847 -0.023325792 0.072848015 -0.02236379 0.08045806 -0.009408137 0.019555625
0.046149034 -0.0698481 0.039403934 0.030089334 0.08924599 0.0759302 0.046625074 0.0033172562
0.01793136 0.013521415 0.052635096 -0.0548811 0.04744981 0.061807986 -0.008570344 -0.09012312
-0.016581224 0.011606682 0.030792797 0.04523906 0.05480862 -0.010094088 0.08672147 -0.020448742
-0.063657194 0.006558423 0.09794827 0.016779091 0.081476845 -0.081369214 0.039070085 0.09225753
0.08305682 -0.08744621 0.008686843 0.044724617 -0.09241239 0.06495874 -0.07773215 -0.07276839
0.039353993 0.03989449 0.03312517 0.01900465 -0.09304455 0.031726103 0.05043462 -0.00407996
0.017646894 -0.048692007 -0.071508005 0.046870507 0.039638028 -0.05278928 0.07757293 -0.06423577
-0.029033419 0.066454895 -0.04037966 0.022899177 0.06442301 -0.06502863 0.013019158 0.09004465
0.07275064 0.050698098 -0.07479523 0.04398511 -0.08938768 -0.009892135 -0.028046701 0.06410106
-0.07057194 0.012799385 0.06143129 0.02678247 -0.05688477 -0.026222043 -0.00037667385 0.0674641
-0.080390535 0.0074747195 -0.08466449 0.046862513 0.026630625 -0.005212488 0.075448245 0.00478382
-0.06135157 -0.025503302 -0.07995685 0.0139948595 0.05177661 0.06849382 0.066654444 0.04880897
0.030712718 0.02171102 0.009022546 -0.07655286 -0.02326134 0.09549399 -0.08795517 -0.0556775
0.03810277 0.09349189 0.009455951 0.01246185 -0.08970017 0.08627597 -0.09360973 -0.018373592
-0.0011102431 -0.03701091 -0.02557782 -0.06977191 0.07950514 -0.037881494 -0.031070072 -0.101619504
-0.07048521 -0.019297093 0.009620204 -0.02819564 0.05674551 0.08352589 -0.09918001 -0.059348963
-0.07206596 -0.07096192 0.048917826 0.010286047 -0.015053334 0.07044935 -0.100643516 -0.07429117
0.05940589 0.00832159 0.052120145 0.011344763 -0.009248989 -0.055504084 -0.0014797326 -0.062286463
0.036436986 -0.048562896 -0.09146719 -0.00095580047 -0.07395778 -0.077042565 -0.0047569014 -0.012746115
0.022665298 0.10254586 0.037446372 -0.016785098 0.008178261 -0.07062877 -0.05679797 0.017510818
-0.034010526 0.08059911 -0.05251642 0.03128057 -0.024265708 0.018616263 -0.045010477 -0.08528329
0.08776903 0.066603206 -0.03506451 0.06461671 -0.001304832 0.06670941 0.04168585 0.096822
-0.050299842 -0.060314596 0.05774559 -0.048359502 0.0016779703 0.0462966 0.06874096 0.0657129
-0.09055283 0.07370778 0.054736722 0.0024445248 -0.0038467008 0.056797985 0.004369676 0.044160236
-0.06056116 0.056712307 -0.05160195 0.048685066 0.021531748 0.02792246 0.028550655 0.090178855
0.034314074 -0.08814484 -0.056316808 -0.005070455 -0.009578218 -0.054637242 0.09364758 0.0796969
0.013232987 0.076204725 -0.09852458 0.034946352 0.009919562 0.0884892 -0.06014354 -0.028674603
-0.076126195 -0.05428274 0.023236776 -0.019799663 0.041082386 0.030431766 0.093161374 -0.04759945
0.05911373 -0.014822515 -0.03397295 -0.08385469 -0.027950697 -0.008807169 0.058648065 -0.0698951
-0.07298148 0.026495662 -0.034140304 -0.057632796 -0.033774156 0.017132627 0.024171973 0.061787643
