results/model_params/scinet/pendulum_scinet1.pth (torch, 353128 bytes, 13 tensors)

encoder.layers.0.weight f4 [500, 50]
0.02326354 0.023146091 -0.0025554923 0.014849448 0.00017937641 0.0017026087 0.0017492301 0.002317021
0.0030069156 -0.0008422056 0.009854745 0.003554118 0.012894959 0.0023156747 0.0072669666 -0.0028060828
0.0051065483 -0.0017908757 -0.0035313703 -0.00417974 -0.004830678 -0.0054395664 -0.0058015697 -0.0019600051
-0.009661717 -0.0073058233 -0.0049488205 -0.0068526524 0.0005604696 -0.0038777476 0.0042290287 0.003515897
0.0051073045 0.005917365 0.0065981834 0.00697501 0.0066427747 0.00823498 0.0052134925 0.0020928294
0.0036662081 9.018392e-05 0.0004808876 -0.0011830222 -0.0036095043 -0.005098543 -0.0060476325 -0.0067354487
-0.0070767617 -0.007223789 -0.04314813 -0.010883831 -0.026053207 0.036343377 0.013312497 0.009219978
0.0051691663 0.0053018187 0.006908115 -0.0104113165 0.001123393 -0.025912907 0.008718835 -0.018314421
0.006186069 -0.013840652 0.014211799 -0.019036224 -0.013978911 -0.01163745 -0.011959266 -0.010484447
-0.00077589916 -0.01986727 -0.02720742 -0.023165485 -0.01893159 0.014253753 0.013949943 0.02328324
0.0041345153 0.009507403 0.014356165 0.014995511 0.014540969 0.012240387 0.015502093 -0.0028717632
-0.003592886 0.008225391 0.003458912 -0.007589976 0.00085641234 -0.004564632 -0.014339122 -0.014799831
-0.015673524 -0.015483221 -0.01492911 -0.016602002 -0.021544894 0.010463599 -0.00303538 -0.016510773
0.0010327569 -0.0020289496 0.0002873803 0.00033680265 -0.0021078025 -0.006996234 0.016666941 0.0025018328
0.0062076454 -0.029486278 -0.02025917 -0.009920217 0.0005265336 -0.009598947 -0.0019716474 -0.00094149023
-0.0008760536 0.00040615967 0.0012589118 -0.0043304414 -0.0073785847 -0.0073589655 -0.0031830834 -0.0112152565
0.015985338 0.00066254253 0.007015704 0.0020334884 0.001269796 0.0010833186 -0.00030939028 -0.0020259484
-0.0062056133 -0.011160837 -0.0006209123 -0.006169532 0.00046712378 -0.011068222 0.0015266114 -0.0048587476
-0.0021992165 -0.0017087492 -0.0012694214 -8.00163e-06 0.001670693 0.00085457746 0.006336213 -0.003917999
0.00080744014 -0.0034411673 0.0038825406 0.0010235566 0.0012547718 0.0014043561 0.001350637 0.0002203057
0.0042001354 0.0012563339 0.00035841722 -0.0095327385 0.001847291 -0.0029265368 -0.0039832722 -0.0014380377
-0.002851612 -0.0030806854 -0.0031017393 -0.0028730445 -0.0023396334 -0.002248446 -0.0028344837 -0.0017932856
-0.0031543414 0.0025945164 0.0043534986 0.00075078773 0.00328322 0.0036773782 0.0039486154 0.0039382507
0.0036124843 0.003236463 0.0027764556 0.0017648867 0.0006810933 0.00036777635 -0.0010477739 -0.0020273165
-0.0020597044 -0.0030456188 -0.0038539914 -0.004189268 -0.00419398 -0.0038602073 -0.0034186202 -0.0028596881
-0.018571049 -0.007887269 0.009079185 0.0015677398 -0.0013879153 -0.0014475641 -0.0015801509 -0.002117742
-0.002275022 -0.0014461249 0.0014766471 0.0024729997 -0.009641368 -0.006534832 -0.0012161977 0.008230078
0.0020443704 0.0017836221 0.003141531 0.0039301747 0.004409384 0.0045739487 0.0042482787 0.0036938945
-0.00027379644 0.0060015786 0.0060997214 0.0027843488 -0.0027265958 -0.0035336541 -0.003142916 -0.0037236048
-0.004903736 -0.005446431 -0.005591792 -0.005485558 -0.005182568 -0.005570034 -0.005608294 -0.005231229
-0.0008779329 -0.0012641919 0.0007904998 0.0022702306 0.0038853004 0.00502082 0.0056407554 0.005804743
0.005730249 0.0055187233 -0.016821595 -0.04196189 -0.0062550963 -0.019530853 -0.00708317 -0.01203223
00000000: 2e93 be3c df9c bd3c 0c7a 27bb 194b 733c
00000010: fd16 3c39 112a df3a 6c46 e53a 29d9 173b
00000020: ac0f 453b 76c7 5cba cc75 213c 35ec 683b
00000030: 6145 533c 93c2 173b bc1f ee3b 42e6 37bb
00000040: d554 a73b d1bb eaba 906e 67bb 33f6 88bb
00000050: aa4a 9ebb 643e b2bb 181b bebb 6e73 00bb
00000060: 2e4c 1ebc b065 efbb b729 a2bb 378c e0bb
00000070: 7aec 123a cf21 7ebb aa93 8a3b f76a 663b
00000080: 2d5b a73b 75e6 c13b 9335 d83b a08e e43b
00000090: a2ab d93b 02ec 063c f2d5 aa3b da27 093b
000000a0: c444 703b 2021 bd38 a41f fc39 a30f 9bba
000000b0: 6f8d 6cbb ae11 a7bb 382b c6bb 0ab5 dcbb
000000c0: 2ee4 e7bb 89b5 ecbb 18bc 30bd 1952 32bc
000000d0: 896d d5bc cbdc 143d a91c 5a3c 640f 173c
000000e0: 1c62 a93b e1ba ad3b 785d e23b 3a94 2abc
000000f0: d03e 933a 4e47 d4bc 72d9 0e3c 2008 96bc
00000100: 82b4 ca3b e7c3 62bc 9bd8 683c dbf1 9bbc
00000110: cd07 65bc 01ab 3ebc ccf0 43bc f5c6 2bbc
00000120: b665 4bba afc0 a2bc 18e2 debc 8bc5 bdbc
00000130: 6c16 9bbc 9388 693c 4d8e 643c 7ebc be3c
00000140: d47a 873b f0c4 1b3c 1f36 6b3c bbaf 753c
00000150: 3f3d 6e3c e78b 483c 7efc 7d3c 3134 3cbb
00000160: a076 6bbb cac3 063c eaae 623b 55b5 f8bb
00000170: dc80 603a e992 95bb a3ee 6abc fe7a 72bc
00000180: c365 80bc 56ad 7dbc 3a99 74bc ec00 88bc
00000190: eb7e b0bc 846f 2b3c 3aed 46bb 9a41 87bc
000001a0: 925d 873a 20f8 04bb 88ab 9639 e394 b039
000001b0: 0f23 0abb aa40 e5bb 1c89 883c caf5 233b
000001c0: 8169 cb3b 358d f1bc 8ff6 a5bc 6888 22bc
000001d0: 1207 0a3a e744 1dbc c136 01bb 57ce 76ba
000001e0: f6a6 65ba d4f1 d439 1202 a53a 60e6 8dbb
000001f0: 0ec8 f1bb 7a23 f1bb 479b 50bb 32c0 37bc
00000200: aff3 823c 7aae 2d3a fee3 e53b 4644 053b
00000210: 496f a63a 24fe 8d3a a935 a2b9 c6c5 04bb
00000220: 7558 cbbb f1db 36bc b8c4 22ba c929 cabb
00000230: 4be8 f439 7d57 35bc 9418 c83a 2136 9fbb
00000240: bb20 10bb 1cf8 dfba b762 a6ba bd3e 06b7
00000250: 28fb da3a b905 603a 02a0 cf3b 8f62 80bb
00000260: 64aa 533a 3585 61bb 3972 7e3b dc28 863a
00000270: 2877 a43a 5f12 b83a db07 b13a dc01 6739
00000280: 4aa1 893b 92ab a43a f2e9 bb39 342f 1cbc
00000290: cd20 f23a 24cb 3fbb 1c86 82bb 8a7c bcba
000002a0: 1ce2 3abb 53e5 49bb 8d46 4bbb b049 3cbb
000002b0: 8954 19bb aa5a 13bb bfc2 39bb ae0c ebba
000002c0: 11b9 4ebb c308 2a3b cba7 8e3b 83d0 443a
000002d0: 4b2b 573b 2b00 713b 6363 813b 710c 813b
000002e0: 6ebf 6c3b d71a 543b 32f5 353b c553 e73a
000002f0: 668b 323a 1bd2 c039 7555 89ba badc 04bb
00000300: 1bfc 06bb 0199 47bb 3f93 7cbb 2146 89bb
00000310: a76d 89bb 88fb 7cbb ee0a 60bb 9b69 3bbb
00000320: 5022 98bc 9b39 01bc ddc0 143c 9e7c cd3a
00000330: b6ea b5ba 31bc bdba 111d cfba d1c9 0abb
00000340: 8918 15bb e68b bdba 0e8c c13a 0d12 223b
00000350: d4f6 1dbc 2522 d6bb d368 9fba 73d7 063c
00000360: d8fa 053b 6dc8 e93a 25e2 4d3b b2c8 803b
00000370: 987c 903b 10e1 953b 2535 8b3b 4415 723b
00000380: 568c 8fb9 e4a8 c43b 2ce0 c73b 9f79 363b
00000390: b0b0 32bb e194 67bb 61f9 4dbb b907 74bb
000003a0: 85af a0bb fa77 b2bb 5a3b b7bb 32c0 b3bb
000003b0: 88d2 a9bb d584 b6bb c8c5 b7bb bb6a abbb
000003c0: 1425 66ba 3eb3 a5ba 8b39 4f3a 26c8 143b
000003d0: 86a0 7e3b b185 a43b 16d6 b83b b735 be3b
000003e0: d0c4 bb3b 68d6 b43b 71cd 89bc 3be0 2bbd
000003f0: 8df7 ccbb 2bff 9fbc f019 e8bb d522 45bc

encoder.layers.0.bias f4 [500]
0.0037293723 0.020908242 -0.019911714 -0.0023255206 0.009202349 0.055920746 0.00923187 0.010937861
-0.020276845 0.03524606 -0.0037158646 0.004104038 -0.0184153 0.039090145 0.027017586 -0.0025094647
0.0038644404 0.0044960347 -0.028425831 -0.009607762 -0.017460456 0.02358527 -0.022727352 -0.018242735
-0.00093949377 -0.009860101 -0.010445676 -0.033021346 0.060968235 -0.03709348 0.027835945 -0.00033902237
0.011423493 -0.026487885 0.0053377724 -0.026281593 0.00093967724 -0.0073184147 0.0036419188 0.07033313
0.040867176 -0.0018288343 0.01038235 0.021054216 0.031423777 0.0005996007 -0.00046740018 0.016121333
-0.026960554 -0.007871473 -0.00031472943 -0.020992503 -0.018023342 -0.021035342 -0.011385771 -0.045600113
0.009975283 -0.024397584 -0.015327231 0.01562149 -0.021532485 -0.007891593 -0.03990614 -0.0135418605
0.027554559 0.03267926 -0.01046586 -0.015340777 -0.037672922 -0.0017871506 0.009325326 0.0026760215
-0.0010295709 -0.0022253455 0.0025861103 -0.0076700184 -0.005341228 0.021747211 0.027560575 0.0056623244
-0.019399406 -0.0030229301 -0.038657315 0.03991318 -0.014863868 -0.01718401 0.020096133 0.045194462
0.01383042 -0.023836253 0.039876208 0.014597812 -0.030597458 -0.012808299 -0.038739335 -0.024485195
0.0049507106 -0.005279376 -0.006292845 0.033668734 -0.00049241085 0.023399932 3.8377e-05 -0.006015426
-0.024318121 -0.017671887 0.0012633409 0.046323963 0.04744567 -0.010171538 0.041072894 0.00022832
0.031339075 0.035150114 -0.019535374 0.04761635 0.0032834574 -0.02322663 -0.028400486 0.00059500354
-0.0019294745 0.025734328 0.018992374 -0.019525444 0.0021697688 -0.0387024 0.039240956 0.011975786
0.011752774 0.024668772 -0.0010615359 -0.013207846 0.0049033253 -0.036566593 -0.0062471307 0.011579265
0.0021898223 -0.00028407184 -0.002426211 0.038324077 0.0021560052 -0.03423034 0.033371165 0.01694565
-0.03461977 0.007777977 -0.023094477 0.061656795 -0.007767281 -0.011890381 -0.010697995 0.0030900321
0.050774924 -0.0031201742 0.017573513 -0.0029218295 -0.013019371 0.000116021496 0.02633145 -0.049536142
-0.0072709457 0.026440604 -0.03013657 0.0119453445 0.011920332 0.0059436066 0.0057001594 -0.019737326
-0.0029884174 -0.008581338 -0.002248862 -0.00034239527 -0.012916263 -0.010778509 0.020562237 0.016762303
0.014833754 0.0151546355 0.0034988844 0.029625777 0.012716201 -0.021169478 0.0067371605 -0.026565695
-0.0041267397 0.03804596 0.06239001 -0.02080039 -0.026468117 0.009742488 -0.009005859 -0.011531533
-0.04251735 -0.023038894 -0.028588094 -0.0029423975 -0.01654618 -0.029067969 0.025206741 -0.009988354
-0.013421255 0.017571872 0.024946766 -0.009806803 0.00054748874 -0.000243345 -0.005842833 -0.007534404
-0.03523947 0.014503739 -0.0020218978 0.022501403 0.0012962719 -0.011925172 -0.029711727 0.0031784321
0.028202964 0.003937354 0.028064204 0.018115943 -0.030387778 0.00055841036 0.058539204 0.007263161
0.030353885 0.018891908 -0.02612713 0.013289389 0.035952408 0.00446214 -0.02087033 0.015001057
0.015194068 0.011597581 0.009947823 0.0049460814 0.037611406 0.010153425 -0.020087497 0.0004609106
-0.029083285 0.002315028 -0.05526382 0.008644624 0.027964856 -0.026279895 0.013941165 -0.00053383637
-0.008560001 0.010117861 0.0051340456 -0.008674766 0.044385724 0.012885993 -0.01498749 -0.0005499732
00000000: 7c68 743b c347 ab3c e41d a3bc c367 18bb
00000010: 73c5 163c 270d 653d 4541 173c b734 333c
00000020: a01b a6bc 2c5e 103d dd85 73bb 2a7b 863b
00000030: afdb 96bc fd1c 203d fc53 dd3c d575 24bb
00000040: 8d42 7d3b 7953 933b 4add e8bc e069 1dbc
00000050: 3b09 8fbc e535 c13c b62e babc ca71 95bc
00000060: 5c48 76ba 438c 21bc 5724 2bbc 6441 07bd
00000070: d4b9 793d 55ef 17bd 3508 e43c d0be b1b9
00000080: 9a29 3b3c 1ffd d8bc 7be8 ae3b 7f4c d7bc
00000090: ac54 763a 50cf efbb 42ad 6e3b d10a 903d
000000a0: 5764 273d 7fb5 efba bb1a 2a3c e479 ac3c
000000b0: 38b6 003d 862e 1d3a 640d f5b9 e310 843c
000000c0: 61dc dcbc 5af7 00bc 4502 a5b9 78f8 abbc
000000d0: b0a5 93bc 4f52 acbc 638b 3abc 2fc7 3abd
000000e0: 5f6f 233c 71dd c7bc 111f 7bbc 47f1 7f3c
000000f0: e564 b0bc bd4b 01bc 9f74 23bd aede 5dbc
00000100: 19ba e13c b0da 053d 0079 2bbc e257 7bbc
00000110: ec4e 1abd d33e eaba 41c9 183c 3160 2f3b
00000120: abf2 86ba 1ad7 11bb bb7b 293b c754 fbbb
00000130: 7805 afbb 3527 b23c b7c6 e13c 058b b93b
00000140: 81eb 9ebc 5a1c 46bb 2257 1ebd 017c 233d
00000150: 9587 73bc 7bc5 8cbc a5a0 a43c d41d 393d
00000160: fc98 623c 3f44 c3bc 3c55 233d a92b 6f3c
00000170: 85a7 fabc e6d9 51bc 23ad 1ebd 2d95 c8bc
00000180: 9239 a23b 9efe acbb 3634 cebb 3ae8 093d
00000190: 2215 01ba 37b1 bf3c fdf6 2038 0d1d c5bb
000001a0: cc36 c7bc a2c4 90bc b096 a53a 32be 3d3d
000001b0: 6456 423d 86a6 26bc 0d3c 283d 2f69 6f39
000001c0: 675d 003d 91f9 0f3d a608 a0bc 5d09 433d
000001d0: 462f 573b c645 bebc 23a8 e8bc 03fa 1b3a
000001e0: 6ce6 fcba ccd0 d23c e595 9b3c d3f3 9fbc
000001f0: ae32 0e3b 6886 1ebd 20bb 203d 1636 443c
00000200: b58e 403c 2a16 ca3c 3c23 8bba b965 58bc
00000210: 13ac a03b dac6 15bd bbb4 ccbb f5b6 3d3c
00000220: 1f83 0f3b 7aef 94b9 1101 1fbb b5f9 1c3d
00000230: c44b 0d3b 1d35 0cbd 34b0 083d 9bd1 8a3c
00000240: 76cd 0dbd 66de fe3b a130 bdbc d68b 7c3d
00000250: ad84 febb dfcf 42bc a546 2fbc 2382 4a3b
00000260: 5ef9 4f3d d67b 4cbb 54f6 8f3c 2a7c 3fbb
00000270: 334f 55bc 9150 f338 0eb5 d73c 69e6 4abd
00000280: 1d41 eebb f799 d83c f8e0 f6bc 68b6 433c
00000290: 7f4d 433c 96c2 c23b 67c8 ba3b 2cb0 a1bc
000002a0: 53d9 43bb be98 0cbc a561 13bb 8483 b3b9
000002b0: bc9e 53bc 5898 30bc 2372 a83c 1951 893c
000002c0: 4609 733c 264b 783c 8a4d 653b c2b1 f23c
000002d0: 9d57 503c 9d6b adbc 66c3 dc3b 4da0 d9bc
000002e0: 9a39 87bb 15d6 1b3d ab8c 7f3d 9465 aabc
000002f0: aad3 d8bc f59e 1f3c 4f8d 13bc c1ee 3cbc
00000300: ac26 2ebd 10bc bcbc 9431 eabc 3dd5 40bb
00000310: db8b 87bc f31f eebc 5e7e ce3c 31a6 23bc
00000320: d3e4 5bbc e3f2 8f3c 295d cc3c b7ac 20bc
00000330: 5985 0f3a 6d2a 7fb9 3c75 bfbb 29e3 f6bb
00000340: 4357 10bd 17a1 6d3c d181 04bb dd54 b83c
00000350: abe7 a93a cc61 43bc 0266 f3bc 3e4d 503b
00000360: e709 e73c eb04 813b e7e6 e53c e367 943c
00000370: caef f8bc 4962 123a cec6 6f3d cfff ed3b
00000380: b6a8 f83c 34c3 9a3c 9008 d6bc bdbb 593c
00000390: d542 133d 2537 923b 41f8 aabc fec6 753c
000003a0: 8af0 783c c803 3e3c 32fc 223c bd12 a23b
000003b0: 6b0e 1a3d 8d5a 263c 898e a4bc 60a6 f139
000003c0: 1240 eebc bab7 173b 515c 62bd 2ea2 0d3c
000003d0: 8e16 e53c ef48 d7bc 7c69 643c 27f1 0bba
000003e0: 3f3f 0cbc 63c5 253c 7f3b a83b 9b20 0ebc
000003f0: cecd 353d c61f 533c 178e 75bc 142c 10ba

encoder.layers.1.weight f4 [100, 500]
-0.007273313 0.0013625149 0.0006281476 -0.0037468483 0.001253561 -0.0033087372 0.013235296 -0.016273158
-0.007637318 -0.0076071466 -0.0058013876 -0.0019276896 0.00244607 0.0049517574 0.009929312 -1.3847639e-05
0.0027735494 -0.0016105293 -0.002567036 -0.0011161958 0.00095879287 0.0031680772 0.0064696227 -0.001053352
-0.0019131455 0.013895353 -0.015034114 0.019968793 -0.0065423353 0.0026489026 0.0051687444 -0.0048295427
0.0013774232 0.007232897 -0.0035423185 -0.013519049 5.3905675e-05 -0.0015999564 -0.00022443307 -0.0064071664
0.010943931 0.0018484191 0.010679013 0.003482068 -0.0023613188 -0.013107276 -0.0063359304 -0.00020720168
0.0053337486 -0.0011438361 -0.0007738028 0.004176047 0.0007876435 0.000114784416 0.004692865 -0.0070562414
-0.010278425 0.013525379 0.0075357947 -0.014416997 -0.0018866557 -0.008999326 -0.0009689838 -4.419108e-06
0.005006195 -0.014524495 -0.0153127825 0.0056503606 0.014622422 0.0014315458 -0.0007903691 0.012302612
-0.0023329344 -0.004057064 0.0020846482 0.008062328 -0.0010681704 -0.006669117 0.008104408 -0.0030518495
0.0017664372 0.0006595865 0.005097736 -0.0013785219 0.0034801518 -0.008720649 0.008538386 0.01143615
0.011147614 0.012168118 -0.0073578972 -0.0001417575 0.0035926618 0.007844598 -0.010163963 0.0035105932
-0.0010690705 -0.0009787463 0.0044774218 0.002839514 0.005360167 0.0010175259 0.006186116 -0.0069408934
0.0012677488 -0.001111595 7.963232e-05 -0.004919727 -0.0074934056 0.002083366 -0.0077177477 0.00032651573
0.0064377687 -0.0007955556 0.0055919043 0.016857708 -0.004951055 -0.021793248 -0.00047075882 -0.019256122
0.0013153688 0.003426734 -0.003340225 0.0077717137 -0.010290521 0.003288221 -0.013208984 -0.00027481958
0.0012566666 -0.00036218693 -0.0056440136 0.00677115 0.004168553 0.004325377 -0.010980228 -0.006123122
-0.00029041266 0.0049958876 -0.0040575652 -0.00520534 0.0020950946 -0.0036052626 -0.012065273 -0.0019147805
-0.003141882 0.0003316138 -0.0015236189 0.015089995 0.003924993 0.004393802 -0.006682078 0.0011481203
0.003264218 -0.003709883 -0.009415613 -0.0116216345 -0.01461707 0.0012204788 -0.000752736 0.006388332
-0.0034438644 -0.005478293 0.004541117 -0.0042351265 0.005172503 -0.013266724 0.016621714 0.0013534529
0.0013253761 3.6668796e-05 -0.002907082 0.0009941302 -0.002809021 -0.010417393 0.0045622853 0.003866735
-0.0020854068 -0.0018044645 -0.0038753555 0.0067257704 0.011333613 -0.006886655 -0.008715972 -0.0047924086
6.6090266e-05 -0.0012056347 -0.0009915065 0.0020150929 -0.012226652 0.0037283741 -0.0011811485 0.01220985
0.0019334115 -0.0007919665 0.006994276 -0.003153977 0.0020038553 0.0051585794 -0.0069856076 0.0024802594
0.0016855437 -0.0010850836 0.0007912621 0.0062042046 -0.0051568835 -0.00077551045 -0.0024022127 -0.0031672926
-0.0014569368 0.00030872738 -0.011085407 0.0042899335 -0.0031578075 0.0019908268 0.007212058 -0.0027333284
0.010834785 -0.0003223499 0.0032454187 0.0012055904 -0.003302216 0.00024278865 0.0050737346 0.0010312358
-0.017730696 0.011166729 0.0004604525 0.011664618 -0.002440527 -0.003472795 0.0013004763 0.0022842074
-0.014487579 0.01006957 -0.00224758 -0.012954135 0.013505906 0.0009496423 -0.009076633 0.014231338
-0.005153867 0.0076864855 0.007320037 0.002952473 -0.015127776 0.0032500906 -0.0054784636 -0.006832775
-0.005305672 0.0056279018 -0.003082563 0.00031013318 -0.0015179705 -0.0030804425 -0.0010687155 0.0011143206
00000000: f954 eebb 6a96 b23a 46aa 243a af8d 75bb
00000010: 874e a43a 66d7 58bb dbd8 583c 494f 85bc
00000020: 7842 fabb 5f45 f9bb 9119 bebb 88aa fcba
00000030: 3f4e 203b 5a42 a23b 8eae 223c 2853 68b7
00000040: 70c4 353b 6518 d3ba b83b 28bb 514d 92ba
00000050: 8057 7b3a 849f 4f3b 21ff d33b a110 8aba
00000060: 83c2 faba 56a9 633c a551 76bc 9895 a33c
00000070: 1661 d6bb 3699 2d3b 925e a93b 2441 9ebb
00000080: a78a b43a f001 ed3b 3e26 68bb 007f 5dbc
00000090: c718 6238 a1b5 d1ba cb55 6bb9 35f3 d1bb
000000a0: 2c4e 333c a746 f23a 07f7 2e3c 6833 643b
000000b0: 5bc0 1abb e6bf 56bc a39d cfbb 4744 59b9
000000c0: bac6 ae3b c5ec 95ba 07d9 4aba 39d7 883b
000000d0: dc79 4e3a 6ab8 f038 9bc6 993b 0b38 e7bb
000000e0: d766 28bc 8d99 5d3c d4ee f63b 4535 6cbc
000000f0: a949 f7ba e971 13bc 6703 7eba d947 94b6
00000100: 020b a43b 26f8 6dbc 77e2 7abc a926 b93b
00000110: e292 6f3c b5a2 bb3a c630 4fba e590 493c
00000120: 25e4 18bb 1ff1 84bb 989e 083b db17 043c
00000130: da01 8cba 9c88 dabb 5ac8 043c 8a01 48bb
00000140: cc87 e73a 1ae8 2c3a e90a a73b 85af b4ba
00000150: 4213 643b 0ee1 0ebc 96e4 0b3c b15e 3b3c
00000160: 7ba4 363c c95c 473c 841a f1bb bda4 14b9
00000170: dd72 6b3b a186 003c c086 26bc fb11 663b
00000180: 0e20 8cba 4749 80ba 56b7 923b 2417 3a3b
00000190: 57a4 af3b 815e 853a e7b4 ca3b 6f70 e3bb
000001a0: 972a a63a f0b2 91ba 4700 a738 a935 a1bb
000001b0: 3e8b f5bb 1589 083b 29e5 fcbb 3330 ab39
000001c0: ebf3 d23b d58c 50ba 4b3c b73b 2d19 8a3c
000001d0: 763c a2bb c187 b2bc 2ed0 f6b9 04bf 9dbc
000001e0: 7468 ac3a 0e93 603b ade7 5abb dca9 fe3b
000001f0: 9399 28bc 327f 573b 7f6a 58bc a915 90b9
00000200: bcb6 a43a e8e3 bdb9 6bf1 b8bb 86e0 dd3b
00000210: 5b98 883b e4bb 8d3b 6ae6 33bc 78a4 c8bb
00000220: 8742 98b9 8bb4 a33b 53f5 84bb 8f91 aabb
00000230: db4d 093b 4546 6cbb 6cad 45bc 5ff9 faba
00000240: 08e8 4dbb 73dc ad39 2bb4 c7ba 073c 773c
00000250: 3a9d 803b e2f9 8f3b 55f5 dabb 867c 963a
00000260: 7eec 553b 8221 73bb f143 1abc ab68 3ebc
00000270: 6f7c 6fbc 79f8 9f3a 4253 45ba 3755 d13b
00000280: 75b2 61bb 4183 b3bb a7cd 943b d1c6 8abb
00000290: 1a7e a93b ac5c 59bc 432a 883c 5866 b13a
000002a0: 3eb8 ad3a d2cc 1938 be84 3ebb 794d 823a
000002b0: 8d17 38bb b7ad 2abc 397f 953b 0c69 7d3b
000002c0: 52ab 08bb c883 ecba adf9 7dbb da63 dc3b
000002d0: 9eb0 393c 73a9 e1bb 70cd 0ebc a309 9dbb
000002e0: f199 8a38 6306 9eba 70f5 81ba a60f 043b
000002f0: 4c52 48bc bd57 743b c4d0 9aba d30b 483c
00000300: 866a fd3a f99b 4fba 3d30 e53b f4b2 4ebb
00000310: 1d53 033b 4d09 a93b 86e7 e4bb d98b 223b
00000320: 76ed dc3a 5d39 8eba b36c 4f3a a44c cb3b
00000330: 13fb a8bb a04b 4bba 716e 1dbb 5a92 4fbb
00000340: b0f6 beba b0dc a139 919f 35bc 9292 8c3b
00000350: 38f3 4ebb 8878 023b 2153 ec3b a421 33bb
00000360: 6284 313c 1201 a9b9 17b1 543b e704 9e3a
00000370: fe69 58bb 1595 7e39 9241 a63b 882a 873a
00000380: f73f 91bc a8f4 363c e368 f139 f41c 3f3c
00000390: 40f1 1fbb d597 63bb be74 aa3a a4b2 153b
000003a0: 505d 6dbc d6fa 243c 234c 13bb 953d 54bc
000003b0: e047 5d3c 6af1 783a 28b6 14bc 8f2a 693c
000003c0: c5e1 a8bb eade fb3b ecdc ef3b 477e 413b
000003d0: 7eda 77bc 79ff 543b af84 b3bb 79e5 dfbb
000003e0: 34db adbb 436a b83b d304 4abb 5f99 a239
000003f0: a3f6 c6ba 40e1 49bb 2414 8cba 650e 923a

encoder.layers.1.bias f4 [100]
0.013659502 0.018727606 -0.029220594 0.020325521 0.013214647 0.032158352 0.019096479 -0.0034991233
0.022342764 -0.00917053 -0.028586956 0.027678704 -0.03324618 -0.004297922 0.013306086 -0.021209067
0.024370812 0.036101025 0.03318814 -0.034820057 0.026678681 -0.014882308 -0.009324548 0.032446977
-0.020393 0.022841403 0.008656249 -0.012802086 -0.0031236466 0.016339492 -0.02794159 0.005969992
0.023603082 -0.015567023 0.031350695 0.00055693265 0.0037507478 0.0045207883 0.015850363 0.024209894
-0.008014477 0.0024655994 0.0013788855 0.026494645 -0.011616154 -0.028859867 -0.0046440177 -0.024074027
0.018404244 -0.025580691 0.009377911 -0.01834685 -0.0014976441 -0.020613916 -0.014030859 -0.025387388
0.022353435 0.00088249805 -0.018518412 0.021295682 -0.000920844 0.029797908 -0.018637035 -0.0018601989
0.0018243317 -0.03261574 -0.018360365 -0.01617326 0.013365214 -0.004100704 0.00085559813 0.012843471
-0.017386187 0.035975616 -0.0075670765 -0.0059698266 0.017106012 -0.0031174743 0.0095504625 0.0050930707
0.0022253152 0.0060835546 0.037813373 0.011869491 0.013751038 -0.007127858 0.011327091 0.00026934646
0.013516382 0.025135191 -0.007713045 0.023972616 -0.019976508 0.027467702 -0.021421688 -0.00014139064
0.0027715315 0.031178765 0.024368873 0.0099287
00000000: 1bcc 5f3c a36a 993c 0760 efbc b581 a63c
00000010: 3f82 583c 7ab8 033d 3870 9c3c 8c51 65bb
00000020: 2c08 b73c fe3f 16bc 312f eabc 73be e23c
00000030: 252d 08bd 95d5 8cbb c501 5a3c a3be adbc
00000040: 4ca5 c73c abde 133d 49f0 073d 7a9f 0ebd
00000050: 408d da3c edd4 73bc fdc5 18bc 1fe7 043d
00000060: 390f a7bc e51d bb3c f1d2 0d3c d7bf 51bc
00000070: 18b6 4cbb 66da 853c c3e5 e4bc ec9f c33b
00000080: 405b c13c d40c 7fbc 9669 003d 1eff 113a
00000090: 1bcf 753b 1f23 943b 9fd8 813c d453 c63c
000000a0: 274f 03bc e595 213b b8bb b43a 4c0b d93c
000000b0: ae51 3ebc 876b ecbc d82c 98bb e536 c5bc
000000c0: 7fc4 963c 998e d1bc cfa5 193c 224c 96bc
000000d0: 994c c4ba 84de a8bc b0e1 65bc 36f9 cfbc
000000e0: 8d1e b73c 7157 673a edb3 97bc 4874 ae3c
000000f0: cb64 71ba be1a f43c b2ac 98bc ebd1 f3ba
00000100: 6a1e ef3a 1598 05bd 7a68 96bc c97d 84bc
00000110: c5f9 5a3c 335f 86bb 384a 603a 6c6d 523c
00000120: 7a6d 8ebc 2b5b 133d 3df5 f7bb 899e c3bb
00000130: e821 8c3c 8a4e 4cbb 8b79 1c3c c6e3 a63b
00000140: 98d6 113b 8e58 c73b 32e2 1a3d 4178 423c
00000150: 094c 613c cf90 e9bb 4395 393c 1237 8d39
00000160: d173 5d3c 51e8 cd3c b6bd fcbb 3862 c43c
00000170: c6a5 a3bc f203 e13c 897c afbc 4342 14b9
00000180: 95a2 353b 9c6a ff3c 3ba1 c73c fcab 223c

encoder.mean_layer.weight f4 [3, 100]
0.022240803 -0.02716237 0.026856115 -0.0184651 0.029181473 -0.0052914717 0.052523736 0.026618982
-0.030894782 -0.018068379 0.019696087 -0.05037898 -0.04782118 0.020070765 0.054990385 -0.04195803
-0.013347361 -0.021158295 0.068301715 0.035583217 -0.07310206 -0.042364147 0.062498935 0.037875503
-0.051141407 -0.061221443 -0.023215119 -0.044454895 0.0672731 -0.074882895 0.05478879 0.0084329285
-0.008739581 -0.012122702 0.015320214 -0.075588 -0.027825749 -0.018037885 0.049667448 0.06326593
-0.05769403 0.022277884 -0.030048849 -0.036871143 0.044792697 0.04920504 -0.04615539 0.06205413
0.025001505 -0.060929038 -0.018393455 0.009881367 -0.0867166 -0.020491092 0.0026054464 -0.04514009
0.02051674 0.07773044 -0.023618467 0.042294983 0.07202999 -0.059429057 0.026784658 0.03510049
0.04919716 0.015940255 0.01032656 0.005304913 0.072970256 0.05464689 0.011352603 0.038849954
-0.002043193 -0.013289775 -0.08351023 -0.06714827 0.027683284 0.034063134 -0.07967726 -0.08499923
-0.0057420023 -0.04985594 -0.05173397 0.07375488 -0.049108695 0.07148541 -0.01986479 0.052278344
0.012602984 0.05947174 -0.048818137 -0.015035809 0.0002482695 -0.006895998 0.08434943 0.07939359
-0.008138304 0.0073080678 -0.05837532 0.08110082 -0.0030304461 0.023108594 -0.053476907 0.06181304
0.06748902 0.07086175 -0.07157559 -0.044025876 0.02065371 -0.04119812 0.007348948 -0.028212529
0.025124056 -0.034501262 0.067204855 -0.02642483 0.0007818175 -0.002439209 0.0658917 -0.05737006
0.053143065 0.0654168 -0.0032874374 -0.042370576 -0.0531633 -0.05742697 0.0051026912 -0.07408805
-0.044177547 -0.04084675 0.017271422 0.081730045 -0.04471643 -0.025615405 -0.062979 0.047598347
0.01620928 -0.037921585 0.048909325 0.06642575 -0.045620225 -0.023966093 -0.07017997 -0.005424316
0.03550215 -0.050254457 0.004539556 0.0029573876 -0.04311944 0.011994805 -0.023319332 0.014403843
0.009587397 0.03928218 0.0308829 -0.07869907 -0.055862222 -0.056762252 -0.0008844207 -0.052224893
-0.080609456 0.017287275 0.061720703 -0.0017129831 -0.026779283 0.043661676 0.060342964 -0.0018032184
-0.016443187 -0.081282765 0.07820891 0.05595182 0.02077011 -0.05688509 -0.049640916 0.046220466
-0.012600189 -0.054820005 0.030118307 -0.059698544 -0.07991078 0.019577725 -0.0035873281 0.06750194
0.047096655 0.014536153 -0.032701455 0.030415889 -0.007647588 0.07512111 0.08536422 0.052138265
0.018171623 -0.011423699 -0.03383182 0.08473307 -0.002799605 -0.028404286 0.0004992218 0.072348006
0.03464611 -0.012465479 -0.009390676 0.050966002 0.032971438 -0.03623959 -0.0648082 0.0439555
-0.02808152 0.014050512 -0.043137245 0.025792727 -0.052269243 -0.052707724 0.00054663164 -0.06867301
0.027642692 -0.06912886 -0.037512787 0.027028585 0.024163138 0.013623811 0.0064964406 0.024041003
0.026858691 -0.07061027 0.039544836 0.01481681 0.023378333 0.009626787 0.078589424 0.041373726
0.060921155 -0.013919049 0.061001766 -0.06734436 -0.01357416 -0.016817493 0.009467273 0.045363937
-0.05064267 0.043197658 0.011509909 -0.058051877 0.008330135 0.006951941 -0.0035633617 -0.041980475
0.0015039879 0.0696385 -0.005255217 -0.024162436 -0.048575155 0.010379409 0.009475575 -0.067555584
00000000: 5832 b63c 9e83 debc 5b01 dc3c 1f44 97bc
00000010: fc0d ef3c 1564 adbb 2123 573d 0d10 da3c
00000020: 0e17 fdbc 2304 94bc b059 a13c 305a 4ebd
00000030: 24e0 43bd 726b a43c 993d 613d 2fdc 2bbd
00000040: e4ae 5abc 2954 adbc c5e1 8b3d b5bf 113d
00000050: 88b6 95bd 0786 2dbd e2fe 7f3d 5823 1b3d
00000060: a779 51bd 56c3 7abd a22d bebc 5616 36bd
00000070: 7bc6 893d 345c 99bd 366a 603d 442a 0a3c
00000080: 7630 0fbc 4c9e 46bc a301 7b3c e2cd 9abd
00000090: d3f2 e3bc 30c4 93bc 1870 4b3d 9191 813d
000000a0: 9350 6cbd 1c80 b63c 0129 f6bc 3206 17bd
000000b0: 8c78 373d 398b 493d 6f0d 3dbd 792c 7e3d
000000c0: f5cf cc3c ba90 79bd dfad 96bc 75e5 213c
000000d0: 7998 b1bd efdc a7bc 23c0 2a3b d1e4 38bd
000000e0: b912 a83c 2331 9f3d 847b c1bc 813d 2d3d
000000f0: 7684 933d e26b 73bd 806b db3c 88c5 0f3d
00000100: f682 493d 2395 823c bb30 293c d6d4 ad3b
00000110: 6e71 953d 6bd5 5f3d 4500 3a3c 2121 1f3d
00000120: 17e7 05bb 5bbd 59bc 6907 abbd 0885 89bd
00000130: 0ec8 e23c c985 0b3d d52d a3bd 1414 aebd
00000140: 6827 bcbb be35 4cbd 00e7 53bd cc0c 973d
00000150: 3326 49bd f166 923d 7cbb a2bc d121 563d
00000160: bf7c 4e3c a498 733d 87f5 47bd c158 76bc
00000170: 2b2a 8239 d3f7 e1bb 65bf ac3d 1b99 a23d
00000180: 8556 05bc 8478 ef3b f61a 6fbd 3018 a63d
00000190: 739a 46bb 3c4e bd3c 9a0a 5bbd ac2f 7d3d
000001a0: af37 8a3d f71f 913d 3996 92bd 7a54 34bd
000001b0: f831 a93c 5cbf 28bd 72cf f03b f61d e7bc
000001c0: f7d0 cd3c 3251 0dbd b3a2 893d e378 d8bc
000001d0: e2f2 4c3a 23db 1fbb 3af2 863d defc 6abd
000001e0: 8bac 593d 3ef9 853d 0c72 57bb c58c 2dbd
000001f0: c3c1 59bd 8b38 6bbd 7a34 a73b 7abb 97bd
00000200: 84f3 34bd ec4e 27bd cc7c 8d3c 1562 a73d
00000210: 9328 37bd 66d7 d1bc 22fb 80bd 7cf6 423d
00000220: 53c9 843c aa53 1bbd 2555 483d 390a 883d
00000230: 46dc 3abd 8a54 c4bc 84ba 8fbd 76be b1bb
00000240: b46a 113d 9ed7 4dbd 8ec0 943b bbd0 413b
00000250: 039e 30bd dc85 443c 2f08 bfbc 19fe 6b3c
00000260: 7514 1d3c 5ae6 203d 23fe fc3c fa2c a1bd
00000270: c9cf 64bd 897f 68bd 78d8 67ba c5e9 55bd
00000280: 9216 a5bd 0b9e 8d3c d9ce 7c3d 2d86 e0ba
00000290: 3a60 dbbc 96d6 323d 2f2a 773d f859 ecba
000002a0: ddb3 86bc 9477 a6bd fe2b a03d bc2d 653d
000002b0: 1426 aa3c 5700 69bd 4654 4bbd ac51 3d3d
000002c0: 0671 4ebc f18a 60bd abba f63c 7686 74bd
000002d0: 43a8 a3bd 7761 a03c 6119 6bbb 753e 8a3d
000002e0: 6ce8 403d 0b29 6e3c f6f1 05bd be2a f93c
000002f0: 9e98 fabb 19d9 993d 70d3 ae3d ef8e 553d
00000300: a8dc 943c 772a 3bbc 3c93 0abd 8888 ad3d
00000310: 9479 37bb 1bb0 e8bc 35de 023a 312b 943d
00000320: 14e9 0d3d 023c 4cbc 5adb 19bc bac1 503d
00000330: 0f0d 073d f76f 14bd 29ba 84bd af0a 343d
00000340: 370b e6bc 1e34 663c aeb0 30bd 454b d33c
00000350: 4618 56bd 0ee4 57bd d44b 0f3a 6fa4 8cbd
00000360: ed72 e23c 6f93 8dbd 02a7 19bd 0d6b dd3c
00000370: c6f1 c53c 6836 5f3c 18e0 d43b a3f1 c43c
00000380: c206 dc3c 1e9c 90bd c4f9 213d 35c2 723c
00000390: eb83 bf3c acb9 1d3c 7ef3 a03d 7f77 293d
000003a0: 7688 793d b90c 64bc fddc 793d d7eb 89bd
000003b0: 2766 5ebc d7c4 89bc 9f1c 1b3c 89cf 393d
000003c0: b06e 4fbd 07f0 303d 0f94 3c3c cec7 6dbd
000003d0: 1e7b 083c 1ccd e33b 4a87 69bb b8f3 2bbd
000003e0: 7621 c53a a19e 8e3d f533 acbb 4df0 c5bc
000003f0: bef6 46bd 660e 2a3c 713f 1b3c 955a 8abd

encoder.mean_layer.bias f4 [3]
0.070696846 0.08957747 0.0142506845
00000000: 82c9 903d 6574 b73d b47b 693c

encoder.logvar_layer.weight f4 [3, 100]
-0.06969034 -0.017772628 0.0017434807 0.06535448 -0.045206428 0.078804 0.06114359 -0.045518097
0.043619983 -0.02315131 0.0072296006 -0.055667795 0.077162005 -0.016919946 -0.0027597717 0.0066824015
0.0048119696 0.056763344 -0.030450113 0.046127517 -0.02723187 0.01072171 0.051037375 0.04579819
-0.08956691 -0.053073935 0.053043284 0.006786423 -0.080736555 -0.093681306 0.062231332 -0.037141044
-0.012987613 -0.059095643 -0.07053621 0.047341794 -0.035327274 -0.08864192 0.05558397 0.017291319
0.031290274 -0.03074501 0.01166471 0.0331836 -0.013458431 -0.004230039 0.0064455913 -0.040521745
-0.06861485 0.07155866 0.045776404 0.05709425 0.073639475 0.021871423 0.06890666 -0.006906547
0.0055738054 0.05367178 -0.004799753 0.014468035 -0.013226801 -0.058712702 -0.047547873 0.055345245
0.052863378 -0.042156264 -0.026760979 0.03981895 0.06948844 -0.050689787 0.018349126 0.09317837
-0.050584618 0.05678426 0.029105846 -0.004846558 0.07190408 0.030927893 0.05699017 -0.08370109
-0.012833364 0.013656536 0.037306495 0.08224955 -0.07358854 -0.012969072 -0.07228162 0.03596022
0.0079700425 0.085772716 0.04060181 0.090519175 -0.07445568 0.016647624 0.05211515 0.008390071
0.025766112 -0.08283931 0.07706604 0.05910807 -0.04600085 -0.048384324 -0.026594523 -0.04310998
0.02889492 0.04237144 0.068529025 -0.015727818 0.0015511032 0.018866986 -0.03599059 0.028493444
0.010827679 0.03940773 0.06858589 0.026335958 0.062424853 0.0841334 0.010560107 0.06293909
0.047833677 0.050074816 0.075135596 0.045268144 -0.0013949318 0.057573833 0.058595147 -0.041673325
-0.063011006 0.025344662 -0.06991753 0.044538166 -0.06660799 -0.04744986 -0.10447182 -0.04195324
-0.01458777 0.04478128 0.02998003 0.06291339 -0.07471098 0.041986305 -0.057087053 0.06248854
-0.026724482 -0.04212056 0.033329442 0.0332551 0.037156034 0.06000193 0.053741865 0.0029305255
0.080894075 0.06202992 -0.006744521 -0.020722449 -0.018183857 0.015093875 -0.0816169 -0.0067968364
-0.06586842 0.0068810764 -0.031607218 -0.0011757716 0.056962945 -0.04184192 -0.045294933 0.004589789
-0.030226553 -0.045238636 0.018589472 0.088001676 0.019229718 -0.027767494 -0.06553192 -0.020177895
0.01174264 -0.04795525 0.036346793 -0.0085828975 -0.056692183 0.025317656 0.06565466 5.4623662e-05
-0.08263399 0.016060485 -0.040699355 -0.014006143 0.074981205 0.06437519 0.08654063 0.0880746
-0.08301578 0.024173774 0.004386828 0.07553355 -0.031485856 -0.08332463 0.07659341 -0.01709564
-0.032916788 -0.0022985092 -0.018206768 0.05054951 0.011019312 0.014997166 -0.043592148 0.033489414
-0.034697533 0.0033558994 -0.04736674 -0.032177504 -0.0083090635 0.0059743165 0.007340141 0.010351848
0.07447493 0.05748269 -0.027714891 -0.008556975 -0.006083407 0.04761864 0.022506088 -0.0048630587
0.010776109 -0.024547819 -0.0030356366 -0.0060064285 -0.0907974 -0.037472896 0.065146826 0.080076575
-0.061828576 -0.08695479 -0.09958592 0.042373132 -0.08222183 -0.04407145 -0.035573237 0.089393966
-0.09109302 0.016611975 -0.03981312 0.05939766 -0.0008902729 0.048400164 -0.042036436 0.05982679
-0.06820906 0.00903365 0.00012751784 -0.06593226 0.05399116 0.006199046 0.06361421 -0.07746136
00000000: cfb9 8ebd e797 91bc 8185 e43a 92d8 853d
00000010: 602a 39bd fe63 a13d b371 7a3d 2f71 3abd
00000020: deaa 323d d1a7 bdbc 49e6 ec3b ea03 64bd
00000030: 1d07 9e3d b39b 8abc 49dd 34bb 0cf8 da3b
00000040: baad 9d3b ae80 683d 8472 f9bc 35f0 3c3d
00000050: 5f15 dfbc 1caa 2f3c 910c 513d e296 3b3d
00000060: db6e b7bd 0e64 59bd ea43 593d a460 de3b
00000070: 3559 a5bd fcdb bfbd 48e6 7e3d 3521 18bd
00000080: ffc9 54bc 460e 72bd 4a75 90bd 78e9 413d
00000090: 55b3 10bd e589 b5bd 04ac 633d 86a6 8d3c
000000a0: 3b2a 003d f6dc fbbc 571d 3f3c 87eb 073d
000000b0: c080 5cbc 249c 8abb 8a35 d33b 21fa 25bd
000000c0: f185 8cbd 598d 923d 0a80 3b3d a9db 693d
000000d0: 4bd0 963d b32b b33c ef1e 8d3d 5150 e2bb
000000e0: 78a4 b63b f1d6 5b3d 3f47 9dbb 560b 6d3c
000000f0: 39b5 58bc bb7c 70bd 8fc1 42bd b2b1 623d
00000100: 4587 583d 0cac 2cbd d739 dbbc 3219 233d
00000110: f54f 8e3d 18a0 4fbd e850 963c 4dd4 be3d
00000120: d131 4fbd 9d96 683d 626f ee3c e0cf 9ebb
00000130: 7242 933d 7e5c fd3c 866e 693d 7a6b abbd
00000140: 0843 52bc aabf 5f3c b2ce 183d 7472 a83d
00000150: 97b5 96bd 3b7c 54bc 6308 94bd 064b 133d
00000160: c894 023c 9ba9 af3d 154e 263d 1e62 b93d
00000170: 387c 98bd 9960 883c b276 553d 8276 093c
00000180: 7413 d33c a8a7 a9bd cdd4 9d3d 4e1b 723d
00000190: 636b 3cbd a42e 46bd c2dc d9bc 1794 30bd
000001a0: 0ab5 ec3c ad8d 2d3d f258 8c3d a0d7 80bc
000001b0: 634e cb3a f08e 9a3c de6a 13bd 156b e93c
000001c0: 9466 313c 006a 213d c276 8c3d 82be d73c
000001d0: 34b1 7f3d 224e ac3d 4d04 2d3c 36e6 803d
000001e0: 3fed 433d 401b 4d3d b1e0 993d 176b 393d
000001f0: 25d6 b6ba 8ad2 6b3d 7701 703d a6b1 2abd
00000200: ea0b 81bd 9c9f cf3c ec30 8fbd a76d 363d
00000210: c569 88bd c95a 42bd 52f5 d5bd 29d7 2bbd
00000220: 8b01 6fbc 936c 373d ae98 f53c bcd8 803d
00000230: 1202 99bd d5f9 2b3d 1dd4 69bd fcf3 7f3d
00000240: 4ded dabc 9c86 2cbd 7484 083d 8036 083d
00000250: ed30 183d 95c4 753d 6e20 5c3d 0f0e 403b
00000260: cbab a53d 1613 7e3d 2501 ddbb 20c2 a9bc
00000270: 50f6 94bc 4d4c 773c c326 a7bd ffb7 debb
00000280: 06e6 86bd a77a e13b 9276 01bd 591c 9aba
00000290: fa51 693d 6f62 2bbd 2e87 39bd f165 963b
000002a0: ad9d f7bc 264c 39bd f348 983c 393a b43d
000002b0: a487 9d3c a878 e3bc 9935 86bd 1d4c a5bc
000002c0: 3464 403c b96c 44bd 60e0 143d 489f 0cbc
000002d0: 1036 68bd f966 cf3c f375 863d b61b 6538
000002e0: 023c a9bd 4791 833c 5eb4 26bd 067a 65bc
000002f0: bf8f 993d 24d7 833d 373c b13d 7560 b43d
00000300: 2d04 aabd 1408 c63c 61bf 8f3b 55b1 9a3d
00000310: 50f7 00bd 1ba6 aabd 01dd 9c3d 280c 8cbc
00000320: c1d3 06bd 96a2 16bb 5c26 95bc 010d 4f3d
00000330: 588a 343c acb6 753c ae8d 32bd 322c 093d
00000340: 001f 0ebd a6ee 5b3b a003 42bd 8fcc 03bd
00000350: bd22 08bc 33c4 c33b 9185 f03b cc9a 293c
00000360: 5086 983d f872 6b3d 570a e3bc 8e32 0cbc
00000370: 5157 c7bb c30b 433d b05e b83c 4b5a 9fbb
00000380: 478e 303c 8218 c9bc 88f1 46bb 93d1 c4bb
00000390: fdf3 b9bd 2e7d 19bd b36b 853d 30ff a33d
000003a0: f63f 7dbd 5a15 b2bd b4f3 cbbd 738f 2d3d
000003b0: eb63 a8bd 4484 34bd 3eb5 11bd 2f14 b73d
000003c0: fa8e babd d615 883c 1513 23bd f64a 733d
000003d0: 3461 69ba 403f 463d 662e 2cbd f00c 753d
000003e0: 31b1 8bbd e001 143c 4fb6 0539 7e07 87bd
000003f0: d625 5d3d 5e21 cb3b 2b48 823d 10a4 9ebd

encoder.logvar_layer.bias f4 [3]
0.08401281 -0.019927181 0.005686415
00000000: e80e ac3d 543e a3bc 1b55 ba3b

decoder.layers.0.weight f4 [100, 4]
-0.020494781 0.045921635 0.1102427 0.1319286 -0.09626058 -0.4378407 0.3205993 0.35164922
0.20086622 -0.13570729 0.027850708 0.3693852 0.22997294 -0.110617265 0.2448449 0.52994007
-0.12453587 0.04703276 0.12064537 0.47598934 0.40333617 0.16580333 -0.1765267 -0.8505448
0.20867293 0.13479014 -0.37826055 0.49950048 -0.22843061 0.06522358 -0.0713031 -0.4594918
-0.14995559 -0.35451105 -0.13383996 -0.13516144 -0.29529676 -0.13252178 0.095058136 0.040524676
0.17155075 -0.21854496 -0.15702094 -0.69100857 0.24313888 -0.017588967 -0.1425651 0.42964697
-0.21732138 0.3741193 -0.25529408 0.21607815 -0.23964083 -0.013586927 -0.10604708 0.29086307
0.10629086 -0.36402294 0.22249085 -0.2424 0.21935144 -0.3748001 0.38765547 -0.27622977
0.28161147 -0.17000394 -0.16906439 -0.9465536 0.33700415 0.19138244 0.031514402 -0.45309278
0.36597613 -0.20173943 -0.097346336 0.1839677 0.14740558 0.063619025 0.0125506455 0.6698036
0.0036341 -0.044680767 0.0071468265 0.44206056 0.19611081 0.18195873 -0.26048332 -0.13185352
0.13555484 0.050884265 0.22669668 0.41001993 0.13769625 -0.047076683 -0.069581605 0.31745273
-0.24910228 -0.39529923 -0.10044497 0.5106787 0.35029903 -0.057144757 0.17479461 0.15601645
0.056519333 0.12662897 -0.07169715 0.5544845 0.32955673 0.1214645 0.14237191 -0.64357436
0.2074679 -0.13170953 -0.07335221 -0.75534767 0.15817471 -0.009676605 -0.20895727 -0.27419436
-0.38337272 -0.1820431 0.2814508 -0.9083962 -0.03591775 0.049497474 -0.1466424 0.31190637
0.31366065 -0.18106933 0.16111274 -0.70421904 -0.29603824 0.34680834 0.29642335 -0.511822
0.37225074 -0.11087084 -0.08288435 0.39258885 -0.3909228 0.15206003 0.4316826 0.51686573
-0.0022086215 0.10840748 -0.022231296 0.20066029 -0.050256476 0.061741237 -0.12520121 -0.1723184
0.34451115 -0.37845078 -0.21300937 0.5062587 0.22564429 0.21244113 0.09562915 -0.23097731
0.26351914 -0.0141450465 0.0033822928 -0.40612188 -0.13641685 0.2371246 0.09781335 -0.21889476
-0.2128785 -0.060984086 0.08696221 0.111045346 0.3701214 -0.036746066 0.21729933 0.6054212
0.27392125 -0.33107555 -0.12580109 0.27166957 0.09675159 -0.037650645 0.17789304 -0.37098843
-0.08893455 -0.36346492 -0.13443789 -0.28365585 -0.04086047 -0.32023588 0.25254932 -0.8557735
-0.22143929 -0.083914414 0.4409741 -0.094657786 -0.023406507 0.41750255 -0.37503758 0.11787071
0.38907346 0.2628222 -0.22038472 0.07264852 0.069399446 0.066039816 -0.18691716 0.2649275
0.20408136 0.40998888 -0.2469107 0.33055392 -0.2716556 -0.26726943 -0.23252656 -0.022920625
0.3242903 -0.28293142 0.16747949 0.5157217 -0.35335553 0.2298883 -0.33494002 -0.006812411
-0.037410256 -0.26844785 0.28078786 0.29358387 -0.28870374 -0.21076791 -0.16645177 -0.48347992
0.13352491 0.009935712 0.06875861 0.544856 -0.35230744 0.12487077 -0.17466572 0.53674996
0.3722516 0.089197114 0.025387475 0.20008703 0.36324385 0.08951598 0.18725407 -0.35495967
-0.29953006 0.037216283 -0.06877637 0.6143276 -0.03793523 -0.051006477 -0.08189234 -0.64589393
00000000: ace4 a7bc 5318 3c3d edc6 e13d 4a18 073e
00000010: 4424 c5bd a82c e0be 9725 a43e 5e0b b43e
00000020: e0af 4d3e daf6 0abe 2b27 e43c 0f20 bd3e
00000030: 077e 6b3e 4e8b e2bd 9fb8 7a3e 27aa 073f
00000040: aa0c ffbd 6ca5 403d eb14 f73d e0b4 f33e
00000050: 1482 ce3e 59c8 293e 6ac3 34be 4ebd 59bf
00000060: 5bae 553e 6d06 0a3e 5eab c1be 87be ff3e
00000070: b7e9 69be f193 853d 5c07 92bd 8242 ebbe
00000080: f58d 19be 7982 b5be 580d 09be c367 0abe
00000090: 2331 97be cab3 07be d7ad c23d 34fd 253d
000000a0: 00ab 2f3e 40ca 5fbe 19ca 20be f0e5 30bf
000000b0: 66f9 783e bd16 90bc 96fc 11be b0fa db3e
000000c0: 7f89 5ebe 918c bf3e e8b5 82be 9743 5d3e
000000d0: 6864 75be b49b 5ebc 362f d9bd 01ec 943e
000000e0: 06af d93d 3761 babe a4d4 633e b537 78be
000000f0: aa9d 603e cce5 bfbe c77a c63e fd6d 8dbe
00000100: 612f 903e 8315 2ebe 371f 2dbe 5651 72bf
00000110: cf8b ac3e c2f9 433e 3f15 013d c7fb e7be
00000120: 3961 bb3e c894 4ebe 845d c7bd 0762 3c3e
00000130: 7df1 163e b14a 823d 39a1 4d3c 4078 2b3f
00000140: 152a 6e3b 2e03 37bd ed2f ea3b c355 e23e
00000150: 46d1 483e 6453 3a3e 125e 85be 9c04 07be
00000160: e3ce 0a3e 056c 503d 2d23 683e 22ee d13e
00000170: 3f00 0d3e 7bd3 40bd cd80 8ebd 2a89 a23e
00000180: ab14 7fbe a964 cabe 18b6 cdbd d7bb 023f
00000190: 655a b33e 9f10 6abd 5cfd 323e c7c2 1f3e
000001a0: d180 673d 06ab 013e f5d5 92bd b2f2 0d3f
000001b0: a9bb a83e 61c2 f83d f1c9 113e 4ac1 24bf
000001c0: 7772 543e ddde 06be af39 96bd 775e 41bf
000001d0: 8df8 213e a08a 1ebc e5f8 55be 3463 8cbe
000001e0: 6e49 c4be 8269 3abe 521a 903e a78c 68bf
000001f0: 7e1e 13bd ddbd 4a3d 6d29 16be 31b2 9f3e
00000200: 2198 a03e 3d6a 39be bdfa 243e b347 34bf
00000210: 5392 97be dd90 b13e cdc4 973e c406 03bf
00000220: a697 be3e 4010 e3bd 45bf a9bd 6801 c93e
00000230: 0927 c8be a0b5 1b3e 8005 dd3e 5051 043f
00000240: 85be 10bb be04 de3d 681e b6bc e479 4d3e
00000250: bcd9 4dbd 61e4 7c3d bf34 00be 3c74 30be
00000260: c463 b03e 4dc4 c1be 211f 5abe 2c9a 013f
00000270: 4c0f 673e 2b8a 593e 37d9 c33d 5185 6cbe
00000280: fbeb 863e a0c0 67bc 75a9 5d3b 35ef cfbe
00000290: dcb0 0bbe cbd0 723e 5e52 c83d f325 60be
000002a0: d2fc 59be 73ca 79bd 3e19 b23d be6b e33d
000002b0: 8d80 bd3e 0b83 16bd b783 5e3e e2fc 1a3f
000002c0: 683f 8c3e bc82 a9be 00d2 00be 4618 8b3e
000002d0: b325 c63d 9037 1abd 9829 363e 32f2 bdbe
000002e0: 5123 b6bd 1318 babe 16aa 09be 573b 91be
000002f0: 4f5d 27bd f5f5 a3be 254e 813e f913 5bbf
00000300: fbc0 62be 52db abbd 5bc7 e13e f1db c1bd
00000310: 01bf bfbc e5c2 d53e ed04 c0be 3366 f13d
00000320: a334 c73e a290 863e 88ac 61be bfc8 943d
00000330: 4c21 8e3d e23f 873d 3667 3fbe 94a4 873e
00000340: b4fa 503e 10ea d13e 29d6 7cbe 5d3e a93e
00000350: 7116 8bbe 8ad7 88be 711b 6ebe 09c4 bbbc
00000360: 6109 a63e 63dc 90be be7f 2b3e 5606 043f
00000370: 04eb b4be d767 6b3e 427d abbe a53a dfbb
00000380: 7f3b 19bd ff71 89be 6dc3 8f3e a050 963e
00000390: fad0 93be 8bd3 57be 5572 2abe ae8a f7be
000003a0: c1ba 083e 66c9 223c 50d1 8c3d af7b 0b3f
000003b0: a461 b4be 3fbc ff3d 92db 32be 7268 093f
000003c0: c397 be3e faac b63d 65f9 cf3c 9de3 4c3e
000003d0: 19fb b93e 2754 b73d 88bf 3f3e 46bd b5be
000003e0: 015c 99be 1a70 183d a0da 8cbd 9344 1d3f
000003f0: f961 1bbd 2bec 50bd 2cb7 a7bd 4e59 25bf

decoder.layers.0.bias f4 [100]
0.046159808 0.33299989 -0.26562932 -0.7057478 -0.33157328 -0.02104533 0.41182655 -0.5621561
0.16574113 -0.082037084 0.09216694 -0.36283085 0.16976734 0.4374218 0.62611854 -0.48072314
-0.51915807 -0.59793174 -0.3559869 -0.9889329 -0.86842006 0.68423176 -0.90370774 -0.5822673
-0.82138914 0.42468983 -0.42914757 0.502503 -0.19593713 1.2664942 -0.47151053 -0.83238226
0.60878396 0.21069041 0.31380132 -0.11620094 -0.7591937 0.8131137 -0.22286414 0.97768706
-0.247239 0.9602364 -0.6739425 0.1954397 -0.35451415 -0.30565387 0.8622827 -0.259899
0.06261885 -0.21223661 -0.43138808 -0.09505274 -0.32022062 -0.12694432 0.15979546 0.47170505
0.44158164 0.11089313 -0.40893584 -0.26591486 -0.0977493 -0.5633014 -0.7758395 0.7879447
-0.6008871 0.19995688 1.0807062 -0.50168985 -0.11221425 0.28738946 0.3271173 -0.19348617
-0.52594376 -0.6777803 1.2250907 -0.47253075 -1.0653954 0.78793555 -0.026883597 0.67030966
0.78316176 0.39895824 0.72251683 -0.95299774 -0.87647796 -0.40800205 -0.12716378 0.6590181
-0.039509967 -0.6216657 0.29179472 0.2652115 -0.27407524 -0.43361306 -0.4472018 0.28069603
0.45288077 0.064377256 -0.6779037 0.008374543
00000000: 1112 3d3d f67e aa3e 9100 88be e3ab 34bf
00000010: f9c3 a9be 4267 acbc eeda d23e 76e9 0fbf
00000020: 0bb8 293e 0f03 a8bd 05c2 bc3d f7c4 b9be
00000030: 7dd7 2d3e c0f5 df3e 4e49 203f 5821 f6be
00000040: 8be7 04bf 0e12 19bf ea43 b6be b52a 7dbf
00000050: c750 5ebf d029 2f3f 6459 67bf 780f 15bf
00000060: 8f46 52bf f270 d93e 3bb9 dbbe 09a4 003f
00000070: bea3 48be 7b1c a23f d469 f1be 0117 55bf
00000080: 44d9 1b3f 3abf 573e 91aa a03e c2fa edbd
00000090: 855a 42bf 3828 503f 7f36 64be b349 7a3f
000000a0: 382c 7dbe 0dd2 753f 7f87 2cbf 5821 483e
000000b0: e182 b5be aa7e 9cbe 8fbe 5c3f 7b11 85be
000000c0: 503e 803d 8e54 59be e6de dcbe 03ab c2bd
000000d0: f5f3 a3be b1fd 01be 6ca1 233e 5383 f13e
000000e0: fd16 e23e f01b e33d 0a60 d1be fe25 88be
000000f0: c930 c8bd 8534 10bf 6b9d 46bf beb6 493f
00000100: bdd3 19bf 7fc1 4c3e 9554 8a3f bf6e 00bf
00000110: 96d0 e5bd b624 933e eb7b a73e 3d21 46be
00000120: 40a4 06bf 0283 2dbf c6cf 9c3f 8def f1be
00000130: e05e 88bf 25b6 493f fd3a dcbc 6a99 2b3f
00000140: 4a7d 483f 4144 cc3e ddf6 383f a9f7 73bf
00000150: dc60 60bf a5e5 d0be 3937 02be 69b5 283f
00000160: 34d5 21bd 7c25 1fbf 1e66 953e cdc9 873e
00000170: 9753 8cbe 8802 debe a2f7 e4be 64b7 8f3e
00000180: fddf e73e 39d8 833d 198b 2dbf 6135 093c

decoder.layers.1.weight f4 [100, 100]
0.08858515 -0.055788737 0.085209 0.05558652 0.020750258 -0.0385038 0.030695805 -0.078311294
-0.054214094 0.07752429 -0.022874607 0.07402413 -0.023771795 0.078619346 -0.0069146142 0.021024955
0.04965925 -0.06920947 0.040158685 0.03175809 0.087594315 0.07341097 0.049356624 0.0049677216
0.017261172 0.012048617 0.052127305 -0.064614095 0.049176347 0.062395394 -0.0043970025 -0.089535765
-0.033477895 0.011324087 0.029834086 0.04574276 0.046262253 -0.012997122 0.08641155 -0.02324165
-0.06318043 0.01166069 0.10377489 0.01596848 0.08098301 -0.08000397 0.04122186 0.09419763
0.09114031 -0.08930639 0.010997725 0.04309911 -0.09298563 0.07857369 -0.07846524 -0.072146416
0.038202465 0.04275361 0.032459456 0.019364845 -0.092189275 0.032744344 0.051650047 -0.015566158
0.017536653 -0.049169295 -0.065682776 0.0489056 0.041171655 -0.05784381 0.07307494 -0.06511212
-0.021335624 0.06956097 -0.034107912 0.030976463 0.065107584 -0.05872455 0.011916761 0.08684368
0.046987884 0.048834268 -0.08262543 0.04532659 -0.08662579 -0.010126668 -0.028723571 0.061536565
-0.07078199 0.017489938 0.061241582 0.03629065 -0.055500608 -0.020764038 0.0014523228 0.067169525
-0.08942218 0.0037666021 -0.08165635 0.046669617 -0.09517913 -0.11135254 -0.09129574 -0.23155756
-0.3184724 0.16431382 -0.15139867 0.02664451 0.17144848 -0.026005259 0.2740637 -0.1913687
-0.019431062 -0.0061479216 0.17550881 -0.092236266 0.045237478 0.12151342 -0.22129783 -0.3385303
-0.21309383 0.31403938 -0.2184872 -0.24180229 -0.33965367 0.11360248 -0.3519055 0.21842296
0.15259202 0.23609897 0.05397457 -0.27769342 0.3301132 0.16060328 -0.12978254 -0.30749995
-0.26123092 0.24093254 -0.16916825 0.2009262 0.19604892 0.31633538 -0.24726278 -0.18984243
-0.23185939 -0.0072441157 0.30005184 0.09693494 -0.014348421 0.022738798 -0.16734147 -0.15372154
-0.02910455 -0.0077346535 -0.09166 0.19191155 -0.06969728 0.15924977 -0.23111044 -0.28345495
-0.09943773 -0.06467599 -0.3774775 0.2932575 -0.3102845 -0.13636027 0.22385907 -0.04055353
0.18389237 0.32111907 0.14721657 0.10275593 0.08881715 -0.35271853 0.22266047 -0.001722681
-0.12620825 0.28335652 -0.19489306 0.28376305 0.18652277 0.27496764 0.15551987 -0.3496346
-0.18544713 -0.16816823 -0.17932542 0.18861932 -0.10984415 -0.041836806 0.024035988 0.16211592
0.023644965 0.0027425627 -0.15794377 -0.0052294782 0.26065126 0.25051415 0.004293125 0.21851236
-0.08870427 0.07409683 0.055088922 0.0044556735 -0.0037398136 0.054480452 0.003981938 0.043673847
-0.05831704 0.054677114 -0.054381236 0.049971662 0.021171447 0.027377844 0.028426185 0.08828035
0.033630904 -0.0877977 -0.055089507 -0.0032137558 -0.011109595 -0.049289845 0.0969526 0.08042093
0.00935396 0.07741786 -0.0981038 0.02910851 0.008543356 0.09327472 -0.06005272 -0.03164505
-0.09106776 -0.052414764 0.023619333 -0.018405393 0.02789197 0.029864013 0.09320695 -0.04071137
0.057616934 -0.0042510564 -0.03019151 -0.08290511 -0.02841857 -0.009776469 0.058561757 -0.07203258
-0.06299042 0.023322074 -0.03058742 -0.057819273 -0.03312486 0.024641732 0.024518764 0.06335155
00000000: 226c b53d bb82 64bd 0e82 ae3d b1ae 633d
00000010: 72fc a93c 29b6 1dbd c575 fb3c ac61 a0bd
00000020: 990f 5ebd 0ec5 9e3d 8763 bbbc f799 973d
00000030: 11bd c2bc 2e03 a13d fd93 e2bb 873c ac3c
00000040: 7f67 4b3d b2bd 8dbd 6f7d 243d c514 023d
00000050: a664 b33d 7e58 963d 2c2a 4a3d 45c8 a23b
00000060: 4d67 8d3c 9067 453c 7183 553d 6554 84bd
00000070: 236d 493d 5092 7f3d bb14 90bb 875e b7bd
00000080: 1e20 09bd aa88 393c 9d66 f43c c35c 3b3d
00000090: 7d7d 3d3d e1f1 54bc 8af8 b03d 4665 bebc
000000a0: be64 81bd 7b0c 3f3c ee87 d43d 54d0 823c
000000b0: 6cda a53d 1fd9 a3bd 41d8 283d b0ea c03d
000000c0: c5a7 ba3d 45e6 b6bd cd2f 343c b188 303d
000000d0: 406f bebd 3eeb a03d 62b2 a0bd 80c1 93bd
000000e0: 307a 1c3d 691e 2f3d 35f4 043d 06a3 9e3c
000000f0: bbcd bcbd ef1e 063d 008f 533d 3309 7fbc
00000100: 07a9 8f3c be65 49bd b184 86bd 3d51 483d
00000110: 9ca3 283d a2ed 6cbd 50a8 953d 8159 85bd
00000120: 0cc8 aebc fb75 8e3d bdb4 0bbd 5ac2 fd3c
00000130: 2057 853d 2789 70bd 853e 433c 19db b13d
00000140: 5e76 403d 7106 483d 8537 a9bd 60a8 393d
00000150: dd68 b1bd 53ea 25bc b24d ebbc c40d 7c3d
00000160: 26f6 90bd 0f47 8f3c 74d8 7a3d 81a5 143d
00000170: 9b54 63bd 5819 aabc de5b be3a 2d90 893d
00000180: fa22 b7bd 19d9 763b 723b a7bd a428 3f3d
00000190: 47ed c2bd cd0c e4bd 43f9 babd 6d1d 6dbe
000001a0: d00e a3be e241 283e 4108 1bbe 9645 da3c
000001b0: 3190 2f3e fb08 d5bc 1452 8c3e 28f6 43be
000001c0: e42d 9fbc 8174 c9bb 95b8 333e 5ee6 bcbd
000001d0: ef4a 393d 07dc f83d e69b 62be d853 adbe
000001e0: 4535 5abe c5c9 a03e 1cbb 5fbe 059b 77be
000001f0: 16e7 adbe 6ba8 e83d f52c b4be 45aa 5f3e
00000200: 1541 1c3e eec3 713e 7014 5d3d d52d 8ebe
00000210: 9904 a93e 3075 243e b7e5 04be a270 9dbe
00000220: 0fc0 85be 05b7 763e 713a 2dbe 99bf 4d3e
00000230: 0cc1 483e b6f6 a13e 7432 7dbe 0e66 42be
00000240: 8c6c 6dbe 0c60 edbb 65a0 993e d385 c63d
00000250: a415 6bbc b746 ba3c 905b 2bbe 2e69 1dbe
00000260: aa6c eebc fa72 fdbb 3db8 bbbd 7684 443e
00000270: 73bd 8ebd 5f12 233e 37a8 6cbe 0221 91be
00000280: 02a6 cbbd d874 84bd bb44 c1be d925 963e
00000290: 9cdd 9ebe 07a2 0bbe 503b 653e 751b 26bd
000002a0: 484e 3c3e b869 a43e f1bf 163e b371 d23d
000002b0: c4e5 b53d 8697 b4be 1b01 643e 95cb e1ba
000002c0: bc3c 01be 1b14 913e 0c92 47be 6449 913e
000002d0: d3ff 3e3e 8fc8 8c3e 9a40 1f3e 4e03 b3be
000002e0: dae5 3dbe 4b34 2cbe 15a1 37be 6c25 413e
000002f0: f8f5 e0bd 125d 2bbd 1fe7 c43c b701 263e
00000300: 16b3 c13c 91bc 333b 03bc 21be 0b5c abbb
00000310: 1574 853e 6443 803e 58ad 8c3b b4c1 5f3e
00000320: 96aa b5bd 14c0 973d eca4 613d e600 923b
00000330: a917 75bb e526 5f3d eb7a 823b 59e3 323d
00000340: d9dd 6ebd 1cf5 5f3d dcbe 5ebd 16af 4c3d
00000350: be6f ad3c 8047 e03c 08de e83c 54cc b43d
00000360: 8fc0 093d 48cf b3bd 89a5 61bd e09d 52bb
00000370: 0505 36bc 26e4 49bd 168f c63d bbb3 a43d
00000380: 5a41 193c 418d 9e3d a5ea c8bd f874 ee3c
00000390: 6ff9 0b3c d106 bf3d d7f9 75bd 3d9e 01bd
000003a0: bc81 babd ddb0 56bd 557d c13c e8c6 96bc
000003b0: b37d e43c 60a5 f43c 49e3 be3d f7c0 26bd
000003c0: bcff 6b3d 724c 8bbb 3054 f7bc 28ca a9bd
000003d0: 10ce e8bc 7c2d 20bc 74de 6f3d d185 93bd
000003e0: 1f01 81bd ef0d bf3c 7892 fabc e7d3 6cbd
000003f0: efad 07bd 75dd c93c 93db c83c 75be 813d
